model/model_epoch50000_mse_1r_32b_delt.pth (torch, 38487 bytes, 6 tensors)

fc.0.weight f4 [128, 4]
0	0xbee8ca46	-0.45466822
1	0xbecc4e90	-0.39903688
2	0x3ed83976	0.4223134
3	0xbef71748	-0.4825995
4	0xbe0f994c	-0.14023322
5	0x3e1ed698	0.15511549
6	0x3dfb47f0	0.1226958
7	0xbe787904	-0.24264914
8	0xbee20488	-0.44144082
9	0x3ebb0a42	0.36531264
10	0xbe89e1da	-0.26930124
11	0x3e87f3f6	0.26553315
12	0x3e968554	0.29398596
13	0xbe3318d1	-0.17489935
14	0x3ef56abd	0.47932997
15	0xbea13402	-0.3148499
16	0x3e209ed8	0.15685594
17	0xbe94d59a	-0.29069215
18	0xbe8f9710	-0.2804494
19	0xbc166400	-0.009179115
20	0xbef476bf	-0.47746846
21	0xbee3a791	-0.4446378
22	0xbea0d1b7	-0.3141
23	0x3e1d8656	0.15383276
24	0xbe659fbd	-0.22424217
25	0xbcedf19f	-0.029045878
26	0x3eb1fe40	0.3476429
27	0x3d7435c2	0.05962158
28	0xbe967ea6	-0.293935
29	0x3ded6258	0.11591023
30	0x3efa012e	0.48829025
31	0x3e27a3e8	0.16371119
32	0x3c1c843d	0.009553012
33	0xbe25e07c	-0.16198915
34	0xba5f7f12	-0.000852571
35	0xbe963dc8	-0.2934401
36	0x3e806124	0.25074112
37	0x3eacd478	0.3375585
38	0x3d000c75	0.03126188
39	0x3eccdeaa	0.4001363
40	0x3d91b088	0.07113749
41	0x3ed52b52	0.41634613
42	0xbf0b0b66	-0.5431427
43	0xbe95e15e	-0.29273504
44	0x3e3d440c	0.18482989
45	0xbe36e19c	-0.178595
46	0xbe66bf5c	-0.22533935
47	0xbecfdbfa	-0.40597516
48	0x3e104dcd	0.14092179
49	0x40502c4e	3.2527041
50	0x3ee79a56	0.45234936
51	0xbedefef2	-0.43553883
52	0x3e93062e	0.28715652
53	0xbe8d7c42	-0.27633864
54	0xbd919514	-0.071085125
55	0x3ef2a36f	0.47390315
56	0x3ee50db8	0.4473703
57	0xbeb99e8e	-0.3625378
58	0xbe306320	-0.17225313
59	0xbe6fd8a0	-0.2342248
60	0xbdabdd04	-0.08391765
61	0xbead0a4e	-0.33796924
62	0xbe5a2f77	-0.21307169
63	0xbf9cf2b3	-1.2261566
64	0x3ef661b3	0.48121414
65	0x3ed5f914	0.41791594
66	0x3e3d7f72	0.18505648
67	0xbef5b0fd	-0.47986594
68	0x3e9ee2b7	0.31032345
69	0x3d9b9bc6	0.07598071
70	0x3ea78292	0.32716805
71	0xbedfef2a	-0.43737155
72	0xbe273aaa	-0.16330972
73	0x3c5f6380	0.0136345625
74	0x3dc06514	0.09394279
75	0xbde11cb1	-0.109918006
76	0x3e672858	0.22573984
77	0xbd4d3cf0	-0.050106943
78	0xbdeab390	-0.1146003
79	0xbd92ad00	-0.071619034
80	0x3ccca5c4	0.024981387
81	0xbd9f01e1	-0.0776403
82	0xbe83b3c9	-0.25723103
83	0x3e715d9d	0.23570867
84	0x3e972838	0.29522872
85	0xbeb0ba37	-0.3451707
86	0xbc66d0bb	-0.014087851
87	0x3ecfc187	0.40577337
88	0xbeda26a6	-0.4260761
89	0x3e9dd100	0.30823517
90	0x3edca3c4	0.43093693
91	0x3edca33c	0.43093288
92	0x3def0952	0.116716996
93	0x3d93df81	0.07220364
94	0x3e65925d	0.22419114
95	0x3ef3d21a	0.47621232
96	0x3e5b2278	0.21399868
97	0x3ed06572	0.40702397
98	0xbea5080d	-0.32232705
99	0xbd77ece5	-0.060528655
100	0xbe648950	-0.22318006
101	0xbe967d9a	-0.293927
102	0xbe864e0a	-0.26231414
103	0x3e454f70	0.19268584
104	0x3edfd441	0.43716624
105	0x3f5a3c91	0.85248667
106	0xbe4f1637	-0.20223318
107	0x3e1546ac	0.1457774
108	0xbef4d508	-0.4781878
109	0x3e532cac	0.2062251
110	0x3eea322e	0.4574141
111	0x3e1012e0	0.140697
112	0xbefa50f8	-0.488899
113	0x3eec9c1a	0.46212846
114	0xbe8c1f59	-0.27367666
115	0xbd74ec3d	-0.059795607
116	0x3ebfc989	0.37458447
117	0x3e2eace8	0.17058146
118	0xbd83d517	-0.06437128
119	0x3f140c99	0.5783172
120	0xbc738580	-0.014863372
121	0xbeda3f76	-0.42626542
122	0xbe5255c4	-0.2054053
123	0xbeecc0d8	-0.46240878
124	0xbe231b50	-0.15928388
125	0xbd0eab60	-0.034831405
126	0xbee90c00	-0.45516968
127	0x3efd7b9c	0.4950837
128	0x3c086600	0.0083251
129	0xbe8fca6c	-0.28084123
130	0xbe6b502c	-0.22979802
131	0x3dc11668	0.09428102
132	0xbdd7480f	-0.10511791
133	0x3ef7b5d8	0.48380923
134	0x3ea951db	0.33070263
135	0xbee45567	-0.44596407
136	0xbd4c7757	-0.0499185
137	0x3f165aec	0.58732486
138	0xbe206d4c	-0.15666693
139	0x3d8d1653	0.06889024
140	0x3eed08dd	0.46295825
141	0x3e9c1e6b	0.30491957
142	0x3eb26189	0.34840038
143	0xbe894b8e	-0.26815456
144	0x3e919ee7	0.28441545
145	0xbe3d85f8	-0.18508136
146	0xbec39aba	-0.38203984
147	0xbe9bb341	-0.30410197
148	0xbe102467	-0.14076386
149	0x3e1327b7	0.14370619
150	0xbebe42b2	-0.3716026
151	0x3e1c3bc7	0.15257178
152	0x3ead0098	0.33789515
153	0x3e64048c	0.2226736
154	0x3de35774	0.11100665
155	0xbd9d1894	-0.076707035
156	0x3d4e8d00	0.050427437
157	0xbd9813a8	-0.07425624
158	0x3dfb15e8	0.12260038
159	0x3ec31ca8	0.381078
160	0xbcab4d40	-0.02091086
161	0x3e58c5e8	0.21169245
162	0xbe81c2dc	-0.25343978
163	0xbe8c1fe2	-0.27368075
164	0xbea53ac0	-0.32271385
165	0x3dff8b08	0.1247769
166	0x3deaa5b8	0.114573896
167	0xbeb53c1a	-0.35397416
168	0x3ef1b8f9	0.47211435
169	0xbed1c460	-0.40970135
170	0x3d9d61fb	0.07684704
171	0xbfa455a9	-1.2838641
172	0xbe37cda8	-0.17949545
173	0xbdcbc97c	-0.099505395
174	0xbdc8284d	-0.09773312
175	0x3e4f86f8	0.2026633
176	0x3deb11f0	0.11478031
177	0xbdd9a568	-0.10627252
178	0xbeeda20c	-0.46412694
179	0xbe4457ec	-0.19174165
180	0x3eab469a	0.33452302
181	0x3e88e1cf	0.26734778
182	0xbe9ac457	-0.3022792
183	0x3df89b87	0.121390395
184	0xbecf3360	-0.40468884
185	0x3d1c6890	0.038185656
186	0x3ef7448c	0.48294485
187	0x3effcb98	0.49960017
188	0xbe8abdd8	-0.27097964
189	0x3da80338	0.08203739
190	0x3ca8d8ae	0.020611133
191	0x3ed48783	0.41509637
192	0xbe1a731e	-0.15082976
193	0x3fb439f0	1.4080181
194	0x3eaefb73	0.34176216
195	0xbed6c72f	-0.4194884
196	0x3edcd991	0.4313474
197	0xbec1edd1	-0.37876752
198	0x3b4a935e	0.0030910592
199	0x3ef087bf	0.46978566
200	0xbf00a4c7	-0.5025143
201	0x3e0d7301	0.13813402
202	0x3db14bd3	0.086570404
203	0xbe2f5858	-0.17123544
204	0x3e95f18d	0.2928585
205	0x3eacd45e	0.33755773
206	0x3cbbb63c	0.022914045
207	0x3ec79aa8	0.3898518
208	0x3dead868	0.114670575
209	0x3e0fcc19	0.14042701
210	0xbeaea0a2	-0.34106928
211	0xbf264b47	-0.64958614
212	0xbee72b28	-0.45150113
213	0x3eb26734	0.34844363
214	0x3b343000	0.002749443
215	0x3e6a447c	0.22877687
216	0x3e69cb70	0.22831511
217	0x3ef608ab	0.48053488
218	0x3d9abef7	0.07555955
219	0xbf12a42d	-0.5728176
220	0xbc925840	-0.017864347
221	0x3e6fd254	0.23420078
222	0x3dc2bf98	0.095092
223	0xbd4bd120	-0.049759984
224	0x3d0a1e80	0.033720493
225	0xbe9d26ea	-0.30693752
226	0xbc5e6f00	-0.013576269
227	0xbdc80200	-0.097660065
228	0x3ef7472a	0.4829648
229	0x3e7deaf4	0.24796659
230	0xbe931a25	-0.28730884
231	0xbeac478b	-0.33648333
232	0x3e9d6960	0.30744457
233	0x3e88e3f4	0.26736414
234	0xbee2b836	-0.44281167
235	0xbe921f1a	-0.28539354
236	0xbebdc4a6	-0.37064093
237	0x3e9f56ee	0.3112101
238	0xbda622e8	-0.081121266
239	0xbe834fb2	-0.2564674
240	0x3e29a92c	0.1656844
241	0x3e010cbb	0.12602513
242	0xbe93fcb8	-0.28903747
243	0x3eb3479d	0.35015574
244	0xbe61d980	-0.22055626
245	0x3e92b266	0.28651732
246	0xbd91cb17	-0.071188144
247	0xbda29661	-0.07938839
248	0x3e824d94	0.25449812
249	0xbee50ae2	-0.44734865
250	0x3d273777	0.04082438
251	0xbdbf2da9	-0.09334881
252	0xbe47d2af	-0.19513963
253	0xbe8ddc0f	-0.27706954
254	0xbd8f3400	-0.0699234
255	0x3ef1a2d8	0.47194552

fc.0.bias f4 [128]
0	0x3c277900	0.01022172
1	0xbedef2a0	-0.43544483
2	0x3dfd0e80	0.12356281
3	0x3ee813fb	0.45327744
4	0xbed3a044	-0.4133321
5	0x3e10a25b	0.14124434
6	0x3e5f5a44	0.21811777
7	0xbed38488	-0.4131205
8	0x3db35193	0.087557934
9	0xbd82796d	-0.063708164
10	0x3ec71466	0.3888275
11	0xbe4e5e24	-0.201531
12	0xbe893314	-0.26796782
13	0x3ea3b57e	0.31974405
14	0xbed59978	-0.4171865
15	0x3d50f993	0.051019263
16	0xbe00d15d	-0.12579866
17	0xbe0ad60e	-0.13558218
18	0x3ec268ff	0.3797073
19	0xbe582e28	-0.21111357
20	0x3d998889	0.07496745
21	0x3d5ca7e7	0.05387106
22	0xbd32d450	-0.04365951
23	0x3e3c2368	0.18372881
24	0x3e666a9f	0.2250161
25	0xbe5848ec	-0.21121567
26	0xbd9a3d52	-0.07531227
27	0x3bf6a900	0.0075274706
28	0x3eedd5d4	0.464522
29	0xbe82c110	-0.2553792
30	0xbeaaf41c	-0.33389366
31	0xbee54864	-0.44781792
32	0xbe997a20	-0.29975986
33	0x3e8cdfb0	0.2751441
34	0x3e2e6e57	0.17034279
35	0x3dbd51e4	0.09244135
36	0x3e880c27	0.26571772
37	0x3e19d190	0.15021348
38	0x3e61af2e	0.22039482
39	0xbec9bba2	-0.39400965
40	0xbd6b8bb0	-0.057506263
41	0xbb455000	-0.0030107498
42	0xbe89149a	-0.2677353
43	0x3e55759b	0.20845644
44	0xbe9c4fae	-0.3052954
45	0xbd07a30f	-0.03311449
46	0xbe213bb4	-0.15745431
47	0x3ee0706b	0.43835768
48	0xbd2371cb	-0.039903443
49	0xbefdf696	-0.49602193
50	0x3ea5fcf0	0.32419538
51	0xbdabd901	-0.083909996
52	0x3e3b5d87	0.18297397
53	0xbe0c8fd4	-0.13726741
54	0x3e93e173	0.28882942
55	0xbedfa428	-0.4367993
56	0xbee6695e	-0.45002264
57	0xbd6c2f2e	-0.05766218
58	0xbe4e5284	-0.20148665
59	0xbe846882	-0.25860983
60	0x3d2d40b4	0.042298034
61	0x3e5a5d5b	0.21324675
62	0x3e8c800d	0.27441445
63	0x3eab206c	0.33423173
64	0xbe877db6	-0.26463097
65	0xbe4bc83d	-0.19900604
66	0xbe37f7e4	-0.17965657
67	0x3eb77f24	0.35839188
68	0xbef509b4	-0.47858965
69	0xbef39faf	-0.47582766
70	0x3ea8e8e2	0.32990175
71	0x3e2c8698	0.16848218
72	0x3e8c687b	0.27423462
73	0x3dbb06ec	0.091321796
74	0xbef132e6	-0.47109145
75	0xbdc321b8	-0.09527916
76	0x3e2acdfd	0.16680141
77	0x3dac5908	0.08415419
78	0xbe2db2dc	-0.1696276
79	0x3e052ef2	0.1300619
80	0xbefd5750	-0.49480677
81	0x3c90d2c0	0.017678618
82	0xbca9e7c6	-0.020740401
83	0xbed71ba2	-0.4201327
84	0x3d6d6140	0.057954073
85	0x3d83326e	0.06406103
86	0xbdcf27ed	-0.10115037
87	0x3e29d407	0.16584788
88	0x3e5d3ec3	0.21605973
89	0x3e8e899a	0.27839357
90	0x3e80ffe8	0.2519524
91	0x3d4d0271	0.050051156
92	0x3ed2832e	0.41115707
93	0xbe721bc5	-0.23643406
94	0x3d1a38b0	0.037651718
95	0xbe8a7b76	-0.27047318
96	0x3aef0400	0.0018235445
97	0x3dc112c2	0.09427406
98	0x3eb1e783	0.34746942
99	0x3e9d3ce6	0.30710524
100	0x3ecc6408	0.39920068
101	0xbe6f8bed	-0.23393221
102	0xbe409e14	-0.18810302
103	0xbe177468	-0.14790499
104	0x3d60c010	0.054870665
105	0xbe9e3162	-0.3089705
106	0xbe55a904	-0.20865256
107	0xbe93dd9c	-0.28880012
108	0xbec8a630	-0.3918929
109	0x3e6e0280	0.23243141
110	0x3ed9460b	0.4243625
111	0x3ed25722	0.41082102
112	0xbefd113c	-0.4942721
113	0x3c74dd23	0.014945301
114	0x3e4562f0	0.19276023
115	0xbe3c30c0	-0.18377972
116	0x3e609165	0.21930464
117	0x3e65c90c	0.22439975
118	0xbd88eb18	-0.066854656
119	0xbecad872	-0.3961826
120	0xbebd1394	-0.36929
121	0xbe05d768	-0.13070452
122	0x3a927a00	0.0011175275
123	0xbee592ea	-0.4483865
124	0xbdc09bc6	-0.094047114
125	0xbe259210	-0.16169
126	0x3ecf98d1	0.40546277
127	0x3c0e467c	0.008683797

fc.2.weight f4 [64, 128]
0	0xbcf0e810	-0.029407531
1	0x3d4f3296	0.050585352
2	0x3d7cb132	0.061692424
3	0xbd4820a0	-0.04885924
4	0x3ac26900	0.0014832318
5	0x3d79dcd2	0.061001606
6	0x3c934db8	0.017981395
7	0xbcf3e2ae	-0.029771175
8	0xbcb86d3c	-0.022513025
9	0x3d36758e	0.044545703
10	0x3cc692dc	0.02423995
11	0x3da4bd8f	0.08043968
12	0x3b99b210	0.004690416
13	0x3aca3b40	0.0015429035
14	0xbcd44988	-0.025913969
15	0x3c86afa8	0.016441181
16	0x3d52a3fe	0.051425926
17	0x3cf2958c	0.029612325
18	0xbd230fe2	-0.03981007
19	0xbd091d06	-0.033474945
20	0x3d81844b	0.06324061
21	0xbd69dfd9	-0.057098243
22	0xbd0af118	-0.03392133
23	0xbd1b13e4	-0.037860766
24	0xbd6f3d64	-0.058408156
25	0x3d6a6f32	0.05723495
26	0xbd15d976	-0.03658434
27	0x3d25018e	0.040284686
28	0x3d82034b	0.06348284
29	0x3d444f96	0.04792746
30	0xbdaf76ee	-0.08567606
31	0x3b3dfc00	0.0028989315
32	0xbdaa242d	-0.08307681
33	0x3d87c74d	0.066298105
34	0x3d3282e2	0.04358185
35	0xbb03d940	-0.0020118505
36	0xbd46cf31	-0.048537437
37	0xbc7613a0	-0.015019327
38	0xbc9e5144	-0.01932586
39	0xbcc23c8c	-0.023710512
40	0xbc084e18	-0.0083194
41	0xbbbf60a0	-0.005840376
42	0x3d9093d9	0.0705945
43	0xbd94aa08	-0.072589934
44	0x3d1436f0	0.036185205
45	0x3d5d4c6e	0.054027967
46	0x3cd3a454	0.025835194
47	0xbd9dc68d	-0.07703886
48	0x3d7b27c6	0.061317228
49	0xbda01f13	-0.07818427
50	0x3cbdb758	0.023158714
51	0x3d88edb7	0.066859655
52	0xbd34c5da	-0.044134
53	0xbd0d1e16	-0.03445252
54	0x3d6d2d3a	0.05790446
55	0xbb7ba560	-0.0038398132
56	0x3daaa32b	0.08331903
57	0xbd99e3ee	-0.07514177
58	0xbbc385f0	-0.0059668943
59	0x3da405dd	0.08008931
60	0xbda51bad	-0.08061919
61	0xbd5817a6	-0.052756928
62	0x3b38cca0	0.0028198138
63	0x3b36cba0	0.0027892366
64	0x3d03a1d6	0.03213676
65	0x3d3ebafa	0.046565033
66	0xbd9be332	-0.076116934
67	0xbd01af8c	-0.031661555
68	0xbcaa8574	-0.020815589
69	0xbd4c692f	-0.049905
70	0xbd4a5fab	-0.049407642
71	0x3cf44e78	0.029822573
72	0xbd46b6b3	-0.04851408
73	0xbd43bc81	-0.047787193
74	0xbb4f8ce0	-0.0031669661
75	0xbc6bd940	-0.014395058
76	0x3d29027e	0.041262142
77	0xbd001052	-0.031265564
78	0xbda26a70	-0.079304576
79	0xbd724dd0	-0.05915624
80	0xbd7202fe	-0.059084885
81	0x3c3a14a0	0.011357456
82	0xbce1ebae	-0.027578201
83	0x3dacfdf9	0.08446879
84	0x3d669a4a	0.056299485
85	0xbda14b10	-0.07875645
86	0xbd007f9a	-0.03137169
87	0xbd725a96	-0.05916842
88	0x3d29643a	0.04135535
89	0xbbc0d9b0	-0.0058853254
90	0x3bd1af80	0.006399095
91	0xbda1347e	-0.0787134
92	0x3d0b992e	0.03408163
93	0x3d81787b	0.06321808
94	0x3bfa7a80	0.0076439977
95	0xbda529b7	-0.08064597
96	0xbd22c43e	-0.039737932
97	0xba87ecc0	-0.001037024
98	0x3cc7aec4	0.024375327
99	0xbbf2ba10	-0.0074074343
100	0xbd5d9d36	-0.054105006
101	0xbda33260	-0.07968593
102	0xbcd4820e	-0.025940921
103	0x3c97b134	0.018517114
104	0x3d15bbce	0.036556058
105	0xbcd2d928	-0.025738314
106	0xb989fe00	-0.0002631992
107	0xbd9121ed	-0.07086549
108	0x3c1661a0	0.009178549
109	0x3c8d2c30	0.017232984
110	0x3ba499a0	0.0050231963
111	0x3c599aa0	0.013281494
112	0xbc94fb3c	-0.018186204
113	0x3c9aad30	0.01888141
114	0x3d2e5252	0.042558976
115	0x3da2d3ad	0.0795053
116	0xbdaac4db	-0.083383285
117	0xbd3e9048	-0.046524316
118	0x3d8546e3	0.06507661
119	0x3c589398	0.013218783
120	0xbd370458	-0.044681877
121	0x3d531262	0.051531203
122	0xbc95d934	-0.018292047
123	0x3d1e932e	0.03871458
124	0x3d5ec2be	0.05438494
125	0x3d55d35e	0.05220353
126	0x3d685cae	0.05672901
127	0xbdb2281f	-0.08699059
128	0x3d5be85e	0.0536884
129	0x3d426082	0.04745532
130	0xbd87471d	-0.06605361
131	0x3d0b1008	0.033950835
132	0x3d3003a6	0.04297223
133	0xba48dd00	-0.0007662326
134	0xbd972182	-0.07379438
135	0xbdad97a2	-0.08476187
136	0xbc3593d8	-0.011082612
137	0xbd9706c9	-0.07374341
138	0x3d00fb7a	0.031489827
139	0xbd03d4ed	-0.032185484
140	0x3d8b9c7b	0.06816956
141	0xbd825c04	-0.06365207
142	0xbd83371a	-0.06406994
143	0xbdb33e0f	-0.08752071
144	0xbd85429f	-0.065068476
145	0x3d86b4e3	0.0657747
146	0x3d5850ca	0.05281142
147	0x3c666f80	0.01406467
148	0xbda296ea	-0.07938941
149	0x3d1e6a9a	0.038675882
150	0xbd5b1451	-0.053486172
151	0xbd3606ec	-0.044440195
152	0x3d6c4ad6	0.057688557
153	0xbd80148a	-0.062539175
154	0x3c9aa918	0.018879458
155	0xbd30a15e	-0.04312264
156	0xbd18221d	-0.037141908
157	0x3d7bcf16	0.06147679
158	0x3cc7c9f4	0.024388291
159	0xbd11e531	-0.035618965
160	0xbc3db780	-0.011579394
161	0x3d62e3a2	0.05539287
162	0xbd6c4c9c	-0.057690248
163	0xbaf30b00	-0.0018542707
164	0xbd8a9ab5	-0.06767789
165	0x3d4e3a2a	0.05034844
166	0x3cafce6c	0.021460734
167	0xbc0bb898	-0.008527897
168	0x3d1988d6	0.037484013
169	0xbd5011ca	-0.050798215
170	0xbd51cd8b	-0.05122141
171	0x3d8d3ab7	0.068959646
172	0xbd0aa419	-0.033847902
173	0x3bae58b0	0.005320631
174	0xbd33f7d4	-0.04393752
175	0xbd42a551	-0.04752094
176	0x3d6beff6	0.05760189
177	0x3d8077b9	0.06272835
178	0xbd9cb966	-0.076525494
179	0xbd262764	-0.04056491
180	0xbdb208b6	-0.08693068
181	0x3cc5903c	0.024116628
182	0x3d97222f	0.07379567
183	0xbd87d368	-0.066321194
184	0xbc2c4030	-0.01051335
185	0xbd90eb28	-0.070761025
186	0x3ba63e70	0.005073361
187	0x3d8e9b43	0.069632076
188	0x3dab6415	0.083686985
189	0x3c8e11dc	0.0173425
190	0x3cee77e4	0.029109903
191	0xbd9b7f10	-0.075925946
192	0xbc37e690	-0.011224404
193	0xbbe88ee0	-0.00709711
194	0xbca321e0	-0.019913614
195	0xbd26a4c5	-0.04068448
196	0x3d6bdcd6	0.057583652
197	0x3a176e80	0.00057766587
198	0x3d0f776a	0.03502599
199	0x3cb07720	0.021541178
200	0x3ae33f80	0.001733765
201	0xbd0a95fa	-0.033834435
202	0xbb924fb0	-0.004465066
203	0x3c60c7e8	0.013719536
204	0xbda508f2	-0.08058347
205	0xbdb2bb13	-0.08727088
206	0x3d5d076e	0.053962164
207	0x3c1c0d10	0.009524599
208	0x3d87dfef	0.06634509
209	0x3cb015d4	0.021494783
210	0x3d84ac8d	0.06478224
211	0x3d082f9c	0.03324853
212	0xbcc57670	-0.024104327
213	0x3d0e304a	0.03471402
214	0xbd3eacc3	-0.046551477
215	0xbd4d6bdf	-0.050151702
216	0x3d29e162	0.041474707
217	0x3d25cc62	0.040478118
218	0x3d972019	0.07379169
219	0xbdad6550	-0.084665895
220	0xbd8740ed	-0.066041805
221	0xbd9957b6	-0.07487433
222	0xbd4ba44f	-0.049717244
223	0xbd75e110	-0.06002909
224	0xbd5f692f	-0.05454367
225	0x3d965213	0.07339873
226	0x3da3e447	0.08002525
227	0xbd878b44	-0.0661836
228	0xbd234838	-0.039863795
229	0x3dafb901	0.085802086
230	0xbd9c6897	-0.076371364
231	0xbd930a7b	-0.07179733
232	0xbd126f58	-0.035750717
233	0x3bf5be60	0.007499501
234	0xbdb1b5ad	-0.0867723
235	0xbd38eaee	-0.04514592
236	0x3d6d04fe	0.05786609
237	0x3daa1bb7	0.083060674
238	0x3d4b28ea	0.049599566
239	0xbc99b9d0	-0.01876536
240	0xbda0cf96	-0.07852094
241	0x3d437946	0.047723077
242	0xbc950b1c	-0.018193774
243	0xbd9db5b1	-0.077006705
244	0x3da646e7	0.08118992
245	0x3d19ff46	0.037596963
246	0x3d64969e	0.055807702
247	0x3da8c30d	0.08240328
248	0xbdb114aa	-0.086465195
249	0x3da0f3f7	0.078590326
250	0xbce4f3d0	-0.02794829
251	0x3abda100	0.0014467537
252	0x3c9f4efc	0.019446842
253	0xbd0609a0	-0.032724023
254	0xbc317d70	-0.010833129
255	0xbd751cca	-0.05984191

fc.2.bias f4 [64]
0	0x3da62743	0.08112957
1	0xbda78c76	-0.08181088
2	0xbd8c2ee8	-0.06844884
3	0xbda85647	-0.08219581
4	0xbcc382bc	-0.02386605
5	0x3dbc8ecd	0.092069246
6	0xbd8e4f1c	-0.06948683
7	0xbcf09853	-0.029369509
8	0x3d40bf06	0.047057174
9	0x3d4ac504	0.049504295
10	0x3db0f0d5	0.08639685
11	0xbd129c08	-0.035793334
12	0x3d353e62	0.044248946
13	0x3d4ee480	0.050510883
14	0xbc0c85e0	-0.00857684
15	0x3c4b41f8	0.012405865
16	0xbc5b6f78	-0.013393275
17	0x3c882fc0	0.016624331
18	0x3cbd7525	0.023127148
19	0xbca9e947	-0.020741118
20	0x3d777f74	0.060424283
21	0x3dafe8d9	0.08589334
22	0xbce85470	-0.028360575
23	0xbdae177b	-0.08500572
24	0x3a38b902	0.0007046611
25	0xbd305226	-0.043047093
26	0x3d67e852	0.056618042
27	0x3d4a6bb0	0.049419105
28	0x3d999fb2	0.075011626
29	0x3d377094	0.044785097
30	0xbdab0f43	-0.0835252
31	0xbc626e84	-0.013820294
32	0x3ab855c0	0.0014063641
33	0xbd669995	-0.05629881
34	0xbce6ba11	-0.028164895
35	0x3d4f8475	0.05066343
36	0xbd123737	-0.03569719
37	0xbd8cef3f	-0.0688157
38	0xbd052553	-0.0325063
39	0xbd478737	-0.048712935
40	0x3d4efe49	0.050535474
41	0xbdaa82ed	-0.08325753
42	0x3d3fd01a	0.04682932
43	0x3a1e1694	0.0006030586
44	0x3d83dbfe	0.064384446
45	0xbd43cbba	-0.04780171
46	0x3c43789c	0.011930611
47	0x3cd3bf53	0.025848066
48	0xba94c99e	-0.001135159
49	0x3ce4b6d0	0.027919203
50	0xbd145454	-0.036213234
51	0xbd7b0fe2	-0.061294444
52	0x3d7b5a77	0.06136557
53	0xbcc00e70	-0.023444384
54	0xbd67b518	-0.05656919
55	0xbdb625b6	-0.088939115
56	0x3d52160f	0.051290568
57	0xbbc920de	-0.0061379513
58	0xbd141a9d	-0.036158193
59	0xbd39a39c	-0.045322046
60	0xbd15f8eb	-0.03661434
61	0x3d8309f0	0.0639838
62	0xbd952acc	-0.072835535
63	0x3dd53dea	0.104122

fc.4.weight f4 [4, 64]
0	0x3d93b2ec	0.07211861
1	0xbcd3bf18	-0.025847957
2	0xbde657e4	-0.112472326
3	0xbdbba340	-0.09161997
4	0x3ddf412e	0.10901104
5	0x3db14fa0	0.086577654
6	0x3de20844	0.11036733
7	0xbdc2c59a	-0.09510346
8	0x3ca6d200	0.020363808
9	0x3da8c5f1	0.08240879
10	0xbe1b5e30	-0.15172648
11	0x3d79462b	0.060857933
12	0xbdc46b48	-0.09590775
13	0xbcfff059	-0.031242536
14	0x3d755e6c	0.0599045
15	0xbe17b5aa	-0.14815393
16	0xbcc35690	-0.023844987
17	0xbdb6c298	-0.089238346
18	0xbd603876	-0.054741345
19	0x3c2773a0	0.010220438
20	0xbca64cdb	-0.02030032
21	0x3dfafda1	0.12255407
22	0x3bc37df3	0.005965942
23	0xbc9d0b5d	-0.019170457
24	0xbdbcd014	-0.09219375
25	0xbd4c3144	-0.04985167
26	0xbd926b50	-0.071493745
27	0x3d955568	0.072916806
28	0x3c0239f3	0.0079483865
29	0x3df72490	0.120675206
30	0xbd986e7e	-0.0744295
31	0x3d4b1244	0.049577966
32	0x3d1e8128	0.03869739
33	0xbd90ee1c	-0.07076666
34	0x3cfcf482	0.03087831
35	0x3cba63cf	0.02275267
36	0xbd766dfc	-0.060163483
37	0xbda1fed7	-0.07909935
38	0x3db89994	0.09013668
39	0x3da2e168	0.07953149
40	0xbe4be746	-0.19912443
41	0x3d841348	0.0644899
42	0xbd94accc	-0.07259521
43	0xbd3faf10	-0.046797812
44	0xbdfe64ae	-0.12421547
45	0xbc0daa00	-0.008646488
46	0x3d167aa2	0.036738046
47	0x3d940fdd	0.07229588
48	0x3bef0c72	0.007295185
49	0xbd2ea1c4	-0.04263474
50	0x3dc36fdb	0.09542819
51	0x3d8ded8c	0.06930074
52	0x3dc5eb39	0.09664006
53	0xbc3f7113	-0.011684674
54	0xbae12862	-0.0017178173
55	0xbd59401a	-0.053039648
56	0xbe1f3b00	-0.1554985
57	0xbdd0260e	-0.10163508
58	0xbdbc3f94	-0.09191814
59	0xbd7385fa	-0.059453942
60	0x3d44fda4	0.048093453
61	0xbcb2c242	-0.021821145
62	0x3dd89f30	0.105772376
63	0xbd3a0c33	-0.04542179
64	0xbc91c558	-0.017794296
65	0x3d0faa60	0.03507459
66	0xbd68f2cc	-0.056872174
67	0x3db0c3e8	0.08631116
68	0xbdc56e8a	-0.09640224
69	0x3ca23ae3	0.01980347
70	0xbb48db73	-0.003064838
71	0x3d8851ae	0.06656204
72	0xbd65d35c	-0.05610977
73	0xbd14e7d7	-0.036353912
74	0xbdc31021	-0.09524561
75	0xbc3d1460	-0.011540502
76	0xbd6b10ec	-0.057389185
77	0xbd3c34ec	-0.045948908
78	0xbd8ba2c4	-0.068181545
79	0x3d1eabb7	0.03873798
80	0xbc8397f0	-0.01606366
81	0x3dde7698	0.10862464
82	0x3cf42999	0.029804992
83	0x3da19c36	0.07891123
84	0x3dc95d3b	0.098322354
85	0x3ddcd9ad	0.10783706
86	0xbe2fa31e	-0.17152068
87	0xbdf038ed	-0.11729608
88	0x3d145a5a	0.03621898
89	0xbde5d1bc	-0.11221644
90	0xbdadc924	-0.0848563
91	0xbd71b3b2	-0.05900926
92	0xbd38f7c7	-0.045158174
93	0x3db52d29	0.08846504
94	0x3e03f565	0.1288658
95	0x3df7db16	0.12102334
96	0xbd99a4b8	-0.07502121
97	0x3c8a2960	0.016865432
98	0xbd395c69	-0.045254145
99	0xbcec8f52	-0.028876934
100	0xbc3d57b4	-0.011556555
101	0x3df25d7a	0.118342355
102	0xbe22796b	-0.1586663
103	0x3d548b5c	0.051890716
104	0xbdd6986b	-0.1047829
105	0xbda71f1a	-0.08160229
106	0x3c88db40	0.016706109
107	0xbe53d6f4	-0.20687467
108	0xbdc77365	-0.09738807
109	0x3dc7ac64	0.09749678
110	0x3d587b98	0.052852243
111	0x3e2d3407	0.16914378
112	0xbcac9800	-0.021068573
113	0x3c9358fe	0.01798677
114	0x3d5c938c	0.05385165
115	0xbca160a8	-0.01969941
116	0x3dce58a9	0.10075504
117	0xbd6b31ca	-0.05742053
118	0x3d06b530	0.032887638
119	0x3c951733	0.018199539
120	0x3dc69381	0.09696103
121	0x3c8aaf2e	0.016929235
122	0x3d2df8a4	0.04247345
123	0x3de9d76d	0.11418042
124	0xbc8f6121	-0.01750237
125	0x3d537e0f	0.05163389
126	0xbd3a25d4	-0.045446232
127	0x3c48bf83	0.012252691
128	0xbdb88550	-0.09009802
129	0xbdfb402e	-0.12268101
130	0xbd9e6c36	-0.07735483
131	0xbcd62933	-0.026142692
132	0xbdad7d7a	-0.084711984
133	0x3e0128ff	0.12613295
134	0x3d4221c5	0.047395486
135	0x3d797768	0.06090489
136	0xbc86e8b8	-0.01646839
137	0x3d595c52	0.05306656
138	0xbd6806a4	-0.056646958
139	0x3cb287ba	0.021793235
140	0xbdedd820	-0.11613488
141	0x39b71c8c	0.0003492575
142	0x3a8ebe80	0.0010890514
143	0x3d6dfb2f	0.058100875
144	0x3cb644c8	0.022249594
145	0x3db76cb4	0.0895628
146	0xbcc2da14	-0.023785628
147	0x3ce5f62f	0.028071491
148	0xbcd1f424	-0.02562911
149	0x3ccecadc	0.025243215
150	0xbdaedf40	-0.08538675
151	0xbdedff14	-0.11620918
152	0x3c88f614	0.016718902
153	0x3dde74ec	0.10862145
154	0xbdfefd28	-0.124506295
155	0x3da04d10	0.078271985
156	0x3dd58572	0.10425843
157	0x3dd2000a	0.10253914
158	0xbddd0644	-0.10792211
159	0x3ca607fa	0.020267475
160	0xbc804b20	-0.015660822
161	0x3d558878	0.0521321
162	0x3cbb18e1	0.022839012
163	0xbe0b1817	-0.13583408
164	0xbddb71c8	-0.107150614
165	0x3d2169b8	0.039407462
166	0xbda06ad5	-0.078328766
167	0xbdaa1786	-0.08305268
168	0xbdaa16ec	-0.08305153
169	0x3cc93530	0.024561495
170	0x3d1142ec	0.035464212
171	0xbd53e7bb	-0.051734667
172	0x3d82b92f	0.06382977
173	0x3d8cfa0e	0.06883632
174	0xbccd6371	-0.025071831
175	0xbce66f45	-0.02812923
176	0xbdbced2c	-0.092249244
177	0x391d1320	0.00014979811
178	0x3d6b13fa	0.057392098
179	0x3d608304	0.054812446
180	0xbd1514ac	-0.036396667
181	0xbd728758	-0.059211105
182	0xbcff972a	-0.03120001
183	0xbdde1b70	-0.10845077
184	0x3c4963bb	0.012291844
185	0xbd22b5c9	-0.039724145
186	0xbd86f030	-0.06588781
187	0x3d81be4d	0.06335125
188	0x3d865e6c	0.06560978
189	0xbd0611cd	-0.03273182
190	0xbd65604c	-0.05600004
191	0xbd0a0463	-0.03369559
192	0xbd9f90c0	-0.07791281
193	0x3d744058	0.059631675
194	0xbd7bb2d8	-0.061449856
195	0x3ce5eefc	0.028068058
196	0xbddcf592	-0.10789026
197	0x3cd5248c	0.026018403
198	0x3ca3827c	0.01995968
199	0xbd8f945e	-0.07010721
200	0xbda00d32	-0.07815017
201	0x39c2c021	0.0003714571
202	0xbebaaeca	-0.36461478
203	0x3c07304a	0.008251259
204	0xbd165924	-0.036706105
205	0xbcb0815e	-0.021546062
206	0x3d9d99a8	0.07695323
207	0x3bef463e	0.0073020747
208	0x3d55e634	0.052221492
209	0xbd8bce76	-0.06826489
210	0xbe3c54e6	-0.18391761
211	0xbd4bd632	-0.04976482
212	0xbd78cdd2	-0.06074316
213	0x3d789934	0.06069298
214	0x3fd94308	1.6973581
215	0x3d98d6e8	0.07462865
216	0xbca8d1c2	-0.020607833
217	0x3d5b0ef8	0.053481072
218	0xbda1d2d2	-0.07901539
219	0xbc358026	-0.011077916
220	0xbcfd3d13	-0.030912912
221	0xbd943b15	-0.072378315
222	0x3d12105a	0.035660125
223	0x3ea410af	0.3204398
224	0xbdbce95c	-0.09224197
225	0xbdfed2c0	-0.12442541
226	0x3c07ae9a	0.008281374
227	0xbcbb39cc	-0.022854708
228	0xbdf7a2e8	-0.12091619
229	0xbca7792f	-0.020443527
230	0xbb1466cb	-0.0022644277
231	0xbdcf37b4	-0.101180464
232	0x3e92e655	0.28691354
233	0xbdb512f6	-0.08841507
234	0xbdb60460	-0.08887553
235	0xbed296b8	-0.41130614
236	0x3c8a8ba3	0.016912287
237	0x3dc82ee2	0.09774567
238	0xbd693bb6	-0.05694171
239	0xbd2ad3da	-0.041705944
240	0x3db8ae16	0.09017579
241	0x3c9e2db6	0.019308906
242	0x3cc4cc00	0.024023056
243	0x3db6e282	0.08929922
244	0x3ddb6874	0.10713282
245	0xbdac18c1	-0.08403159
246	0xbcc994a5	-0.024607012
247	0xbc6caab6	-0.0144449975
248	0x3cf9b0fc	0.0304799
249	0x3bd51f1a	0.0065039517
250	0x3d5b14f8	0.053486794
251	0x3d3b03e1	0.045657996
252	0xbd417ad2	-0.04723627
253	0xbbac986c	-0.0052671935
254	0x3d47b450	0.048755944
255	0x3e26ac79	0.1627673

fc.4.bias f4 [4]
0	0xbdc4a680	-0.0960207
1	0xbd6100c2	-0.054932363
2	0xbdb6bc6d	-0.08922658
3	0x3d3badba	0.045819975
