model/model_epoch40000.pth (torch, 74583 bytes, 6 tensors)

lstm.weight_ih_l0 f4 [256, 4]
-0.6364469 -0.15089856 -1.2190555 -0.41288504 -1.0526284 -1.6747867 -0.3000955 -0.27856424
0.21044494 -0.9832667 1.8387495 -0.9857413 -0.6955311 -0.24674115 -1.5714363 -0.6583042
0.017246194 0.4933591 -0.3198684 -3.3292334 -0.9668524 -1.5046862 -0.9091793 -0.8962605
0.17944011 -1.4983083 -0.14126022 -0.045619123 0.68470734 0.18511936 0.046185397 0.26963782
1.4038363 -1.7887906 -1.0081975 0.7640697 2.033017 -1.8377103 -0.65051764 0.47127005
0.47326693 -0.5950194 -0.95669 -0.44692287 -1.1938684 -0.5592817 1.5339464 -0.84989184
0.621306 -0.91187996 0.062265273 0.16373262 -0.6917825 -1.2681196 -1.0922755 -1.1140784
-0.70157456 -1.4654981 -0.7917332 -0.52990544 -0.7850776 -0.2435735 -0.19836494 -0.91771996
-0.7077203 -0.04502055 -0.73543817 1.1636646 -1.1767966 -0.055742864 -1.1018083 -3.1002483
2.2121422 -2.0092638 1.2340281 1.1380472 -0.9293459 -0.20907642 -0.61433613 -0.18524657
-0.30664244 -0.47410378 1.5009701 0.5597568 1.642927 1.4472458 1.6974276 1.1359519
-0.95263815 -0.68076855 -0.5825711 -1.8875663 -0.47596702 0.20841028 -2.219861 -1.1224144
-1.3340449 -0.9375617 -0.015149327 -1.5789557 -1.2154028 -0.82289225 -2.8333402 -0.66325825
0.5261392 -0.98976994 0.6670411 -0.0044298554 0.030845318 0.067391716 0.9168348 -0.26098177
-1.0512259 -2.636722 0.95356786 0.23375215 -0.8092873 -1.6435035 -1.1514632 -0.74020046
-3.0697932 -0.019124378 -6.6586246 1.6224351 -1.203496 0.18348928 0.46018583 -0.7364727
-0.031745303 -0.546264 0.018312966 -1.0657829 0.69716793 -1.7407268 0.013212516 -0.5913566
-1.2181586 -3.490692 0.12177063 0.9521439 0.6480311 0.7285884 0.33481085 0.96425074
-0.0016879154 -2.2725964 -1.0030388 -0.4843673 0.19293477 -0.2765748 0.8601265 -0.026873281
-1.7148739 0.41671464 -1.3898264 -0.3348632 -1.105905 -1.6494766 -0.33126563 -1.0933322
1.7929415 -1.7060541 -0.5446835 -0.8253073 -0.096868426 -1.7179229 -0.501248 -0.17837141
-2.6980894 0.12912299 -1.5158651 1.527079 0.5158815 -2.8150504 0.08609706 -1.7167593
-0.4253349 -1.2862184 -2.2320235 -0.976553 -0.51670665 -1.5991137 -0.82833207 -0.7287442
-3.4361675 0.74872106 0.95766586 0.21250089 0.6006937 -1.0883905 -0.62154484 0.21606816
-0.20705122 -1.490664 0.11021292 -0.21663989 0.24048705 -1.4327556 -0.7863981 -0.3228209
-0.19535707 -2.2690175 -0.7918377 -0.6849082 -0.580426 -0.23630956 -0.42612156 0.2903423
-0.49502787 -0.78242844 -1.4511825 1.5912745 -1.116234 0.7677094 0.80895364 -0.30699068
1.7630036 -1.6182603 -0.8808931 -0.044505112 -0.3719173 -0.39862514 -1.7332335 -0.16594446
-0.6243782 -0.15993993 0.29584232 -0.2155545 -1.6136404 -0.18333948 0.60999244 -3.323886
0.8768519 -3.506981 0.25278127 0.92338157 -0.57231474 -2.0751865 1.7463813 1.4319615
0.046513107 0.69158715 -6.7478786 0.40011922 -1.1023511 -1.2797165 -1.1169934 -0.898121
-1.0632348 -0.8679413 0.34939274 0.39014086 0.14556256 -0.38364527 0.33499798 -1.3760842
00000000: 2fee 22bf 2785 1abe 030a 9cbf ab65 d3be
00000010: 87bc 86bf 695f d6bf 1ea6 99be f99f 8ebe
00000020: e17e 573e 5eb7 7bbf 255c eb3f 8b59 7cbf
00000030: 530e 32bf b6a9 7cbe d324 c9bf a086 28bf
00000040: e447 8d3c 9099 fc3e cac5 a3be 2912 55c0
00000050: a483 77bf 8f99 c0bf f9bf 68bf 5471 65bf
00000060: 26bf 373e 91c8 bfbf 85a6 10be 1edb 3abd
00000070: fb48 2f3f ee8f 3d3e e62c 3d3d f80d 8a3e
00000080: e8b0 b33f 17f7 e4bf 9e0c 81bf 129a 433f
00000090: f31c 0240 173a ebbf 5388 26bf 4f4a f13e
000000a0: 0b50 f23e 3153 18bf a3e9 74bf 13d3 e4be
000000b0: aed0 98bf 162d 0fbf 5b58 c43f 8392 59bf
000000c0: e90d 1f3f f770 69bf df09 7f3d 86a9 273e
000000d0: a818 31bf be51 a2bf afcf 8bbf 1f9a 8ebf
000000e0: 649a 33bf 7195 bbbf 07af 4abf e2a7 07bf
000000f0: d8fa 48bf 556b 79be 2e20 4bbe b2ef 6abf
00000100: 282d 35bf 7867 38bd ad45 3cbf f6f2 943f
00000110: 45a1 96bf a152 64bd 0e08 8dbf 786a 46c0
00000120: bd93 0d40 c797 00c0 a2f4 9d3f 88ab 913f
00000130: 9de9 6dbf 2118 56be 2245 1dbf 47b1 3dbe
00000140: 3d00 9dbe bbbd f2be ca1f c03f 394c 0f3f
00000150: 6f4b d23f 5a3f b93f 4f45 d93f df66 913f
00000160: 18e0 73bf d946 2ebf 6123 15bf c69b f1bf
00000170: f3b1 f3be 8169 553e 3412 0ec0 46ab 8fbf
00000180: fcc1 aabf 0b04 70bf e234 78bc 381b cabf
00000190: 5292 9bbf 11a9 52bf 7255 35c0 4bcb 29bf
000001a0: 0fb1 063f 9061 7dbf 35c3 2a3f 5228 91bb
000001b0: 52af fc3c ab04 8a3d afb5 6a3f 679f 85be
000001c0: 928e 86bf 0ec0 28c0 061d 743f b95c 6f3e
000001d0: 742d 4fbf 535e d2bf 2563 93bf c77d 3dbf
000001e0: 7e77 44c0 baaa 9cbc 7413 d5c0 f4ab cf3f
000001f0: 280c 9abf 9de4 3b3e 7a9d eb3e 7a89 3cbf
00000200: 5d07 02bd f5d7 0bbf 1305 963c 936b 88bf
00000210: 9979 323f 23d0 debf 4f79 583c 2563 17bf
00000220: 9fec 9bbf 7f67 5fc0 e162 f93d b4bf 733f
00000230: 5ee5 253f c584 3a3f 546c ab3e 23d9 763f
00000240: 0b3d ddba 3872 11c0 9363 80bf fefe f7be
00000250: b190 453e 369b 8dbe 4031 5c3f 5b25 dcbc
00000260: fd80 dbbf 9f5b d53e d5e5 b1bf 3073 abbe
00000270: 4c8e 8dbf 0d22 d3bf a69b a9be 4ff2 8bbf
00000280: 1b7f e53f fb5f dabf 6170 0bbf 5747 53bf
00000290: f462 c6bd e6e4 dbbf ca51 00bf ffa6 36be
000002a0: 7fad 2cc0 d138 043e de07 c2bf 5377 c33f
000002b0: cf10 043f c929 34c0 a853 b03d c5be dbbf
000002c0: 7fc5 d9be cea2 a4bf 79d9 0ec0 61ff 79bf
000002d0: e346 04bf c2af ccbf 920d 54bf fb8e 3abf
000002e0: 2bea 5bc0 2fac 3f3f 9729 753f d599 593e
000002f0: 10c7 193f 6150 8bbf 901d 1fbf f940 5d3e
00000300: 3c05 54be 14ce bebf 50b7 e13d d9d6 5dbe
00000310: 3d42 763e 8964 b7bf 6351 49bf c848 a5be
00000320: af0b 48be 9537 11c0 e0b5 4abf 2556 2fbf
00000330: cc96 14bf 22fb 71be 9b2c dabe bfa7 943e
00000340: 4b74 fdbe 3b4d 48bf 59c0 b9bf e2ae cb3f
00000350: c1e0 8ebf 9a88 443f 9617 4f3f e22d 9dbe
00000360: 1aaa e13f 2723 cfbf 3682 61bf fe4a 36bd
00000370: f26b bebe 9818 ccbe 98da ddbf 58ed 29be
00000380: 40d7 1fbf 4bc7 23be a578 973e 52ba 5cbe
00000390: c58b cebf 58bd 3bbe 7728 1c3f 8cba 54c0
000003a0: 5e79 603f 6072 60c0 8c6c 813e bc62 6c3f
000003b0: 3883 12bf dbcf 04c0 6c89 df3f 844a b73f
000003c0: 8784 3e3d db0b 313f 9fee d7c0 6ddc cc3e
000003d0: d719 8dbf c0cd a3bf a4f9 8ebf 42eb 65bf
000003e0: 1418 88bf 6731 5ebf 9be3 b23e 8bc0 c73e
000003f0: 5a0e 153e 276d c4be db84 ab3e 8723 b0bf

lstm.weight_hh_l0 f4 [256, 64]
0.7460432 -0.098056465 0.6790789 2.8598614 0.2663276 0.12676872 -2.0120583 0.8906718
-1.2978374 0.9503273 -1.1299376 1.0658356 0.18090777 0.02685239 -0.54927623 1.6740477
-0.71612203 -2.841984 -2.4889011 0.13314247 -0.5655143 0.15360875 0.35895038 0.651857
0.5559544 0.713296 -0.69161457 -1.9217772 -1.5993631 -0.116864555 -1.8169599 -2.3340983
-1.0310775 -0.17175594 1.9091043 2.1892335 1.543144 -0.8816173 3.663962 1.4242187
-1.220959 -3.866077 0.75344944 -0.97243905 1.0939609 -0.35353044 -0.19869645 0.3750136
0.034887172 -3.1155636 0.30758926 -0.15606436 -2.0037715 -2.7764728 1.2258942 -4.3205843
-1.2667351 5.670499 3.080865 -1.02398 7.9580884 -0.048185285 0.64535844 1.133571
0.45769277 1.8533852 -0.08962279 0.08410707 -0.3174206 0.32597497 -0.33857355 -0.890748
4.5096583 0.97169465 -0.4175706 1.7099048 0.17947066 -0.27086943 0.48488733 0.46248004
-1.7322251 -0.16751951 -3.2900283 0.67819995 1.5572238 0.5656134 0.19306059 0.82522196
0.1788019 -0.14775425 1.7080728 -0.24373081 -0.044539813 0.040055607 0.3880991 1.473934
0.3719096 0.60924464 -1.1511052 0.4226306 -0.14910385 -2.5097268 1.0465121 0.6257869
2.812649 -0.23768526 0.58449775 -0.079213284 -1.4013412 -0.13386436 1.329215 -1.7040108
-0.9100169 -0.6937046 -0.1390563 -0.28546005 -0.06248741 0.7810807 0.5066699 -0.7316884
-0.12506846 1.5211025 2.1375828 0.1626434 1.1927394 -0.070604175 -1.0640135 -0.31823665
0.09512201 -1.4264259 0.42797914 1.3225126 0.34551135 0.27530006 -0.461475 -0.17530955
-0.63416547 0.2324656 -1.8821621 0.46425202 0.20401062 0.4754588 -0.03548835 0.2920819
-2.7950559 1.5705551 1.7556827 -0.72912186 -1.2827547 -1.7827371 0.48376265 0.26532578
0.0447415 0.29076448 0.69418335 -0.68626964 1.0502074 -0.54984087 1.7955995 -1.2574177
1.8078519 -0.20902942 -0.49930808 -1.6177964 -0.63718253 -0.23122406 1.26855 -0.21965848
-0.08838401 -0.10262984 1.150495 0.94878536 0.3678238 0.32779554 0.55245906 2.2694547
-1.9661365 1.7344016 0.45560214 -1.3777027 -1.9855311 3.624788 1.6971265 0.20719783
-0.6685671 -0.86713356 0.1491592 1.4377345 5.7976766 -0.120885864 -2.2640445 0.1279718
-2.1352932 1.0420319 1.247479 0.40543023 -0.28917745 -0.1916051 -2.0252182 1.6133789
-1.381757 2.6071732 -0.74082065 0.6594415 1.084355 -0.47702372 -0.4008513 0.32192627
1.926865 -2.6769032 0.32072762 0.9069762 -2.3279352 1.06468 -0.15978949 -1.5021614
0.124316625 -1.5487721 -0.9887342 -1.8816457 1.7342677 0.25868958 -2.6105487 -2.053435
-2.4041777 -0.7466069 2.5028443 2.1964328 3.106238 -0.6469014 1.7661053 1.1794493
-2.542752 -2.259287 -1.3130395 -0.37388134 1.8490794 -0.76341254 -1.1791002 -0.51437813
-0.39970782 -3.5068107 -0.4016315 -0.6780984 -0.18000196 -0.79690874 4.152328 -2.1740878
-0.82105607 4.6722817 1.093348 0.062025476 5.3729496 -0.12471226 0.8768287 -1.7987206
00000000: b0fc 3e3f d4d1 c8bd 1dd8 2d3f f807 3740
00000010: 175c 883e a9cf 013e 90c5 00c0 1103 643f
00000020: 891f a6bf a648 733f cca1 90bf 4d6d 883f
00000030: e33f 393e 8bf9 db3c 5e9d 0cbf 3247 d63f
00000040: c653 37bf 11e3 35c0 284a 1fc0 8056 083e
00000050: 8cc5 10bf 9d4b 1d3e 58c8 b73e 1ae0 263f
00000060: 0753 0e3f 919a 363f a70d 31bf ccfc f5bf
00000070: eeb7 ccbf af56 efbd 2492 e8bf de61 15c0
00000080: 59fa 83bf cae0 2fbe 885d f43f 671c 0c40
00000090: be85 c53f acb1 61bf 5a7e 6a40 cc4c b63f
000000a0: 6248 9cbf ce6d 77c0 10e2 403f c4f1 78bf
000000b0: e906 8c3f f101 b5be 1577 4bbe c801 c03e
000000c0: dae5 0e3d 6565 47c0 577c 9d3e 56cf 1fbe
000000d0: cb3d 00c0 bbb1 31c0 1aea 9c3f 3a42 8ac0
000000e0: 6024 a2bf ba74 b540 e42c 4540 c711 83bf
000000f0: a9a8 fe40 ef5d 45bd 3636 253f db18 913f
00000100: b556 ea3e ba3b ed3f 278c b7bd 5440 ac3d
00000110: f484 a2be 31e6 a63e 8359 adbe 1008 64bf
00000120: 1f4f 9040 fbc0 783f d0cb d5be 29de da3f
00000130: 28c7 373e 66af 8abe 2743 f83e 2fca ec3e
00000140: 8db9 ddbf 3c8a 2bbe d38f 52c0 839e 2d3f
00000150: 1c53 c73f 0acc 103f adb1 453e bf41 533f
00000160: d817 373e e44c 17be 21a2 da3f 9294 79be
00000170: 616f 36bd 5911 243d edb4 c63e dfa9 bc3f
00000180: ef6a be3e 75f7 1b3f 6a57 93bf 0a63 d83e
00000190: aeae 18be 5d9f 20c0 1cf4 853f 9233 203f
000001a0: 7102 3440 c463 73be a5a1 153f 933a a2bd
000001b0: 265f b3bf bd13 09be b823 aa3f 071d dabf
000001c0: def6 68bf a096 31bf c664 0ebe d227 92be
000001d0: ccf2 7fbd e8f4 473f 1eb5 013f ee4f 3bbf
000001e0: f211 00be 7db3 c23f 28ce 0840 fe8b 263e
000001f0: afab 983f ec98 90bd 9831 88bf eaef a2be
00000200: 54cf c23d 2095 b6bf 1520 db3e 1848 a93f
00000210: dde6 b03e 21f4 8c3e 7446 ecbe 5984 33be
00000220: ab58 22bf 760b 6e3e b0ea f0bf 71b2 ed3e
00000230: 29e8 503e 566f f33e 3b5c 11bd c28b 953e
00000240: 32e2 32c0 f307 c93f 36ba e03f bba7 3abf
00000250: 4e31 a4bf bb30 e4bf bdaf f73e c8d8 873e
00000260: dd42 373d 15df 943e 00b6 313f 5eaf 2fbf
00000270: 326d 863f 5fc2 0cbf 34d6 e53f 10f3 a0bf
00000280: b167 e73f cf0b 56be 4fa5 ffbe f413 cfbf
00000290: 651e 23bf 00c6 6cbe d95f a23f 27ee 60be
000002a0: ad02 b5bd 982f d2bd 6c43 933f 99e3 723f
000002b0: 6753 bc3e d1d4 a73e f56d 0d3f bf3e 1140
000002c0: 5caa fbbf df00 de3f af44 e93e 9058 b0bf
000002d0: e225 febf 87fc 6740 713b d93f ab2b 543e
000002e0: 3727 2bbf 77fc 5dbf 30bd 183e af07 b83f
000002f0: 9186 b940 0293 f7bd 1be6 10c0 0a0b 033e
00000300: a5a8 08c0 4d61 853f 64ad 9f3f 8d94 cf3e
00000310: 110f 94be 2134 44be 2d9d 01c0 3383 ce3f
00000320: 6add b0bf eddb 2640 6ca6 3dbf 28d1 283f
00000330: 25cc 8a3f 743c f4be 623c cdbe 85d3 a43e
00000340: 83a3 f63f 6252 2bc0 6936 a43e 982f 683f
00000350: e4fc 14c0 6f47 883f db9f 23be d346 c0bf
00000360: b799 fe3d 2a3e c6bf af1d 7dbf c4d9 f0bf
00000370: 7cfc dd3f f672 843e 3b13 27c0 7b6b 03c0
00000380: 0cde 19c0 a121 3fbf 9a2e 2040 5b92 0c40
00000390: 9acc 4640 559b 25bf bd0f e23f 32f8 963f
000003a0: 73bc 22c0 2998 10c0 ae11 a8bf 606d bfbe
000003b0: a2ae ec3f 016f 43bf c1ec 96bf 49ae 03bf
000003c0: 81a6 ccbe 966f 60c0 a5a2 cdbe db97 2dbf
000003d0: 6f52 38be 3602 4cbf dfdf 8440 4124 0bc0
000003e0: bb30 52bf 5583 9540 d4f2 8b3f 6d0e 7e3d
000003f0: 34ef ab40 2469 ffbd d877 603f 7a3c e6bf

lstm.bias_ih_l0 f4 [256]
-1.138667 -1.0880369 -0.33205363 -0.843945 -0.58547616 -1.5824997 -0.5052073 0.20337586
-0.17507192 -0.8217477 -0.5407898 -0.8990118 -0.15026991 -1.6842103 -1.8747426 -0.98225576
-0.20596686 -0.7149312 -0.5215313 -1.0285333 -0.66107565 1.6948895 -0.90095246 -0.6948698
-1.426117 -0.91229516 -0.81194186 -0.47037438 0.13586718 -1.5174375 -0.547447 -0.5215683
-0.5941636 -0.42848766 -0.17077452 0.5308382 -0.9859971 -0.53165776 -0.25591907 -1.5772308
-0.98235196 -0.8704972 -0.77030367 -0.17106913 -0.79837316 -1.6796447 -0.7741678 -0.52152187
-0.7122875 -0.755327 -1.4801847 -0.7998659 -1.0226218 0.8304324 -0.7882274 -0.7110342
-0.7024637 -0.59145474 -0.37715092 -0.4381686 0.5999263 -1.7715782 -1.2069165 -0.4783102
-2.1894925 0.060517594 -2.096987 -0.4293722 -2.200548 -1.092947 -2.3090944 -0.52116406
-0.5167638 -1.9290034 -0.93349904 -1.3148254 -0.063369125 -0.6993263 -1.3007668 -2.3162403
-0.072881766 -1.3126531 -0.53473186 -0.29057926 -1.5760615 -2.1661654 -1.5101252 -1.4586772
-1.1318467 -1.6187496 -0.14875865 -0.70274466 -0.74405164 -0.8937521 -2.198424 -0.86568487
0.03290718 -1.4680092 -0.29840845 -1.6245326 -1.1220272 -2.0436695 -0.33067703 -1.4271048
0.15984146 -0.5181591 -1.1652174 -0.6778072 0.61237174 -0.90113735 -0.85955006 -1.3466983
-0.27676082 -1.4185723 -0.91291493 -1.2420815 -0.11719118 -2.1481237 0.15919964 -2.20381
0.033170573 -0.30263886 -1.8735741 -0.88569707 -0.50492316 -0.86572033 0.14595428 -1.114799
-0.21655482 0.21159759 0.2188361 0.26662254 -0.40438944 0.16027303 0.12276257 -0.13031346
-0.077584535 -1.0470939 -0.02093193 0.25740153 -0.13079318 -0.11568549 0.21484868 0.1892983
-0.19327705 -0.18751004 -0.5720223 -0.19742534 0.31385753 -0.25554633 -0.33291328 -0.3002278
0.23302092 0.15638933 -0.11220416 -0.12232945 0.24749032 -0.21623108 0.16122647 0.3463285
-0.13493386 0.065049954 -0.25778544 0.39556164 -0.18665014 -0.09950625 -0.2693083 0.2708674
0.034244034 0.16517292 -0.077071324 0.27237707 -0.22555988 -0.2479199 -0.31105083 -0.08255091
0.6217114 0.28574955 0.18661465 -0.000330569 -0.7361216 -0.33217973 -0.20637223 0.483863
0.3711529 0.29068178 0.46873057 -0.039278805 -0.4002629 -0.009518569 -0.2907252 -0.098256424
-1.0958532 -0.9010065 -0.17843749 -0.8026862 -0.55302197 -1.705289 -0.77453345 0.2565629
-0.24692641 -0.82397354 -0.39738905 -0.9881402 0.38158175 -1.6850584 -1.8239859 -0.90497476
-0.9244737 -0.48706108 -0.46818262 -0.80083174 -0.8976223 0.20665962 -0.82701606 -0.625228
-1.5962182 -0.86571944 -0.9454081 -0.4212173 0.11910829 -1.6705511 -0.4270529 -0.78056604
-0.3528938 -0.46811542 -0.21925348 -0.40929347 -1.0290464 -1.0030465 -0.23550019 -1.7498956
-0.62465477 -0.648178 -0.6004868 -0.0409146 -0.97560465 -1.6372751 -0.73708594 -0.7382076
-0.3663737 -0.8059757 -1.3654882 -0.8201011 -1.0597466 -0.39934343 -0.8522977 -0.8164286
-0.37087187 -0.96002185 -0.43288544 -0.14435941 -0.22317173 -1.8435684 -1.1019498 -0.6872316
00000000: d7bf 91bf cb44 8bbf ef02 aabe c80c 58bf
00000010: c4e1 15bf 5a8f cabf 4455 01bf c341 503e
00000020: 0e46 33be 0f5e 52bf 3371 0abf a325 66bf
00000030: 5be0 19be 3494 d7bf 91f7 efbf 1d75 7bbf
00000040: fae8 52be bb05 37bf 1383 05bf fba6 83bf
00000050: 413c 29bf 24f2 d83f d2a4 66bf fde2 31bf
00000060: 008b b6bf 2d8c 69bf 6cdb 4fbf e9d4 f0be
00000070: c420 0b3e 643b c2bf 7d25 0cbf 8085 05bf
00000080: 1b1b 18bf bc62 dbbe 84df 2ebe 03e5 073f
00000090: 4e6a 7cbf b91a 08bf d307 83be b3e2 c9bf
000000a0: 6b7b 7bbf e8d8 5ebf 9f32 45bf bf2c 2fbe
000000b0: 2f62 4cbf 99fe d6bf dc2f 46bf 7582 05bf
000000c0: 7958 36bf 1c5d 41bf b176 bdbf 03c4 4cbf
000000d0: 45e5 82bf 3897 543f 45c9 49bf 5606 36bf
000000e0: a9d4 33bf 9469 17bf ed19 c1be a257 e0be
000000f0: c594 193f 13c3 e2bf 3d7c 9abf 13e5 f4be
00000100: a520 0cc0 4ce1 773d 0935 06c0 acd6 dbbe
00000110: c7d5 0cc0 b0e5 8bbf 34c8 13c0 026b 05bf
00000120: a24a 04bf 95e9 f6bf cbf9 6ebf 334c a8bf
00000130: acc7 81bd 0c07 33bf 877f a6bf 483d 14c0
00000140: 0943 95bd 0405 a8bf 30e4 08bf cec6 94be
00000150: 62bc c9bf 74a2 0ac0 c84b c1bf efb5 babf
00000160: 5ae0 90bf 3033 cfbf 3054 18be 13e7 33bf
00000170: 2b7a 3ebf f0cc 64bf fbb2 0cc0 869d 5dbf
00000180: aec9 063d bae7 bbbf fec8 98be aff0 cfbf
00000190: 969e 8fbf 7bcb 02c0 804e a9be 5fab b6bf
000001a0: 7bad 233e 13a6 04bf d825 95bf c684 2dbf
000001b0: 65c4 1c3f f0b0 66bf 790b 5cbf 9c60 acbf
000001c0: 98b3 8dbe c793 b5bf cbb4 69bf 87fc 9ebf
000001d0: ee01 f0bd dc7a 09c0 3b05 233e 390b 0dc0
000001e0: dedd 073d 7bf3 9abe 47d1 efbf 0bbd 62bf
000001f0: a542 01bf d99f 5dbf 0a75 153e bcb1 8ebf
00000200: 8cc0 5dbe 0aad 583e 9216 603e c082 883e
00000210: 220c cfbe 9d1e 243e f16a fb3d e470 05be
00000220: a4e4 9ebd 2c07 86bf 7079 abbc 22ca 833e
00000230: a6ee 05be 84ec ecbd 4b01 5c3e 6ad7 413e
00000240: 6bea 45be a202 40be 0e70 12bf de29 4abe
00000250: efb1 a03e f8d6 82be 9c73 aabe 75b7 99be
00000260: 099d 6e3e 8624 203e 4bcb e5bd dd87 fabd
00000270: 1a6e 7d3e ae6b 5dbe 8d18 253e f851 b13e
00000280: 1a2c 0abe e938 853d 74fc 83be 0e87 ca3e
00000290: 3721 3fbe efc9 cbbd c7e2 89be 22af 8a3e
000002a0: 7943 0c3d 1723 293e 92d7 9dbd 0275 8b3e
000002b0: 2bf9 66be b7de 7dbe 0e42 9fbe 7410 a9bd
000002c0: 7a28 1f3f c44d 923e e917 3f3e 3850 adb9
000002d0: 7772 3cbf 7613 aabe 3e53 53be e4bc f73e
000002e0: c107 be3e 3ed4 943e 74fd ef3e d0e2 20bd
000002f0: 42ef ccbe c6f3 1bbc efd9 94be aa3a c9bd
00000300: eb44 8cbf 5da8 66bf 51b8 36be d87c 4dbf
00000310: d992 0dbf e946 dabf d347 46bf 365c 833e
00000320: 47da 7cbe eeef 52bf 9476 cbbe c2f6 7cbf
00000330: af5e c33e feaf d7bf 5f78 e9bf 6dac 67bf
00000340: 4faa 6cbf 1260 f9be a2b5 efbe 4f03 4dbf
00000350: 93ca 65bf 949e 533e 53b7 53bf f10e 20bf
00000360: e150 ccbf ca9f 5dbf 4406 72bf cba9 d7be
00000370: 0cef f33d 9ed4 d5bf ada6 dabe 2dd3 47bf
00000380: 7fae b4be d3ac efbe fc83 60be ea8e d1be
00000390: cbb7 83bf d463 80bf f626 71be 94fc dfbf
000003a0: 60e9 1fbf feee 25bf 81b9 19bf 1196 27bd
000003b0: 3ac1 79bf 3b92 d1bf aab1 3cbf 2cfb 3cbf
000003c0: 5595 bbbe 6c54 4ebf 51c8 aebf 25f2 51bf
000003d0: c7a5 87bf be76 ccbe 2f30 5abf 7701 51bf
000003e0: ebe2 bdbe fec3 75bf 29a3 ddbe f4d2 13be
000003f0: 2187 64be 0dfa ebbf b10c 8dbf 69ee 2fbf

lstm.bias_hh_l0 f4 [256]
-1.109107 -1.1382809 -0.31506473 -0.83223915 -0.39813378 -1.6271871 -0.5899493 0.043358352
-0.24301587 -0.8676869 -0.5452204 -0.7355984 -0.16679831 -1.7232708 -1.9258516 -0.8277146
-0.20743306 -0.47658592 -0.40971833 -0.9397519 -0.8429066 1.7352473 -0.9768939 -0.6435135
-1.4485358 -0.813025 -0.62088865 -0.3949576 0.048737183 -1.5297029 -0.45694467 -0.6954485
-0.53977835 -0.51142776 -0.08972135 0.64002585 -1.0290487 -0.5860535 -0.25176245 -1.7861611
-0.95369387 -0.9109047 -0.7142369 -0.08675498 -0.69750863 -1.736292 -0.75584215 -0.7059198
-0.7877307 -0.71045715 -1.5526074 -1.0144993 -0.98780817 0.7538181 -0.8664981 -0.76431334
-0.54070395 -0.56703615 -0.495754 -0.27567938 0.7259175 -1.7757119 -1.2763937 -0.64176804
-2.3057046 0.13696377 -2.0537016 -0.4415632 -2.433415 -1.0514859 -2.2283077 -0.37856814
-0.6428972 -1.9979223 -0.9619697 -1.2494144 -0.1665148 -0.68273 -1.2281684 -2.2528543
-0.045762375 -1.4801015 -0.4803782 -0.26782155 -1.6575735 -2.2561326 -1.3999193 -1.5437317
-0.9743727 -1.7919763 -0.04466242 -0.79116726 -0.70880324 -0.813724 -2.3982687 -0.75750124
-0.034838278 -1.3912032 -0.3060153 -1.6813794 -0.9551976 -2.217518 -0.35540155 -1.3725772
0.07365279 -0.41020593 -1.1834388 -0.71076995 0.5486814 -0.7876823 -1.0404636 -1.3017211
-0.08304184 -1.349907 -0.89882356 -1.1334655 -0.059468873 -2.2695167 0.3212248 -2.1566606
0.008554713 -0.13270926 -1.9637028 -1.0248222 -0.5940786 -0.83188534 -0.010518138 -1.0669986
-0.21035692 0.10287038 0.37623972 0.28204033 -0.42678657 0.23992066 0.049898356 0.017368732
-0.16923296 -1.1344534 0.008504703 0.24382792 -0.06893632 -0.20820011 0.13085195 0.24905388
-0.017037261 -0.29785395 -0.493068 -0.14972466 0.49526697 -0.36761668 -0.3780774 -0.30179986
0.38131484 0.14387524 -0.0015092505 0.085614994 0.053781025 -0.0708496 -0.039058156 0.2660291
-0.16327275 0.08212786 -0.26759452 0.32021546 -0.1513434 -0.21398385 -0.33239684 0.056961913
0.03472088 0.18810198 -0.32023564 0.38300675 -0.073685735 -0.27577284 -0.3861592 0.1221363
0.5967418 0.21045806 0.37740862 0.15718205 -0.6027869 -0.23698293 0.004957424 0.3493457
0.41995543 0.3532213 0.418245 0.0141746495 -0.35318172 -0.1430479 -0.103863806 -0.13557826
-1.0156451 -0.9041506 -0.34825644 -0.9249198 -0.51107657 -1.7648236 -0.89610225 0.31612203
-0.25350899 -0.6641482 -0.55767417 -1.082338 0.47092023 -1.7056623 -1.8766271 -1.0236669
-0.8441701 -0.605657 -0.31432846 -0.69368607 -0.77191544 0.412121 -0.9781529 -0.7362235
-1.408129 -0.94445306 -0.8177199 -0.32216272 0.18121283 -1.7339854 -0.38199916 -0.6234321
-0.3704787 -0.55306065 -0.08253144 -0.2814054 -1.0024675 -0.9420019 -0.31620649 -1.7857422
-0.5492462 -0.5625118 -0.6174966 0.023114925 -0.9610553 -1.8056548 -0.7393694 -0.6388032
-0.441774 -0.8158053 -1.4094288 -1.03927 -1.079356 -0.37103117 -0.6084652 -0.718392
-0.44850066 -0.8315249 -0.595553 -0.28691563 -0.13485096 -1.8440784 -1.1529919 -0.7994594
00000000: 38f7 8dbf 30b3 91bf 2a50 a1be a00d 55bf
00000010: 31d8 cbbe ab47 d0bf eb06 17bf 8798 313d
00000020: 27d9 78be bb20 5ebf 9093 0bbf 2d50 3cbf
00000030: 2dcd 2abe 2394 dcbf 4e82 f6bf 1be5 53bf
00000040: 5569 54be 1203 f4be 9ac6 d1be 9593 70bf
00000050: bac8 57bf 951c de3f b815 7abf 4dbd 24bf
00000060: 9f69 b9bf 6822 50bf 8ff2 1ebf e237 cabe
00000070: a4a0 473d 4ecd c3bf a7f4 e9be ea08 32bf
00000080: ea2e 0abf eeec 02bf d4bf b7bd bcd8 233f
00000090: deb7 83bf 9a07 16bf 02e7 80be eda0 e4bf
000000a0: 4825 74bf 0d31 69bf 3bd8 36bf 98ac b1bd
000000b0: ed8f 32bf d13e debf df7e 41bf 29b7 34bf
000000c0: b8a8 49bf 85e0 35bf d7bb c6bf 1ddb 81bf
000000d0: ffe0 7cbf 39fa 403f d2d2 5dbf 0aaa 43bf
000000e0: 936b 0abf 4829 11bf 78d3 fdbe d925 8dbe
000000f0: bbd5 393f 874a e3bf de60 a3bf e94a 24bf
00000100: aa90 13c0 3b40 0c3e d96f 03c0 9214 e2be
00000110: 12bd 1bc0 1797 86bf 989c 0ec0 afd3 c1be
00000120: e994 24bf ebbb ffbf a543 76bf d0ec 9fbf
00000130: db82 2abe 65c7 2ebf 9f34 9dbf c42e 10c0
00000140: 5471 3bbd f773 bdbf 22f4 f5be e81f 89be
00000150: 5e2b d4bf 7a64 10c0 8e30 b3bf 0099 c5bf
00000160: 7d70 79bf 7b5f e5bf f1ef 36bd f089 4abf
00000170: 2174 35bf 3750 50bf 3c7d 19c0 9aeb 41bf
00000180: 95b2 0ebd f212 b2bf 0aae 9cbe 7137 d7bf
00000190: d487 74bf d1eb 0dc0 31f7 b5be 9cb0 afbf
000001a0: 46d7 963d 8306 d2be ec7a 97bf 05f5 35bf
000001b0: 6276 0c3f 8ca5 49bf e92d 85bf cc9e a6bf
000001c0: d711 aabd c1c9 acbf 4d19 66bf 6615 91bf
000001d0: a295 73bd c33f 11c0 9477 a43e ba06 0ac0
000001e0: 1129 0c3c f0e4 07be 9d5a fbbf 602d 83bf
000001f0: 8915 18bf 70f6 54bf 4554 2cbc 6993 88bf
00000200: ce67 57be b5ad d23d 7ea2 c03e 9767 903e
00000210: c583 dabe c3ad 753e 3862 4c3d df48 8e3c
00000220: 684b 2dbe c535 91bf 4f57 0b3c 07ae 793e
00000230: 7c2e 8dbd 6932 55be 0efe 053e fb07 7f3e
00000240: ba91 8bbc 5080 98be 6973 fcbe 6c51 19be
00000250: a293 fd3e 4138 bcbe 5c93 c1be 8385 9abe
00000260: b33b c33e 0854 133e 0bd2 c5ba ea56 af3d
00000270: 7e49 5c3d 9819 91bd 72fb 1fbd f734 883e
00000280: f930 27be a732 a83d 2602 89be 48f3 a33e
00000290: c4f9 1abe 951e 5bbe eb2f aabe e550 693d
000002a0: 7b37 0e3d ce9d 403e edf5 a3be 7619 c43e
000002b0: 8ce8 96bd 1932 8dbe a9b6 c5be 9922 fa3d
000002c0: 12c4 183f 5182 573e b43b c13e 55f4 203e
000002d0: 3e50 1abf a7ab 72be e371 a23b 71dd b23e
000002e0: 6604 d73e 6cd9 b43e 3524 d63e ca3c 683c
000002f0: 3cd4 b4be 267b 12be 8cb6 d4bd 07d5 0abe
00000300: a900 82bf 6a76 67bf ab4e b2be 8bc7 6cbf
00000310: ead5 02bf bde5 e1bf f566 65bf bfda a13e
00000320: eecb 81be 9e05 2abf bcc3 0ebf 0d8a 8abf
00000330: 751c f13e 2453 dabf 5135 f0bf 8407 83bf
00000340: 881b 58bf 560c 1bbf a9ef a0be 6995 31bf
00000350: 409c 45bf 8601 d33e 3a68 7abf 2579 3cbf
00000360: 923d b4bf adc7 71bf 1756 51bf 83f2 a4be
00000370: db8f 393e 3cf3 ddbf 6595 c3be 3f99 1fbf
00000380: 62af bdbe 6295 0dbf 3e06 a9bd 5e14 90be
00000390: db50 80bf 0927 71bf d1e5 a1be 3393 e4bf
000003a0: 669b 0cbf c600 10bf 4214 1ebf 835b bd3c
000003b0: b807 76bf b21f e7bf 5047 3dbf 9b88 23bf
000003c0: 3430 e2be 9ed8 50bf 2a68 b4bf cd06 85bf
000003d0: 5628 8abf ccf7 bdbe 60c4 1bbf 8ae8 37bf
000003e0: e1a1 e5be d1de 54bf 2976 18bf 9be6 92be
000003f0: 5f16 0abe c30a ecbf 3d95 93bf 5fa9 4cbf

linear.weight f4 [4, 64]
-0.0014858897 -0.28602374 0.46868607 -0.0584047 -0.113464125 -0.033252683 0.0041893367 0.038117442
0.099188864 -1.089638 -0.06886643 0.38241693 -0.6080824 0.06566758 -0.07534677 0.09512857
-0.44109872 0.21615864 0.09282579 0.020711113 0.16840824 -0.028006684 0.1131337 0.023035245
-0.03895508 0.05089196 -0.21714061 0.097948916 0.09644313 0.025559697 0.1061635 0.07109201
0.06665434 0.03158241 0.49741903 -0.5076587 -0.038413107 0.03548413 0.0018284974 -0.066843085
-0.29748943 -0.13626319 0.05568815 -0.12602063 -0.09873745 0.031625193 -0.053050496 0.03372037
0.22862202 0.021032251 -0.026939726 0.03388765 0.08986357 -0.08181889 -0.11684837 -0.013433379
-0.024812933 -0.12474912 -0.120390356 0.10709005 0.08466492 -0.003171511 -0.18467315 -0.03962177
-0.007802215 -0.12606502 -0.29443318 -0.012760943 0.08755907 -0.09795041 0.08295646 -0.064827405
0.23556075 0.5391005 0.13084699 -0.20393609 0.9235613 0.056951277 -0.07692796 -0.037657447
0.40315133 -0.043126 0.12821855 0.06486412 -0.10230907 -0.019295169 0.37106517 0.028111964
-0.16024166 0.08616019 0.14553867 -0.016811853 -0.0031938776 0.10987936 -0.10631082 -0.071308404
-0.06132557 -0.07465599 0.77806616 0.18588851 -0.08980069 0.15117912 0.004901924 -0.22466658
0.0007441877 0.031103069 0.065896295 -0.6498587 0.11777084 0.062234018 0.05714385 0.017087558
-0.21466929 0.014822647 -0.09419796 -0.0036783614 0.8064939 -0.19341698 0.17427953 0.038543243
-0.0001982324 -0.13912918 -0.0012213243 0.15610805 -0.019940553 0.0865275 0.029419692 0.039231736
0.01041599 -0.048166532 -0.6255751 0.009064923 0.58252525 -0.01785357 0.0049851607 0.028895942
-0.016356237 0.048474386 -0.057146043 -0.6585701 -0.113766946 0.06566225 -0.010713608 -0.41908073
-0.31000438 0.53488046 0.033542275 0.010089995 0.018872494 -0.11412295 0.105131656 -0.039289486
-0.10055404 0.30215764 0.0149871 -0.02101193 -0.14316884 -0.021543717 0.2257515 -0.010382136
0.072521724 -0.005026464 0.06240275 -0.7586097 0.0927759 -0.0003183672 0.19315705 -0.2287435
-0.010037749 0.03378561 0.14763638 -0.0070974585 -0.3724328 0.0388203 -0.027021253 -0.012119815
-0.07690121 0.06270845 -0.007390577 -0.167217 -0.08672697 1.0286376 -0.0035027396 0.03623769
-0.01723311 -0.78925467 -0.0036184858 0.09957185 0.97729504 0.0060423412 -0.061007395 0.00796807
0.7048406 -0.052775186 0.27315918 -0.5746647 0.010089417 -0.06609142 -0.16721967 0.01136015
-0.034978524 -0.18085784 0.07941363 -0.018503476 -0.015230966 0.030122582 -0.13706358 0.41030377
0.23510984 0.2398047 -0.0006448681 0.010590972 0.002743315 0.93449396 0.28147477 0.57957053
-0.17338708 -0.59981936 -0.009293926 -0.0082888445 0.14128803 0.013742397 -0.19758354 -0.10720891
-0.041170064 -0.0057804594 0.1690763 -0.08094743 0.165817 -0.0038992774 -0.045383263 0.18764931
0.002823446 -0.2858089 0.028984675 -0.3585629 -0.1257428 0.016201254 0.14784738 -0.010794374
-0.088794395 -0.29070547 -0.03680218 0.11455429 1.0043215 0.030756624 0.011754574 -0.6383583
-0.028234076 -0.079757124 -0.012192175 -0.041988496 -0.19443713 0.023631442 0.111251995 0.09097962
00000000: 2fc2 c2ba b471 92be 9ff7 ef3e c439 6fbd
00000010: e15f e8bd f733 08bd b446 893b 0921 1c3d
00000020: 8823 cb3d 4279 8bbf d809 8dbd 27cc c33e
00000030: 4aab 1bbf b97c 863d 684f 9abd c5d2 c23d
00000040: b1d7 e1be b158 5d3e 731b be3d 5aaa a93c
00000050: 3673 2c3e 466e e5bc a4b2 e73d 69b4 bc3c
00000060: 5d8f 1fbd 1674 503d 1c5a 5ebe 7199 c83d
00000070: fa83 c53d 9262 d13c 406c d93d b098 913d
00000080: 1282 883d 8f5c 013d b5ad fe3e ecf5 01bf
00000090: 1057 1dbd cf57 113d 31aa ef3a 07e5 88bd
000000a0: 8950 98be 9488 0bbe 4219 643d 8d0b 01be
000000b0: dc36 cabd 6b89 013d 7a4b 59bd 5f1e 0a3d
000000c0: e41b 6a3e d44b ac3c b3b0 dcbc c7cd 0a3d
000000d0: 640a b83d aa90 a7bd 334e efbd ad17 5cbc
000000e0: 7e44 cbbc 777c ffbd 388f f6bd 0752 db3d
000000f0: cd64 ad3d 20d9 4fbb f51a 3dbe 704a 22bd
00000100: b9a9 ffbb 3017 01be f2bf 96be 4613 51bc
00000110: 2b52 b33d 399a c8bd 14e5 a93d 3bc4 84bd
00000120: d636 713e 7e02 0a3f c1fc 053e 9fd4 50be
00000130: 836e 6c3f be45 693d 688c 9dbd b23e 1abd
00000140: da69 ce3e e3a4 30bd b94b 033e 7bd7 843d
00000150: 6b87 d1bd e710 9ebc 41fc bd3e 104b e63c
00000160: 6416 24be c174 b03d 1708 153e 03b9 89bc
00000170: 6050 51bb 6e08 e13d 7db9 d9bd 240a 92bd
00000180: 8530 7bbd 3de5 98bd 582f 473f 8f59 3e3e
00000190: 6de9 b7bd b3ce 1a3e 52a0 a03b ff0e 66be
000001a0: 9715 433a ddcb fe3c a3f4 863d 245d 26bf
000001b0: d731 f13d 19e9 7e3d ab0f 6a3d 35fb 8b3c
000001c0: 44d2 5bbe b0da 723c dcea c0bd aa10 71bb
000001d0: 6276 4e3f 1a0f 46be 5576 323e 85df 1d3d
000001e0: 9bdc 4fb9 e177 0ebe d814 a0ba cada 1f3e
000001f0: 5f5a a3bc 5435 b13d 9101 f13c 75b1 203d
00000200: d4a7 2a3c 454a 45bd b125 20bf 0b85 143c
00000210: 6020 153f a641 92bc 8f5a a33b 2fb7 ec3c
00000220: 84fd 85bc 148d 463d f811 6abd 0d98 28bf
00000230: a5fe e8bd ee79 863d 2188 2fbc c091 d6be
00000240: e5b8 9ebe eded 083f a063 093d 8250 253c
00000250: 7d9a 9a3c 4bb9 e9bd 444f d73d 03ee 20bd
00000260: 47ef cdbd 68b4 9a3e 748c 753c 3621 acbc
00000270: da9a 12be 737c b0bc 672b 673e d619 2abc
00000280: 4586 943d 09b5 a4bb 079a 7f3d 3f34 42bf
00000290: 4b01 be3d 86ea a6b9 f6ca 453e bc3b 6abe
000002a0: 5f75 24bc c862 0a3d fe2d 173e cc91 e8bb
000002b0: 83af bebe 0902 1f3d ad5b ddbc 3092 46bc
000002c0: 627e 9dbd 4a6d 803d a72c f2bb ef3a 2bbe
000002d0: e99d b1bd 66aa 833f 388e 65bb f96d 143d
000002e0: 732c 8dbc 980c 4abf 1e24 6dbb 53ec cb3d
000002f0: 0230 7a3f d5fe c53b e4e2 79bd 828c 023c
00000300: 6f70 343f cb2a 58bd 85db 8b3e 3a1d 13bf
00000310: 154e 253c f05a 87bd a23b 2bbe ec1f 3a3c
00000320: a445 0fbd cc32 39be 9da3 a23d 9a94 97bc
00000330: 4d8b 79bc a2c3 f63c 655a 0cbe 5613 d23e
00000340: a2c0 703e 5d8f 753e 5e0c 29ba c285 2d3c
00000350: 30c9 333b ff3a 6f3f 761d 903e bc5e 143f
00000360: 628c 31be c38d 19bf 8d45 18bc efcd 07bc
00000370: cfad 103e ca27 613c 5753 4abe 5890 dbbd
00000380: f1a1 28bd 026a bdbb 5622 2d3e c4c7 a5bd
00000390: efcb 293e 058b 7fbb cde3 39bd 2427 403e
000003a0: 9009 393b 8b55 92be 4571 ed3c 8e95 b7be
000003b0: b8c2 00be 7eb8 843c 4e65 173e e3da 30bc
000003c0: d6d9 b5bd 59d7 94be e2bd 16bd 719b ea3d
000003d0: 9b8d 803f 51f5 fb3c 4296 403c 736b 23bf
000003e0: 264b e7bc b457 a3bd b0c1 47bc 21fc 2bbd
000003f0: 871a 47be ba96 c13c 16d8 e33d 8653 ba3d

linear.bias f4 [4]
0.18071853 0.89650965 0.37085977 0.4772911
00000000: 470e 393e a881 653f 55e1 bd3e 805f f43e
