model/model_epoch50000_mse_6r_256b_jue.pth (torch, 38487 bytes, 6 tensors)

fc.0.weight f4 [128, 4]
000000 3d c3 fb bc e5 05 8c be fe 45 22 3e 53 91 e1 3e
       -0.030732745 -0.27348247 0.15847012 0.44056186
000010 53 48 5b 3e 9a 3d 9c be 7d e1 0e 3f 07 cb 78 bd
       0.21414308 -0.30515748 0.5581282 -0.060740497
000020 86 23 da 3e 9c 52 4a be ab ef df 3e bf 26 29 3d
       0.42605227 -0.19758075 0.4373754 0.041296717
000030 8e 2e cc 3e 0f 13 26 be 3c 59 d9 3e b1 59 d6 bd
       0.39879268 -0.16218208 0.42450893 -0.10466326
000040 2f 31 7c 3d 3d e0 bd bd f3 ce da 3e 46 fb 23 be
       0.061570343 -0.09271286 0.42736015 -0.16013822
000050 af 34 e5 3e 24 76 a4 3e 61 45 9b be d8 bf dd 3d
       0.44766757 0.32121384 -0.3032637 0.10827607
000060 6f ca 64 3e a9 97 40 3e 97 1e dd 3e 02 ed 8e be
       0.22342847 0.18807854 0.431874 -0.27915198
000070 92 90 63 3e 24 6f 32 be ad 89 59 be a1 92 94 3e
       0.22223118 -0.1742521 -0.21243925 0.2901812
000080 94 7c 3e 3e 00 6a cb 3d 54 06 ac be d0 0e 01 be
       0.1860221 0.09932327 -0.33598578 -0.12603307
000090 a7 4c 02 3e 8f 25 04 bf a8 28 23 3e bd 00 29 3e
       0.12724553 -0.5161981 0.15933478 0.16504188
0000a0 34 10 a4 3d 68 29 94 3e bb 10 28 bf fd f7 c1 3e
       0.08010903 0.2893784 -0.6565053 0.37884513
0000b0 b8 ca c5 be 20 91 6d 3e 04 89 69 be d2 51 9d be
       -0.38631225 0.23199892 -0.22806174 -0.30726486
0000c0 ec ba f9 be b4 d3 9e be 80 f4 11 3e 10 91 36 3d
       -0.48775423 -0.31020892 0.14253426 0.044571936
0000d0 ab 7b ed 3e f4 4a 8e bd d5 06 a7 be f6 1d 7c be
       0.46383414 -0.0694789 -0.326224 -0.24620804
0000e0 af a3 8f be dd f4 d6 3b 93 53 5d 3e 42 97 83 be
       -0.28054568 0.0065599517 0.21613912 -0.25701338
0000f0 a4 92 ae be 30 f3 5c be 8c 35 c6 3e a8 50 f5 bd
       -0.34096253 -0.21577144 0.38712728 -0.119782746
000100 60 2b cf 3d 90 21 2e 3e c0 92 36 be 30 98 3a be
       0.10115695 0.1700499 -0.17829418 -0.18222117
000110 3b 5e 92 be 13 85 f8 3e 84 60 af be 20 6e 02 3f
       -0.28587517 0.48539028 -0.34253323 0.5094929
000120 3a 7b 07 be f1 dc cf be 56 81 4f be 5c 82 b9 bd
       -0.13230601 -0.40598252 -0.20264181 -0.09058067
000130 07 a0 98 3e 7f b8 bc be 6c fd b9 be d9 5e 17 bf
       0.2980959 -0.3685951 -0.36326158 -0.591291
000140 12 50 ca bd a4 e4 81 3d d1 05 3e 3b ed e9 77 3e
       -0.098785535 0.06342438 0.0028995166 0.2421033
000150 58 a5 80 be 98 55 91 3d b4 80 78 be d6 52 96 3e
       -0.25126147 0.07096404 -0.24267846 0.29360074
000160 30 19 51 3e e8 ab d5 3e 24 bd 53 be b6 4c 90 be
       0.20419765 0.41732717 -0.2067762 -0.28183526
000170 58 42 57 3e 7e 24 ff 3e 32 3d c8 be 20 d5 87 bd
       0.21021402 0.4983253 -0.39109188 -0.06632447
000180 ec 14 a1 3e c0 c6 39 bc 54 ec 55 be 2a 7b ac 3e
       0.31461275 -0.01133889 -0.20890933 0.33687717
000190 cd 5e a0 3e 54 21 4c 3c e6 4a 07 3f 90 d7 98 3e
       0.31322327 0.012459118 0.5284866 0.2985196
0001a0 8e 61 f3 be bc f2 62 be e0 d5 dd be 60 d0 bf 3d
       -0.47535366 -0.22162908 -0.43327236 0.09365916
0001b0 05 1d 9c 3d 54 82 a1 be 93 bb 78 be 01 83 fc be
       0.076227225 -0.31544745 -0.24290304 -0.49318698
0001c0 5f 1c b2 be 1c f5 7f bb ee fb 8d bc c8 7d b2 3e
       -0.3478727 -0.0039056009 -0.017332043 0.34861588
0001d0 e0 84 78 bd 34 e0 4a 3e 18 2f 1f be 26 82 a7 be
       -0.060673594 0.19812089 -0.15545309 -0.32716483
0001e0 dc 98 c2 be ca 8f f9 be 12 a1 ba 3e e4 79 67 be
       -0.38007247 -0.48742515 0.36451012 -0.22605091
0001f0 af 37 97 3e c5 62 09 be db 7e 0a be 46 67 0e bf
       0.2953467 -0.13416584 -0.13524954 -0.5562633
000200 b7 2f 6a be b8 15 ac be ad 10 8b 3d 29 df a1 3e
       -0.22869764 -0.3361032 0.0679029 0.3161557
000210 26 6f 80 be 8c b0 9a 3e 10 76 b1 be 30 b5 f1 3e
       -0.250848 0.3021282 -0.34660387 0.47208548
000220 98 9b 51 3e 44 3a b7 3f 04 72 cf 3e 7a 2a 7b be
       0.2046951 1.4314656 0.40516675 -0.24527922
000230 17 c9 a2 3e 2d da ef 3e 25 ad 73 3e 7c b7 08 3e
       0.31794044 0.46846142 0.23796518 0.13351244
000240 73 fa 5d 3e cb a0 96 be 58 07 02 3f 04 5b 69 be
       0.2167757 -0.2941955 0.50792456 -0.22788626
000250 c0 b1 8c 3e 90 58 76 3e 3c f3 81 be 88 b8 43 be
       0.27479362 0.24057221 -0.25380886 -0.19113362
000260 1b 5e c9 3e 9f 42 bb be 65 b2 87 bd 27 88 b0 3d
       0.3932961 -0.36574265 -0.06625823 0.08619719
000270 b4 77 24 be 39 8c 74 bc 43 84 63 3e 13 55 82 3e
       -0.16061288 -0.01492601 0.22218423 0.2545553
000280 e4 45 0a 3f 1f 21 9b bb bd e1 d7 3e 3c 9c 3a bf
       0.54012895 -0.004734173 0.42164412 -0.72894645
000290 25 61 5d 3d 60 b9 f6 3e 9d fc 27 3e c4 c8 c5 bd
       0.054047722 0.48188305 0.16404958 -0.09657434
0002a0 f8 04 e0 be b4 2d 16 3e 98 01 a1 3d c0 34 8d 3c
       -0.4375379 0.14665872 0.07861632 0.017237067
0002b0 df 68 bb 3e 63 2f cb be 50 3a c4 3d 7d d5 c1 bd
       0.36603448 -0.3968459 0.09581435 -0.09464548
0002c0 6c 47 40 3e 40 99 d9 bc 56 c9 b3 be a0 f6 10 be
       0.18777245 -0.026562333 -0.35114545 -0.1415658
0002d0 21 42 00 3e b7 46 52 be ad 62 d5 be 87 1e f3 3e
       0.12525226 -0.20534788 -0.41676846 0.47484228
0002e0 50 b1 6c 3e a4 a8 a9 be 35 b7 c3 be 6a be c9 3e
       0.23114514 -0.33136475 -0.38225713 0.39403087
0002f0 38 2f d9 be 60 9c 9f bc 40 d3 a6 be 18 9d c4 be
       -0.42418838 -0.019483745 -0.32583046 -0.38401103
000300 bf dd 07 3f ed cb ad be 6f d5 65 3e 72 11 21 be
       0.5307273 -0.33944646 0.224447 -0.15729311
000310 6f d2 bf 3e c2 f0 be 3d 74 71 f6 ba 91 9d cc be
       0.37465236 0.09323265 -0.0018802122 -0.39963964
000320 fc 7b 20 be ec 3b 59 3e b4 8e ca 3e 90 c2 6e 3d
       -0.15672296 0.21214265 0.39562 0.058291018
000330 a4 62 70 3d d9 e8 c3 be 01 eb 21 be f6 b9 94 bc
       0.05868782 -0.38263586 -0.15812303 -0.01815508
000340 68 05 a5 bd af a2 b1 3d 9c 34 92 be 68 eb 43 3f
       -0.08057672 0.086736076 -0.28555763 0.76531076
000350 b8 b1 70 3d ff 42 cb be 69 6e 6a 3c c1 b3 13 bf
       0.058763236 -0.3969955 0.01430855 -0.5769616
000360 cc 7e b2 3e 78 4e 07 3e 8f 9a ae be 82 2c 62 be
       0.34862363 0.13213527 -0.34102294 -0.22087291
000370 f8 ac 22 be 04 ca 4a be 9f a1 8e 3e 71 fe b6 3e
       -0.15886295 -0.19803625 0.27857682 0.35740998
000380 e8 8e cf bd a8 73 92 3d 5c e6 06 be 00 e3 09 3e
       -0.10134679 0.07150966 -0.13173813 0.134655
000390 3c 90 0a 3e 22 f9 fa be 41 75 a0 3e 2d 0f d4 3e
       0.13531584 -0.49018198 0.31339458 0.41417828
0003a0 28 49 d3 3d 3e 1d a5 be b4 13 d1 be 9e 87 84 3e
       0.10316688 -0.32248873 -0.40835345 0.25884718
0003b0 69 c0 91 be ab 52 19 bc fe 0b be be 0f 79 bc 3c
       -0.2846711 -0.0093580885 -0.37118524 0.023006944
0003c0 b4 7d f6 3d 2c b2 ef be e5 bf 58 3e fa b4 ec be
       0.12035695 -0.46815622 0.21166952 -0.46231824
0003d0 87 1b ee 3e d6 f3 b4 3e 95 14 e1 bd 19 1e b2 3e
       0.46505377 0.35342282 -0.10990254 0.34788588
0003e0 d6 ae d7 be f4 68 e5 3e 38 dd cc 3e f6 a0 e2 be
       -0.42125577 0.44806635 0.40012527 -0.44263428
0003f0 4d 6a 16 bf 6d fa 84 3e 89 7d e2 be ab b0 0c 3f
       -0.5875595 0.2597231 -0.442364 0.54957074

fc.0.bias f4 [128]
000000 08 89 08 3c ac d3 42 bc 62 38 5a bd 02 bf f8 bd
       0.008333452 -0.011891287 -0.053276427 -0.12145807
000010 77 b6 9c 3e 9d c7 1e be 64 3d c0 3e 9c 36 f2 bd
       0.3060796 -0.15505834 0.37546837 -0.11826822
000020 5e 21 eb be 00 ce 59 3e 8c ef 8d 3e 08 d4 67 be
       -0.45923895 0.21269989 0.27721822 -0.22639477
000030 f8 dd 8d be 39 7e 42 3e e8 2c ec 3e b8 d4 cc bd
       -0.2770841 0.18993463 0.4612801 -0.100015104
000040 10 c4 a7 bd d4 7c 8b 3e b7 71 85 3e 73 4b 03 3e
       -0.08191693 0.27243674 0.2606332 0.1282175
000050 f7 bd 8f 3d 00 ac c8 bc 0c fa 0e be 54 42 a1 be
       0.07018655 -0.024496078 -0.13962573 -0.31495917
000060 62 6f d0 be 87 81 47 3e 60 6b 49 bd 66 55 e4 3e
       -0.40709978 0.19483005 -0.049174666 0.44596404
000070 46 8b e2 3e 3c 26 5d be 28 55 87 bd 14 1a 04 3e
       0.44246882 -0.21596617 -0.06608039 0.12900573
000080 05 e1 58 3e bc 66 83 be d7 99 7e be 67 2f cc 3c
       0.21179588 -0.25664318 -0.24863373 0.024924947
000090 49 8c 60 be 20 02 fc be 92 d7 27 be 6f e1 78 3e
       -0.21928515 -0.4922037 -0.16390827 0.24304746
0000a0 14 86 8f be 13 a3 ed 3d 02 82 d6 be 60 19 8d 3e
       -0.2803198 0.116033696 -0.41896063 0.27558422
0000b0 64 d3 53 be f5 22 45 3e a2 98 20 3e a0 be cb bd
       -0.20686108 0.19251616 0.15683225 -0.09948468
0000c0 79 88 9c be 0c af 2a bd 58 e6 22 be 25 e9 31 3e
       -0.3057287 -0.041670844 -0.15908182 0.17374094
0000d0 49 89 b5 3d 9d 78 02 3e 3e 22 2f ba 5e be 73 3d
       0.08864076 0.12741323 -0.00066808227 0.05950772
0000e0 90 d6 b4 be 5d 58 b3 bb ee 0a 96 be 4c ff b8 3e
       -0.35319948 -0.00547318 -0.29305214 0.36132276
0000f0 cd 9b e8 3e 37 de 73 bd 10 d9 c9 be b4 c6 c5 3e
       0.45431367 -0.059538092 -0.39423418 0.3862816
000100 f3 d2 c8 3d e0 a8 f7 bd f5 08 c2 3d 00 51 7f be
       0.0980586 -0.12092757 0.09474365 -0.24933243
000110 52 c6 f7 be e7 10 90 3e 45 ab 99 be 04 fd cd be
       -0.48393494 0.28137895 -0.3001348 -0.40232098
000120 41 c5 8f bd c8 f8 bd be 0a 63 ef be 51 69 93 3e
       -0.07020045 -0.37103868 -0.46755248 0.28791288
000130 80 79 92 be 9c bd e7 be f0 b7 77 be ea 71 92 be
       -0.28608322 -0.45261848 -0.2419126 -0.28602535
000140 1f 02 13 bd 8f 4e f8 3d 6c 7d a5 3e 08 64 d0 3e
       -0.035890695 0.12124359 0.32322252 0.40701318
000150 4a 05 b3 be 5f c2 df bd 61 57 e7 3c e4 10 ef 3b
       -0.34964973 -0.10925745 0.028239908 0.0072957147
000160 44 d8 5d be 74 0a 4e be 80 5a d1 3b b2 bb fa be
       -0.2166453 -0.20121175 0.0063889623 -0.48971325
000170 cd 58 10 be 04 93 03 be 83 c1 06 3e a7 6b c8 3e
       -0.14096375 -0.12849051 0.13159756 0.39144632
000180 02 f9 a6 be 2c dc 11 3e 8e 8e 8e be dc 4f 47 be
       -0.32611853 0.14244145 -0.27843136 -0.19464058
000190 f0 5f fd be a7 b2 72 3d 20 cb 15 be f2 1d ee be
       -0.49487257 0.059252407 -0.14628267 -0.4650722
0001a0 34 f9 8f be d9 10 5d be b6 e5 d4 3e be 45 bc be
       -0.28119814 -0.21588458 0.41581506 -0.3677196
0001b0 6c e3 ce be b9 80 70 3e 26 3e 8d be 72 c6 a5 3e
       -0.40407884 0.23486604 -0.27586478 0.32377964
0001c0 ae 63 b5 bd 52 3a 50 be d6 22 f4 be e4 ef f5 3e
       -0.08856903 -0.20334747 -0.47682828 0.48034585
0001d0 a3 d8 f0 3e 04 b4 09 3d cc 6e 10 be ac 18 4a 3e
       0.4704028 0.033618942 -0.14104766 0.19735974
0001e0 78 5d 33 be 54 d7 6e be 42 ef e6 be 4a b8 80 3e
       -0.17516124 -0.23324329 -0.45104414 0.251406
0001f0 3c 78 ff be 9c 9f ac be 4e d6 93 be a4 a9 43 3e
       -0.4989642 -0.33715522 -0.2887444 0.19107682

fc.2.weight f4 [64, 128]
000000 64 fd a2 3c a2 8b 30 bd 04 87 de 3c 9b 9f 4b 3d
       0.019896217 -0.043101914 0.02716399 0.04971276
000010 4e 1d 5c 3d 8f f1 06 3e 33 72 67 3d 0d 22 90 3d
       0.053738885 0.13178085 0.056505393 0.07037745
000020 78 b5 73 bd 16 1c 39 3d b5 6c 8e 3c 64 96 f0 bc
       -0.059499234 0.0451928 0.01738582 -0.029368587
000030 4e aa 45 3d 04 10 4f 3d 22 52 de 3c 16 04 76 bd
       0.04825812 0.050552383 0.027138773 -0.06006249
000040 a0 ce e1 bb df e3 bd bd 30 f0 fa 3c cc 7d 1c bc
       -0.0068910867 -0.092719786 0.030632108 -0.009551477
000050 e1 6f 02 bd ce 3f 11 3d 41 7d 80 bd 0b 36 a5 bd
       -0.031844977 0.03546124 -0.0627389 -0.080669485
000060 00 58 50 3b 80 41 03 3c d8 2a 9f bc 14 dd 29 bd
       0.0031790733 0.008011222 -0.01942961 -0.041470602
000070 d6 de a7 3d ab 7f a9 bd 54 15 a1 bd aa 95 19 bb
       0.081967995 -0.08276304 -0.07865396 -0.0023435154
000080 3f ad 37 3c 08 52 54 3c a5 c2 09 3e 81 38 89 3d
       0.011210739 0.012959011 0.13453157 0.067002304
000090 56 f5 25 3e 1e 8a 47 3d ee 16 d5 bc 79 ed 87 3d
       0.1620687 0.048715703 -0.02601191 0.06637091
0000a0 bd a5 1f 3e b6 4e 6e 3d f5 15 82 bd cd f9 81 3d
       0.15590568 0.058180533 -0.06351844 0.06346474
0000b0 59 dc ad bd f5 7c f2 bc 91 f5 59 bd f7 ad b4 3d
       -0.084892936 -0.0296006 -0.053212706 0.08822244
0000c0 c7 b4 29 3e 21 b7 e7 3c f6 f4 53 3d 67 9a 4e bb
       0.16572867 0.028285565 0.051747285 -0.0031525136
0000d0 29 16 7c 3d 32 a7 7c bd 45 51 17 3e 8d e4 79 bc
       0.06154457 -0.061682887 0.14777096 -0.015252245
0000e0 aa 03 ed bc 3f 6e aa 3d 00 56 74 3b 50 8a a1 3d
       -0.028932411 0.08321809 0.0037282705 0.07887709
0000f0 f7 eb 0b 3d fb e2 99 3d 84 7c 2d bd 62 60 10 bd
       0.03416058 0.07513996 -0.042355075 -0.035248168
000100 14 30 c9 3d f0 89 08 bd 52 ba 8d bc 8f 9d 88 3d
       0.09823623 -0.033334672 -0.017300759 0.06670677
000110 20 03 d1 3b c4 a3 0b bd 37 02 53 3e 84 32 d2 bc
       0.0063785464 -0.034091726 0.20606314 -0.025658853
000120 6a d8 b0 3d f6 a2 6d 3d 0a ff 1e 3d 98 b3 8a 3d
       0.08635028 0.05801674 0.038817443 0.06772536
000130 09 16 47 bd c2 0e 97 bd 90 16 ef bb d5 54 88 3d
       -0.048605 -0.07375862 -0.007296391 0.066568054
000140 76 09 36 bd d0 00 71 bd ee 2b 81 bd 10 f4 5c bd
       -0.044442616 -0.058838665 -0.06307207 -0.053943694
000150 00 c3 77 3b 9c 76 7a 3d 4d 36 32 bd fd a6 d1 3d
       0.0037805438 0.06114827 -0.043508817 0.102369286
000160 c9 cc 5d 3e 7f fc 96 3d 00 24 62 39 cc df b4 bd
       0.2166015 0.073723786 0.0002156645 -0.08831748
000170 bb 79 24 3e e5 a6 81 3d 5e 22 37 be b5 a1 79 bc
       0.16062061 0.06330661 -0.17884204 -0.015236308
000180 39 f3 c4 3d 00 84 e4 39 33 64 8d bd eb 83 ad 3d
       0.096167035 0.00043585896 -0.06903877 0.08472427
000190 b2 da 51 3d 3f f5 ec bc 48 d0 35 3c b5 8f a9 3d
       0.051233955 -0.028925536 0.011097021 0.08279363
0001a0 81 aa 83 bd cc b1 bb 3d a8 22 23 3c b0 30 4c bc
       -0.064290054 0.091647714 0.009956993 -0.01246278
0001b0 56 7d 18 3d e6 48 e2 3d 04 5a c4 bc be 3b 66 3e
       0.037228905 0.110490605 -0.023968704 0.22483727
0001c0 83 c2 7e bd be f9 13 bc 44 8e 8d bd 96 f6 df 3c
       -0.06219722 -0.009031711 -0.06911901 0.027339261
0001d0 0f c0 83 bc 71 92 2a bc 49 bb 35 bd 09 1d 0f bd
       -0.016082792 -0.010410891 -0.044368062 -0.0349398
0001e0 32 2a 4b 3d 20 09 51 bc 10 85 da 3b 9f e6 ab 3d
       0.049600787 -0.012758523 0.0066686943 0.08393597
0001f0 33 ab 81 bd 2d 00 31 3d 60 2a 69 bc af 50 87 bc
       -0.06331482 0.04321306 -0.014231294 -0.016517965
000200 45 71 a2 3d d0 a4 fb 3b 8f 88 6e bd 5c df 9e bc
       0.07931761 0.0076795593 -0.0582357 -0.019393615
000210 d0 4a a0 3b 96 74 6e 3d c0 e6 ca 3a 38 83 0c 3d
       0.004891731 0.058216654 0.0015480146 0.034304827
000220 fa 62 3d 3d c4 9a 77 bd be 62 8f bd bd 63 98 3d
       0.04623697 -0.06045033 -0.070012555 0.074408986
000230 a3 ca 14 bd 35 ad 80 3d 10 f2 a7 bd 22 12 58 3d
       -0.036326062 0.062830366 -0.08200467 0.052751668
000240 cc 07 b0 bd 3a 88 a1 bd c0 2b fa bb 66 b6 66 bd
       -0.08595237 -0.07887311 -0.00763461 -0.056326292
000250 bd 98 58 bd 12 58 64 3d 0c 26 d2 bc a8 cb 75 bc
       -0.052880038 0.055748053 -0.025652908 -0.015002169
000260 53 98 1a bd b0 ed 40 bc 05 41 af bd 3b b6 ac 3d
       -0.037742924 -0.011775419 -0.08557323 0.08433195
000270 08 b2 82 bc 40 55 80 3b d8 b4 13 bc e8 fe 94 bc
       -0.015954033 0.0039164126 -0.0090152845 -0.018187955
000280 00 da 44 b9 df 7f a2 bd 58 b1 b2 bd 9b 2b a5 3d
       -0.00018773228 -0.07934546 -0.08725232 0.08064958
000290 00 23 59 3a 67 8e 87 3d d3 b9 46 bd d1 70 89 bd
       0.00082831085 0.06618958 -0.04851706 -0.06710971
0002a0 90 24 d0 3b ea 7f 3b 3d 13 07 ab bd 6e 52 59 3d
       0.006352015 0.045776285 -0.08350959 0.053057127
0002b0 da 9d 58 3d 48 e9 60 bc b5 61 8d 3d a5 cf 46 bd
       0.052884914 -0.013727494 0.06903402 -0.04853787
0002c0 22 6a eb bc a0 33 27 bb 8d bb 2e bd f6 9c 52 3d
       -0.028737132 -0.0025512949 -0.04265933 0.05141922
0002d0 d8 88 73 3c e0 59 59 3b 2c bf ac bd 9d ee 8b bd
       0.014864169 0.0033165142 -0.08434901 -0.06832621
0002e0 2c d6 2b bd 80 f4 ca 3b 60 fc 26 3b 90 98 e5 bb
       -0.041952297 0.0061936975 0.0025480017 -0.0070067123
0002f0 b5 d1 3e bd b0 22 38 3c e9 da 90 bd 63 bd 95 3d
       -0.04658671 0.011238739 -0.07073004 0.07311513
000300 90 f6 4a 3c da 54 7e 3d a3 10 40 bd 23 b5 93 bd
       0.012387887 0.06209264 -0.046890866 -0.072122835
000310 28 fc 93 3c 87 d5 92 3d ba cc 5a 3d f9 a2 80 3d
       0.018064573 0.07169633 0.0534179 0.062810846
000320 54 4f b4 bd 7f 01 9b bd a0 a4 a5 bd a0 14 29 bb
       -0.08804193 -0.07568645 -0.0808804 -0.0025799647
000330 5e e7 1c bd 03 27 b0 bd 61 d9 98 bd 62 19 3b 3d
       -0.038306586 -0.08601191 -0.07463337 0.045678504
000340 ee f8 ee bc d2 94 31 bd ef 26 70 bd e8 17 10 bc
       -0.029171433 -0.043354817 -0.05863088 -0.008794762
000350 2a ff 18 bd 0c ed fe 3c 9c dd f0 bc c7 a5 83 3d
       -0.03735272 0.031118892 -0.029402547 0.06428104
000360 b0 c6 20 bc cc cb e3 3c 60 75 44 3c 5d c6 18 bd
       -0.009812996 0.027807139 0.011990875 -0.03729855
000370 00 68 2f 39 67 d0 a9 3d 9c 64 85 3c 64 d7 78 bd
       0.00016728044 0.08291703 0.016283326 -0.060752288
000380 c0 94 1d 3c 37 4f 8d 3d 78 15 84 3c e4 8a b3 bd
       0.009617984 0.06899875 0.016123518 -0.08766726
000390 a2 41 26 3d d8 8d 8c bd 73 ae b3 3d 9c c1 08 3d
       0.040589936 -0.06862992 0.08773508 0.033387765
0003a0 fc 88 c1 3c 02 63 71 3d e8 a6 a7 bc 48 50 ac bd
       0.02362489 0.05893231 -0.02046533 -0.0841375
0003b0 0f a9 71 bd 9a 0a 77 bd 77 5d 23 bd 1b 73 a2 3d
       -0.058999117 -0.060312845 -0.039884057 0.07932111
0003c0 6d bb a8 3d 8b 8f 5d bd ae 1d 3e 3d ea 1c fe bc
       0.08238874 -0.05409197 0.046415024 -0.031019647
0003d0 36 34 3c 3d 6a 9f e6 bc 30 b1 0e 3c e7 f8 89 3d
       0.04594823 -0.028152186 0.008709237 0.067369275
0003e0 c0 f4 87 3b a0 be 88 3c 75 7c 85 3d 52 b0 4a 3d
       0.0041490495 0.01669246 0.06517879 0.04948456
0003f0 c5 8e 85 3d 16 4e 82 bd 81 bb 86 3d 91 e8 38 bd
       0.06521372 -0.0636255 0.06578732 -0.045143668

fc.2.bias f4 [64]
000000 10 ea 34 3d f0 ba 79 3c 4a 2e 10 3d 27 6e 27 bb
       0.044168532 0.015242323 0.035200395 -0.0025547834
000010 94 90 84 bd 70 12 70 bd 93 2f 2a bd 95 23 0b 3d
       -0.064728886 -0.058611333 -0.041549277 0.03396948
000020 e6 40 61 3d 32 48 3a 3c 5c c6 0e 3d 70 6f 98 bd
       0.054993533 0.011369752 0.03485714 -0.0744313
000030 8f a0 6f 3c 76 14 e5 3c 36 03 be bc 4c 31 f0 3c
       0.0146256825 0.027963858 -0.02319489 0.029320382
000040 ce 98 80 bd cf 2f 29 3c 12 7a 0c 3d c0 df aa bc
       -0.06279145 0.01032634 0.034296103 -0.020858645
000050 06 27 bb 3d 70 37 83 bb af e3 30 bb 38 df fa bc
       0.091383025 -0.0040044114 -0.0026991179 -0.030624017
000060 22 9e 49 bd 95 51 ee bc 6f c0 1b bd c9 98 60 3d
       -0.049223073 -0.029091636 -0.038025316 0.054833207
000070 8a 52 ea bc 4c d9 a3 3d a1 6f 3f 3d 0b 11 b9 bb
       -0.02860381 0.080004305 0.046737317 -0.0056477836
000080 11 10 83 bd 08 84 4e bc aa 7c 5e bd 46 2a 9c 3d
       -0.06399549 -0.012604721 -0.054318108 0.076252505
000090 14 99 73 3d 0e 3f 02 3c ed 04 44 bd 03 7b 9a bd
       0.05947216 0.007949604 -0.04785626 -0.07542994
0000a0 79 16 5b 3d 72 d1 6a 3d db c3 03 bd 9e 4a a7 3d
       0.05348823 0.05732865 -0.032169204 0.08168529
0000b0 40 bc b4 bd 69 65 a1 bd 7e 31 27 3d 4d 14 be bd
       -0.08824968 -0.078806706 0.040818684 -0.09281216
0000c0 23 5e 5b 3d 41 b7 97 3b 42 82 49 3d e4 5a b0 bd
       0.053556573 0.00463 0.04919649 -0.08611086
0000d0 7e d4 10 bd bc 35 ed bc 50 ed 8c 3c 47 1c a3 bd
       -0.0353589 -0.028956287 0.017203003 -0.07964378
0000e0 a4 28 96 bc 6d cb 4e 3c 88 52 ac 3b b0 88 09 3d
       -0.018329926 0.012621743 0.005258862 0.03357762
0000f0 a0 8e 88 bc 22 af 7a bd 80 75 59 bc c7 7b 8b 3d
       -0.016669571 -0.061202176 -0.013272643 0.06810718

fc.4.weight f4 [4, 64]
000000 35 6a bb 3d 00 d9 9a 3d 60 b4 b1 bd eb 9b f6 3d
       0.09151117 0.07560921 -0.08676982 0.12041458
000010 80 03 95 bc ac 81 22 bd eb ef 0c 3e 1d c6 2d 3d
       -0.018190145 -0.039674446 0.13763396 0.042425264
000020 7b 74 12 bb 4e 2b 02 3e 5d 00 aa be 28 8c 2c bd
       -0.002234726 0.12711832 -0.33203402 -0.04212585
000030 25 d8 9d bd dd d9 1b 3e 95 22 00 3d fc f2 d6 3d
       -0.07707242 0.15219827 0.03128298 0.10495564
000040 2e af 8e bd d1 75 e8 3b 9d 1e d3 bc 60 76 0f 3c
       -0.069670066 0.007094123 -0.025771433 0.00875625
000050 d3 99 92 3d c2 2e fd bd 8d a8 0b be 31 91 f1 3d
       0.07158246 -0.12362434 -0.13638516 0.11795271
000060 1c 60 2c bd fd e4 8f bc 06 d4 76 bd 43 57 56 3c
       -0.042083845 -0.017565245 -0.060260795 0.013082328
000070 44 6a ae bd 0f cc c9 3d 27 4c ba be 6d a6 3f bc
       -0.08516362 0.09853374 -0.36386225 -0.011697394
000080 6c de 9c 3c a0 12 57 3c 10 47 0a 3c 35 c2 26 3e
       0.019149028 0.013126999 0.008439794 0.16285022
000090 2a 76 00 3d b8 81 00 3e e7 7f 7e bd e7 9d 88 3d
       0.03136269 0.12549484 -0.062133696 0.066707425
0000a0 a0 92 b7 3d 26 71 ce bd 0c 06 8d 3d 7f 9b ed 3d
       0.089635134 -0.10080175 0.06885919 0.11601924
0000b0 0e 6c 7c bd c0 18 69 bd 4d ee f7 3c b5 2d e9 bd
       -0.061626486 -0.05690837 0.030264998 -0.11385671
0000c0 04 ff a5 bd c3 e7 b3 bd 1c 86 37 bd e0 65 be bb
       -0.08105281 -0.087844394 -0.04480563 -0.0058104843
0000d0 60 41 6a 3c 1c 8b 04 3c 94 38 0d bd 24 f9 a3 bd
       0.014297813 0.008089807 -0.034477785 -0.08006504
0000e0 52 e2 cd bd 94 ed 06 bf 61 80 05 3e 7b 05 b7 bd
       -0.10052933 -0.52706265 0.13037254 -0.08936592
0000f0 00 4c 23 3a 54 da 77 bd d4 9d ee bd cc 64 8d 3d
       0.00062292814 -0.06051095 -0.11651197 0.06903991
000100 7b e4 18 3c cc 6d c9 3d da 99 e8 bd 69 9b a2 3c
       0.009331818 0.09835395 -0.1135747 0.019849496
000110 50 cc e7 bd b0 4b 1d 3d 9e 67 ac be a6 75 4f bd
       -0.113182664 0.03840226 -0.33672804 -0.050649308
000120 1a fd 92 3c 68 fb 60 3d 79 d6 9b bd 70 70 59 bd
       0.017942954 0.05492726 -0.07609267 -0.053085744
000130 ad 4f d2 3d db 89 79 3d 8f 95 ae bb 51 77 38 3d
       0.10269103 0.060922485 -0.0053278874 0.045035664
000140 9e a9 e1 3d 98 49 96 3d b6 00 fb bd 94 06 1d bd
       0.1101868 0.07338256 -0.12255995 -0.03833635
000150 ae 8b f6 bc 18 cb cc bc 3a c5 13 3e 6b 21 e8 3d
       -0.030095901 -0.024999186 0.14430705 0.11334499
000160 b4 cb 16 3d 3b 38 65 be 24 b1 9d bd 2a ba 2a 3d
       0.03681536 -0.22384731 -0.076998025 0.041681446
000170 40 23 f6 bd 03 c4 ce bb 8d 69 e0 3c a1 e0 fd bd
       -0.12018442 -0.0063099875 0.02739408 -0.1239636
000180 29 cd 1a bc 68 e9 53 bd 9e fc 85 3d 0b 8c 36 be
       -0.009448328 -0.051736265 0.065423235 -0.1782686
000190 0b ab 08 be 5e a6 e4 bc 95 61 5e bc 23 4e 94 3c
       -0.13346498 -0.027911361 -0.01357307 0.018103665
0001a0 ca 26 ca 3c 00 17 41 3a 02 45 eb bd 7a e5 b2 3d
       0.0246767 0.0007365793 -0.114877716 0.087351754
0001b0 95 d6 3f 3d 60 d0 90 bb 6b f1 38 be 8c 93 c6 bd
       0.0468355 -0.0044193715 -0.18060844 -0.09696111
0001c0 1d 11 8c bd 04 48 0b bd 44 46 7c bd da 0c 86 3d
       -0.068392016 -0.034004226 -0.061590448 0.0654542
0001d0 58 ca 1d 3d 97 ce 0d bd 1a ca 85 bd 87 cf d8 3d
       0.03852305 -0.034620848 -0.065326884 0.10586458
0001e0 4a 74 96 3d 46 28 09 be b7 2b 7f bd a8 7b 8c 3b
       0.07346399 -0.1339427 -0.06229755 0.004287202
0001f0 fe a0 b5 3d 3e 0f fb bd bc 6a 6a 3d 0b 61 ed 3d
       0.088685974 -0.122587666 0.057230696 0.11590775
000200 a4 d9 b2 3d 08 52 3f 3d f0 b1 2c 3e d8 d3 40 3d
       0.08732918 0.04670909 0.16864753 0.04707703
000210 40 d7 54 bb 0e 11 b2 bd 92 ce f6 be 4a 43 60 3d
       -0.0032476932 -0.08694659 -0.48204476 0.05475167
000220 b4 f4 88 bd 04 f5 3e 3c 74 7e 17 bd dc 27 70 3d
       -0.066872984 0.011655096 -0.03698583 0.058631763
000230 00 5a c5 3d d0 97 0a 3e 5d 22 2d 3e 20 dc b1 3d
       0.09636307 0.13534474 0.1690764 0.08684564
000240 a0 62 ae 3d 4a b6 d3 bd c4 9b ff 3d 74 f9 77 3d
       0.08514905 -0.10337503 0.12480882 0.06054063
000250 57 55 a0 3c 98 03 bf 3c c1 f9 a4 3e f8 9c a8 bd
       0.019571943 0.023317143 0.32221797 -0.082330644
000260 b4 e7 4b bd d6 5a 1a be 44 66 d3 3c 5c 56 1a 3d
       -0.049781516 -0.15073714 0.0258056 0.037680015
000270 1e a0 d4 3d ce 36 8f 3d 15 ea 68 3d 45 38 19 3e
       0.103821024 0.06992875 0.056863863 0.14962871
000280 dd 43 bf 3d 60 a6 ae bc 1c b6 24 bd 13 f9 bd bd
       0.09339116 -0.021319568 -0.040212736 -0.09276023
000290 60 9d f1 bd bc 38 03 bd 95 69 ae bd f7 23 41 3c
       -0.11797595 -0.032036528 -0.08516232 0.01178836
0002a0 d5 c0 9a 3d 28 26 81 3c a0 8b e2 bb a9 9e 83 3c
       0.07556311 0.015765265 -0.0069136173 0.016066866
0002b0 47 51 81 bd 68 47 f3 bc 50 57 25 be ba 7c 4e bc
       -0.063143305 -0.029697135 -0.16146588 -0.012602979
0002c0 dd 3f 04 3e 50 77 9c bc c6 7d b4 3d ba a8 f0 bd
       0.12914987 -0.019099861 0.08813052 -0.11750932
0002d0 a4 f1 9c 3d 67 2d a9 bd 30 8c 11 3c f8 7b eb bc
       0.07663277 -0.08260613 0.008883521 -0.028745636
0002e0 bc 4c 15 bd 0a 27 9c bc 7a e5 ad 3d 2f fe 8f 3d
       -0.036450133 -0.019061584 0.08491035 0.070309035
0002f0 80 3b b1 ba c4 df d7 3d f8 2f e8 3d dd 84 78 3d
       -0.0013521761 0.10540727 0.11337274 0.060673583
000300 7a e0 32 bd 40 0b 64 3c 29 62 79 bd ac af 6b 3d
       -0.04367111 0.013918698 -0.06088463 0.05754058
000310 88 de b3 bd 7a 8f 98 bd 77 10 4c 3e 41 2b 24 be
       -0.08782679 -0.07449241 0.19928156 -0.16032125
000320 3c 60 62 c0 ab f1 d5 bc 94 9f c5 3d 0a 58 b5 bd
       -3.5371237 -0.026116213 0.09649578 -0.08854683
000330 b3 6e 76 be f8 bd 53 bc 94 34 b9 3c 92 c9 3c bd
       -0.24065666 -0.01292371 0.022608079 -0.04609067
000340 f8 57 68 bd e4 f0 50 3e 24 b5 c7 3d 82 f8 a2 bd
       -0.05672452 0.20404392 0.09751347 -0.07957555
000350 30 1d 37 bd ec bc 4b bd 7d b9 d3 bd 29 19 b9 3c
       -0.04470557 -0.049740717 -0.103381135 0.022595005
000360 d2 38 f0 bd 1f a5 e8 3c f4 be 6f 3d cd d2 c1 3a
       -0.117295876 0.028399048 0.058531716 0.0014787555
000370 9a c0 f4 3d 56 34 0a 3d ef a9 c1 bc 6c b2 8a 3d
       0.11950798 0.033741318 -0.023640601 0.067723125
000380 0e e5 04 3e 50 06 61 3c 8e 6f c7 3d c6 e4 22 bc
       0.12978002 0.013734415 0.09738074 -0.009942239
000390 b5 59 2e 3e 50 ba 01 3e 15 f0 9e 3c 4c e4 d5 be
       0.17026408 0.12668729 0.01940159 -0.4177574
0003a0 b7 f4 1f be c0 6f 94 bd 10 c2 fe 3d 94 2d 33 3d
       -0.15620695 -0.07247877 0.12439358 0.04374464
0003b0 2f ae e5 3d 50 55 41 bc 06 13 3b be 43 94 25 bd
       0.112148635 -0.011800125 -0.18268976 -0.040424597
0003c0 7b 6b 62 3d 43 99 a1 3d 82 dd 85 3d ee cb 88 bd
       0.055278283 0.078905605 0.0653639 -0.066795215
0003d0 9c c9 77 3d 70 30 a0 be d4 ee 72 3d 5e b0 00 bd
       0.060495004 -0.31286955 0.059309795 -0.031418197
0003e0 0e be 84 bd 7e 0c 07 be 48 6d 14 3d 1d 81 b6 3d
       -0.064815626 -0.13188359 0.03623703 0.08911345
0003f0 fa ec da 3d da 63 ed bd 1a 9f dd bd 16 d0 c2 3d
       0.10689731 -0.11591311 -0.10821362 0.095123455

fc.4.bias f4 [4]
000000 79 79 93 bb 13 4a 8a 3c 68 f2 84 bd 54 90 ab 3d
       -0.0045005647 0.016881024 -0.06491548 0.08377138
