model/model_epoch50000_mse_1r_32b_jue.pth (torch, 38487 bytes, 6 tensors)

fc.0.weight f4 [128, 4]
-0.45682806 -0.10062233 -0.2910775 -0.50121397 -0.23379469 -0.042372942 -0.06659156 0.27547395
-0.45495105 0.068378836 -0.42366853 0.08020629 0.31505182 -0.35378355 0.44688466 0.20355591
-0.40241694 0.010839999 0.31808478 0.0014297962 0.17028333 0.0052808127 -0.21673758 -0.52299124
-0.28733605 0.5163271 0.09614879 0.43694898 0.34233007 0.3563448 -0.2775775 -0.58787143
0.035722196 -0.26243287 0.27511376 -0.17706198 -0.12235916 -0.33073068 -0.45018512 -0.09080231
0.32652143 -0.0029177738 0.14592241 -0.20832163 -0.47407836 -0.2055831 -0.4232428 0.27816826
-0.32118797 -0.29514778 0.48027357 -0.08199575 -0.13511348 0.4641102 -0.10936546 -0.18231171
-0.1584977 0.4220358 -0.009570775 -0.2972496 -0.043008864 0.16511196 -0.2553144 -0.47553343
0.031462844 0.3722539 0.103372484 0.49100515 0.30437028 0.456771 0.32710394 -0.20572229
0.018207535 -0.53117424 0.12413918 0.055037174 -0.33121645 0.13638204 0.010189772 -0.04058355
0.34359723 0.49760896 -0.43423617 -0.4908381 0.12389157 0.6581962 0.07248392 0.46018302
0.15005624 -0.109673604 0.15127727 0.14753895 0.38412943 -0.0027240391 -0.070636444 0.41190824
-0.22949338 -0.33446085 0.3282792 0.33652216 -0.09682622 0.42353293 0.40289098 0.11255959
0.058444105 0.26535383 -0.3480535 -0.47272366 0.11966056 0.087296784 -0.03873855 -0.3294708
-0.45141357 -0.42775232 0.2590902 0.17147917 -0.35297883 0.28620338 0.22911108 -0.3599971
0.47545895 -0.05556 0.3243727 0.072371386 -0.3018626 0.48812592 0.114738405 0.488729
0.30554342 -0.36447075 -0.025606073 0.29613876 -0.24189675 -0.13959634 0.46011755 -0.31855133
0.0043065567 0.10886901 -0.31509385 -0.11472862 0.41474175 0.31072935 -0.036080383 -0.2557692
0.38519618 0.27648047 0.28572384 0.41458622 0.37273788 0.02875954 0.16277355 0.09152287
-0.5233872 0.0045816773 0.3942181 -0.24318965 0.01373737 0.34478337 -0.03249392 0.09143614
0.2984761 -0.4180123 0.19949788 -0.30197334 0.48258075 -0.13926461 0.31612962 0.5146482
-0.21601176 0.45873153 -0.42716134 0.18679428 -0.06004435 0.15557075 -0.23388743 0.39009798
0.2371536 -0.17797646 -0.36175165 -0.48134574 -0.18632424 0.45478916 -0.3180867 0.3388745
-0.22451836 0.08872539 -0.2367 -0.09066558 0.21570188 -0.27663827 -0.18654637 0.12285395
0.3078264 -0.08789129 -0.4107094 -0.22258794 0.014610215 -0.10335633 0.16000117 0.5076181
-0.24603355 -0.16749191 -0.024986327 -0.3322481 0.4632854 -0.1715561 -0.0009829124 0.4428646
-0.08262032 0.23434007 -0.49022055 -0.14048755 -0.28799105 -0.06717378 0.2102179 -0.29120886
0.1398871 0.039791703 -0.43171978 0.0872336 0.06798297 -0.7272882 -0.34345594 -0.52840024
-0.29533046 0.023253381 -0.2895553 -0.26703918 0.03562674 0.22515008 0.4229513 -0.2848215
0.45612487 0.20238926 -0.15258837 0.30045953 -0.2351743 0.47718215 -0.12542242 -0.39531642
-0.021947742 0.07916927 -0.393314 -0.4957155 0.23260206 0.46549314 0.44359922 -0.4118495
-0.3358187 0.109755635 0.277138 0.3648162 -0.2889681 -0.086345494 0.059165478 -0.270208
00000000: 5ee5 e9be 1513 cebd 1c08 95be 8f4f 00bf
00000010: e067 6fbe 408f 2dbd 2861 88bd ec0a 8d3e
00000020: 58ef e8be 340a 8c3d 15eb d8be 3243 a43d
00000030: 794e a13e 1e23 b5be 11ce e43e f670 503e
00000040: 9809 cebe 409a 313c 02dc a23e 0068 bb3a
00000050: c15e 2e3e ab0a ad3b 75f0 5dbe c1e2 05bf
00000060: b61d 93be 032e 043f a8e9 c43d c7b7 df3e
00000070: e345 af3e d372 b63e a31e 8ebe be7e 16bf
00000080: 7051 123d 9a5d 86be b6db 8c3e bc4f 35be
00000090: 7097 fabd 8855 a9be aa7e e6be 90f6 b9bd
000000a0: d12d a73e 1f38 3fbb af6c 153e 4452 55be
000000b0: 66ba f2be 6084 52be 48b3 d8be 126c 8e3e
000000c0: c072 a4be 9c1d 97be 6be6 f53e 63ed a7bd
000000d0: 305b 0abe da9f ed3e 00fb dfbd ecaf 3abe
000000e0: 394d 22be 1415 d83e bdce 1cbc 1931 98be
000000f0: 102a 30bd 1c13 293e 92b8 82be 1e79 f3be
00000100: 2fdf 003d 1098 be3e f4b4 d33d 0765 fb3e
00000110: 6cd6 9b3e e3dd e93e 2b7a a73e dda8 52be
00000120: f827 953c 09fb 07bf af3c fe3d a96e 613d
00000130: 3495 a9be bca7 0b3e 00f3 263c f03a 26bd
00000140: faeb af3e 9ac6 fe3e 3454 debe 224f fbbe
00000150: ddba fd3d 8c7f 283f 7372 943d 1c9d eb3e
00000160: 58a8 193e 8e9c e0bd 6ee8 1a3e 7314 173e
00000170: 9dac c43e cb85 32bb d7a9 90bd a3e5 d23e
00000180: 5000 6bbe 743e abbe 3614 a83e a24c ac3e
00000190: d34c c6bd 4fd9 d83e ba47 ce3e a485 e63d
000001a0: 1663 6f3d 75dc 873e 1134 b2be d608 f2be
000001b0: 9810 f53d a8c8 b23d 50ac 1ebd 66b0 a8be
000001c0: ae1f e7be 5a02 dbbe 78a7 843e 3c98 2f3e
000001d0: a4b9 b4be 4089 923e 189c 6a3e 8a51 b8be
000001e0: 5b6f f33e e292 63bd 2e14 a63e 7337 943d
000001f0: bc8d 9abe a4eb f93e f8fb ea3d b03a fa3e
00000200: 3070 9c3e e99b babe d4c3 d1bc 809f 973e
00000210: c8b3 77be 58f2 0ebe 8794 eb3e 2919 a3be
00000220: 041e 8d3b b7f6 de3d fb53 a1be d7f6 eabd
00000230: 0859 d43e eb17 9f3e 06c9 13bd 2ef4 82be
00000240: 6f38 c53e d98e 8d3e 654a 923e a544 d43e
00000250: 80d7 be3e 2099 eb3c 1cae 263e 5870 bb3d
00000260: b4fc 05bf e521 963b f4d6 c93e b506 79be
00000270: b512 613c 7287 b03e 5818 05bd df42 bb3d
00000280: dcd1 983e b505 d6be 2c49 4c3e 409c 9abe
00000290: d314 f73e 629b 0ebe bedb a13e fcbf 033f
000002a0: 3032 5dbe dcde ea3e e4b4 dabe 0047 3f3e
000002b0: 10f1 75bd f04d 1f3e 3080 6fbe ecba c73e
000002c0: 65d8 723e 763f 36be 8337 b9be f372 f6be
000002d0: c8cb 3ebe 20da e83e 43dc a2be f580 ad3e
000002e0: 24e8 65be a8b5 b53d 7c61 72be e0ae b9bd
000002f0: f4e0 5c3e 88a3 8dbe 0306 3fbe da9a fb3d
00000300: 6c9b 9d3e 5900 b4bd 8148 d2be 18ee 63be
00000310: af5f 6f3c 7cac d3bd 59d7 233e 43f3 013f
00000320: 38f0 7bbe 0083 2bbe 20b0 ccbc 6c1c aabe
00000330: be33 ed3e 67ac 2fbe 11d5 80ba 26bf e23e
00000340: d834 a9bd d8f6 6f3e 30fe fabe f8db 0fbe
00000350: 9073 93be 6892 89bd 5c43 573e 5419 95be
00000360: 903e 0f3e a0fc 223d 600a ddbe 88a7 b23d
00000370: a83a 8b3d 8f2f 3abf 75d9 afbe 3d45 07bf
00000380: 8e35 97be e07d be3c 9840 94be 5cb9 88be
00000390: 58ed 113d be8d 663e 138d d83e 20d4 91be
000003a0: 3389 e93e 213f 4f3e 2040 1cbe d5d5 993e
000003b0: 88d1 70be 3851 f43e bc6e 00be ea66 cabe
000003c0: c0cb b3bc 8023 a23d 7460 c9be 6cce fdbe
000003d0: 3c2f 6e3e 1e55 ee3e 701f e33e f0dd d2be
000003e0: 6ef0 abbe 90c7 e03d 08e5 8d3e 30c9 ba3e
000003f0: a0f3 93be e8d5 b0bd 8057 723d b458 8abe

fc.0.bias f4 [128]
0.2402937 -0.24172771 0.4343618 -0.2741935 -0.38067526 0.32547662 0.23717034 -0.030996567
-0.19696635 -0.13026965 0.0034683978 -0.19989407 0.44859248 -0.1981126 0.25492045 -0.28967154
0.450462 0.10921705 -0.06849601 -0.017890096 -0.2955789 -0.0839448 0.35912246 0.45773944
-0.26592892 0.39063513 0.18707432 -0.2841748 -0.4343561 -0.41677868 -0.30446717 -0.16438043
0.131708 0.2276862 0.49011454 0.33361995 -0.1720457 -0.4077925 0.39081287 0.06456257
-0.13944153 -0.30424124 -0.18313903 -0.07814932 0.18900606 0.29351887 -0.058498204 0.18504621
0.2754852 0.070524104 -0.3881479 -0.21203513 0.107230484 -0.14435685 -0.1473884 0.1594184
-0.31497627 -0.009706078 0.12646718 -0.36437935 -0.35055745 -0.4996189 0.020715892 0.05263084
0.13593604 0.15444838 0.31618333 -0.21161425 0.12230191 0.3652838 0.07402301 -0.09667921
0.4342704 0.123174354 0.3166381 -0.34344667 0.07072807 -0.45112115 -0.14604664 -0.44939882
-0.32662594 0.042859524 0.06500028 0.4445709 0.31876788 -0.04541273 -0.29144564 0.3117375
-0.13616747 -0.08036673 -0.4501034 -0.4392683 -0.3718543 -0.13044113 0.21614547 -0.2357564
-0.093346596 -0.18357927 -0.47297078 -0.0036817605 -0.23637016 0.005330327 -0.14172304 0.10517371
0.17487575 -0.022780776 0.3170224 -0.33758777 0.16855986 0.09489465 0.08540287 0.026921613
-0.24635394 -0.46326023 0.24302997 0.2502971 0.38475594 0.2627313 0.42906785 0.112948455
-0.094694674 -0.10808143 -0.18158095 -0.047696292 0.03828889 -0.09588233 -0.21417528 0.4333562
00000000: 8d0f 763e 7887 77be ab64 de3e 1763 8cbe
00000010: dee7 c2be dfa4 a63e c8dc 723e 83ec fdbc
00000020: 8cb1 49be 6865 05be 0f4e 633b 08b1 4cbe
00000030: eaad e53e 08de 4abe ef84 823e d44f 94be
00000040: f5a2 e63e 30ad df3d a347 8cbd 408e 92bc
00000050: 1e56 97be 40eb abbd e6de b73e d35c ea3e
00000060: d627 88be 5401 c83e 6990 3f3e 5c7f 91be
00000070: ec63 debe 0464 d5be 1fe3 9bbe 5853 28be
00000080: 76de 063e 9226 693e 4bf0 fa3e 3cd0 aa3e
00000090: bf2c 30be 2eca d0be a018 c83e 6139 843d
000000a0: c3c9 0ebe 82c5 9bbe cc88 3bbe c00c a0bd
000000b0: ce8a 413e 1b48 963e d09b 6fbd c17c 3d3e
000000c0: 650c 8d3e f16e 903d 52bb c6be bd1f 59be
000000d0: a89b db3d 48d2 13be fcec 16be 943e 233e
000000e0: 9244 a1be 3e06 1fbc 9d80 013e ee8f babe
000000f0: 447c b3be 0cce ffbe 60b4 a93c 7093 573d
00000100: d132 0b3e b727 1e3e c8e2 a13e 68b1 58be
00000110: 6c79 fa3d 7a06 bb3e 6099 973d c0ff c5bd
00000120: b158 de3e d642 fc3d 641e a23e 3ed8 afbe
00000130: e1d9 903d 5af9 e6be 408d 15be 9a17 e6be
00000140: 843b a7be 788d 2f3d de1e 853d cc9e e33e
00000150: 8b35 a33e b302 3abd 5d38 95be 0f9c 9f3e
00000160: 7c6f 0bbe 5097 a4bd f473 e6be c6e7 e0be
00000170: b063 bebe 5c92 05be 3d55 5d3e 206a 71be
00000180: 802c bfbd 34fc 3bbe 3a29 f2be b149 71bb
00000190: 050b 72be 06aa ae3b d81f 11be 5065 d73d
000001a0: a112 333e c09e babc c350 a23e 4ed8 acbe
000001b0: f59a 2c3e 2058 c23d b3e7 ae3d b78a dc3c
000001c0: 3544 7cbe 7230 edbe d9dc 783e f126 803e
000001d0: bbfe c43e b884 863e c8ae db3e 8551 e73d
000001e0: 48ef c1bd cc59 ddbd 5bf0 39be 305d 43bd
000001f0: d0d4 1c3d f45d c4bd c450 5bbe dde0 dd3e

fc.2.weight f4 [64, 128]
-0.011460036 -0.019125976 -0.032164548 -0.037148584 0.02068489 -0.021401336 0.018695917 -0.039763264
0.047602005 -0.06473319 0.08529996 -0.017020226 -0.031274933 0.037367053 -0.070187576 0.013685457
0.058411628 -0.041337147 -0.02257122 -0.0231461 0.0027469173 0.032251135 -0.004806395 -0.04876673
-0.069681436 0.03102069 0.06815736 -0.041815363 -0.077248715 -0.0030603036 0.080592714 -0.02454944
0.06414172 -0.054185435 0.030609217 -0.058726758 -0.04164596 -0.03886949 -0.015493823 -0.025841769
0.011275376 -0.036760274 0.05112139 -0.07813795 -0.0017036832 0.0009283149 -0.06166278 -0.05462191
-0.090597644 -0.06087766 0.00061827153 -0.061960876 0.08765922 0.02513741 -0.05626973 0.04575602
-0.02044361 0.03619264 0.06775581 -0.026711248 0.045150302 -0.08827799 -0.0013328716 -0.03292728
0.039692577 0.011945249 -0.077993095 0.0515702 0.07646451 0.03126306 -0.004600793 0.011969484
0.005140125 0.0007743573 -0.016477544 0.023963109 -0.03620755 -0.044453703 0.04399047 0.037974797
-0.0809017 -0.07989564 0.030928837 -0.02320732 0.03439691 0.023027048 0.0006865426 0.022383178
0.08139603 -0.079285435 0.03445117 0.010332555 -0.015576452 0.016593434 -0.080146246 -0.06732694
-0.00086699426 0.054749303 0.044119157 0.023645144 0.043523114 0.028121043 -0.03501012 0.041181423
-0.035933305 -0.07040596 -0.021972874 0.012610547 -0.052613985 0.05193413 -0.038348347 0.042615492
0.021827042 0.08430796 -0.057692744 0.024552898 0.06872524 0.07545505 -0.055039562 -0.044237193
0.027167652 0.06271779 -0.029829094 -0.06939006 -0.0118151605 0.0025908046 -0.06960527 0.014639005
0.009003706 0.0654129 -0.24124788 0.029094104 0.033085905 -0.08780702 0.10407311 -1.8427656
0.048568524 0.029167913 0.0202266 -0.0042615384 -0.08146474 0.023147278 -0.19763954 0.005085662
0.06951252 0.008692799 0.2970891 0.07404598 0.040365748 0.04994716 0.049496267 0.08220996
-0.02764694 0.020110985 -0.34570116 -0.03555172 -0.060238004 0.022536278 0.009000899 -0.060613066
-0.07223732 -0.123885006 0.027581474 -0.069806874 0.0558447 -0.072367825 0.7668837 0.010016559
-0.061616413 0.07347209 0.03992597 -0.024555884 -0.11867672 -0.05902097 0.04079949 -0.03836918
-0.056917645 -0.00053465215 -0.033281647 0.1149859 -0.048396844 0.059662737 0.010286547 0.27153796
-0.029132396 0.13083519 0.087609 -0.016683817 0.031053938 -0.063533254 -0.0526084 0.061753787
-2.6032977 -3.0286422 0.048803296 0.048632078 0.085934445 0.012495265 -0.10619968 0.043322332
-0.09670341 0.11158835 0.0121805975 0.0004940028 0.009631838 -0.03701198 -0.060515814 0.014690526
0.024720103 0.009941607 -0.0327501 -0.05389798 -0.023488272 0.073709525 -1.8166045 0.052242965
0.0812305 0.08324248 0.029340625 -0.06817879 0.13655822 0.033999115 0.0038269165 0.076217726
0.001380384 0.053482346 -0.06735423 -0.06255683 0.13842005 0.06192335 0.047063775 0.081098
-0.041911446 -0.032317087 -0.25050217 -0.03809842 0.009016386 -0.03754909 0.07762795 -0.0059450157
0.16179186 -0.06969418 -0.00070050603 -0.027792111 0.032797005 -0.03539077 -0.016491026 -0.011183491
0.09140426 0.054832824 0.027203359 0.04352226 0.071366094 0.060274955 0.11729348 -0.128503
00000000: e0c2 3bbc 14ae 9cbc f9be 03bd 1d29 18bd
00000010: 5c73 a93c db51 afbc 2e28 993c cede 22bd
00000020: 52fa 423d d692 84bd bfb1 ae3d 006e 8bbc
00000030: 251a 00bd 320e 193d 81be 8fbd f838 603c
00000040: 0841 6f3d 2451 29bd 47e7 b8bc e49c bdbc
00000050: a005 343b c419 043d f77e 9dbb 9fbf 47bd
00000060: 24b5 8ebd 1a1f fe3c 1696 8b3d 9646 2bbd
00000070: 9334 9ebd 608f 48bb cb0d a53d e81b c9bc
00000080: bc5c 833d 8cf1 5dbd 2ec0 fa3c 788b 70bd
00000090: f494 2abd 9d35 1fbd ced9 7dbc 1eb2 d3bc
000000a0: 5bbc 383c f191 16bd aa64 513d ca06 a0bd
000000b0: 1f4e dfba 295a 733a 1c92 7cbd 39bb 5fbd
000000c0: 428b b9bd da5a 79bd 8013 223a b0ca 7dbd
000000d0: ad86 b33d f8ec cd3c 177b 66bd aa6a 3b3d
000000e0: 5c79 a7bc bc3e 143d 8fc3 8a3d 8cd1 dabc
000000f0: 86ef 383d 17cb b4bd c0b3 aeba c1de 06bd
00000100: af94 223d 01b6 433c d8ba 9fbd 463b 533d
00000110: 6d99 9c3d b20d 003d 40c2 96bb a81b 443c
00000120: 7e6e a83b 3dfe 4a3a eafb 86bc 484e c43c
00000130: 5e4e 14bd 1615 36bd 5a2f 343d 768b 1b3d
00000140: caaf a5bd 53a0 a3bd 795e fd3c 471d bebc
00000150: c6e3 0c3d 38a3 bc3c 18f9 333a ed5c b73c
00000160: f6b2 a63d 6760 a2bd ac1c 0d3d e049 293c
00000170: 6034 7fbc f4ee 873c b723 a4bd b5e2 89bd
00000180: 0047 63ba ce40 603d 4ab6 343d 76b3 c13c
00000190: 4b45 323d 1a5e e63c c666 0fbd daad 283d
000001a0: cd2e 13bd 0031 90bd 7500 b4bc 789c 4e3c
000001b0: c381 57bd e2b8 543d 2813 1dbd 958d 2e3d
000001c0: a0ce b23c a7a9 ac3d 3a4f 6cbd 2923 c93c
000001d0: d2bf 8c3d 2d88 9a3d 2a71 61bd 0f32 35bd
000001e0: b28e de3c 2f72 803d 255c f4bc 601c 8ebd
000001f0: 6094 41bc 7dca 293b 358d 8ebd 70d8 6f3c
00000200: 4884 133c 33f7 853d af09 77be c256 ee3c
00000210: 1685 073d 2bd4 b3bd 4824 d53d bedf ebbf
00000220: caef 463d 8cf1 ee3c 41b2 a53c 60a4 8bbb
00000230: fcd6 a6bd 5c9f bd3c 0562 4abe a0a5 a63b
00000240: 955c 8e3d 3e6c 0e3c 101c 983e 6ba5 973d
00000250: 8e56 253d 6595 4c3d 99bc 4a3d b25d a83d
00000260: d67b e2bc cbbf a43c beff b0be ae9e 11bd
00000270: 20bc 76bd 009e b83c 8278 133c 6845 78bd
00000280: 29f1 93bd 6cb7 fdbd 8bf2 e13c e8f6 8ebd
00000290: 6abd 643d 9535 94bd 7d52 443f 7e1c 243c
000002a0: 7e61 7cbd 8978 963d 6a89 233d 6c29 c9bc
000002b0: c80c f3bd f9bf 71bd 5e1d 273d 0029 1dbd
000002c0: 7a22 69bd e627 0cba 5652 08bd ba7d eb3d
000002d0: c53b 46bd ea60 743d e888 283c 0607 8b3e
000002e0: 10a7 eebc a9f9 053e 596c b33d 80ac 88bc
000002f0: d464 fe3c b91d 82bd e87b 57bd 8af1 7c3d
00000300: 6e9c 26c0 46d5 41c0 f7e5 473d 6e32 473d
00000310: 66fe af3d f1b8 4c3c 387f d9bd c272 313d
00000320: 700c c6bd 6f88 e43d 2191 473c f77f 013a
00000330: dbce 1d3c e099 17bd 6edf 77bd 88b0 703c
00000340: d081 ca3c 1fe2 223c f824 06bd 21c4 5cbd
00000350: 7a6a c0bc 05f5 963d 7f86 e8bf b8fc 553d
00000360: 2d5c a63d 097b aa3d c05b f03c 52a1 8bbd
00000370: ebd5 0b3e a842 0b3d 01cd 7a3b 0a18 9c3d
00000380: 00ee b43a 4e10 5b3d 04f1 89bd cc1d 80bd
00000390: fcbd 0d3e 57a3 7d3d f2c5 403d b516 a63d
000003a0: 56ab 2bbd ec5e 04bd d241 80be 170d 1cbd
000003b0: 77b9 133c 13cd 19bd 67fb 9e3d 68ce c2bb
000003c0: c4ac 253e d2bb 8ebd 2aa2 37ba 48ac e3bc
000003d0: 2756 063d e9f5 10bd 3018 87bc f63a 37bc
000003e0: 2832 bb3d 6298 603d 94d9 de3c 6644 323d
000003f0: 6328 923d dfe2 763d 9037 f03d 4a96 03be

fc.2.bias f4 [64]
0.019975355 -0.087859176 0.07931459 0.04278771 0.06902445 -0.07513625 -0.06493264 -0.05080347
0.017021276 -0.011661684 -0.083077624 -0.03419641 -0.016819103 -0.00926023 0.061874192 0.05878406
0.06645606 0.008271048 -0.06756939 -0.07464587 -0.031315736 -0.030910676 -0.085653424 0.040057044
0.08762733 -0.001636833 0.0745006 -0.04513714 0.027987024 0.06826407 -0.058239117 0.08337008
0.007734152 0.0703601 -0.053017247 0.10533744 0.05893633 0.07338808 0.07743504 -0.07191177
0.003633894 -0.041410215 0.017614 -0.0679213 0.008636308 0.09305672 -0.08393361 0.03172151
-0.057355683 0.022793666 0.007241048 0.06468843 -0.017341807 -0.043361865 -0.07830779 0.012692526
0.0755117 -0.06439491 -0.08715457 -0.014587295 -0.04202278 0.02580972 0.07759177 -0.07759585
00000000: 5ba3 a33c 83ef b3bd b06f a23d 2a42 2f3d
00000010: b15c 8d3d 09e1 99bd 67fb 84bd 4d17 50bd
00000020: 3470 8b3c a610 3fbc 9a24 aabd 8911 0cbd
00000030: 37c8 89bc 38b8 17bc cb6f 7d3d 8ec7 703d
00000040: 1d1a 883d 4a83 073c d261 8abd efdf 98bd
00000050: ee44 00bd 6338 fdbc 106b afbd db12 243d
00000060: f575 b33d 008b d6ba c593 983d b9e1 38bd
00000070: 0b45 e53c 08ce 8b3d 248c 6ebd efbd aa3d
00000080: c56e fd3b f518 903d 9d28 59bd 28bb d73d
00000090: 3967 713d 7d4c 963d 4396 9e3d 7a46 93bd
000000a0: a026 6e3b c29d 29bd 3c4b 903c 531a 8bbd
000000b0: 4d7f 0d3c 8694 be3d 62e5 abbd 6aee 013d
000000c0: cbed 6abd c8b9 ba3c 5046 ed3b 5e7b 843d
000000d0: 6810 8ebc 369c 31bd d65f a0bd 50f4 4f3c
000000e0: e1a5 9a3d 7be1 83bd 187e b2bd 8dff 6ebc
000000f0: 1420 2cbd e86e d33c 6fe8 9e3d 93ea 9ebd

fc.4.weight f4 [4, 64]
-0.06413717 -0.2427008 0.12278702 -0.12478438 -0.06446336 -0.022588253 -0.040159464 -0.07473815
0.10350777 -0.009945879 0.012465656 -0.33009145 -0.104635514 -0.02090396 0.15001611 0.14067842
0.13403824 0.16008776 -0.10206862 -0.028398782 -0.02470458 0.1212499 -0.096818455 -0.053729415
0.031644188 0.06455876 -0.09057145 0.14758 -0.021268247 0.088682905 -0.014658496 -0.09771198
0.09251612 -0.07954228 0.09424214 0.06192598 -0.07722448 -0.037506126 0.1151916 0.11887066
0.028573766 -0.020201474 0.12545897 -0.001765058 -0.00084133446 0.14203185 -0.045732055 -0.05819495
0.13684715 -0.17272283 -0.10873018 -0.00010153135 0.09924196 0.19788404 -0.1117596 -0.11838916
0.25608033 -0.015995845 0.087285444 0.06644711 0.11730154 0.14414911 -0.09449404 0.019606292
-0.03478945 -0.108232334 0.029429924 0.09518018 -0.101414174 0.08272074 0.018177345 -0.06611637
-0.08457117 -0.1401283 0.02873668 -0.22671925 -0.10241735 -0.10090901 0.01807313 -0.060895894
-0.023823185 -0.095049955 -0.089434594 0.10999961 0.08408371 0.113786325 -0.05249029 0.062134147
-0.14060247 0.11592771 0.062794544 -0.07637984 0.17692462 0.1231732 -0.0037329644 -0.09504529
0.010404598 0.11766501 0.024114996 0.1103051 -0.083409116 -0.072109245 0.11267131 0.016487198
0.017798454 -0.051967308 -0.080335505 0.049065676 0.13914613 0.0313758 0.061268058 0.08394031
-0.16698104 0.3057616 -0.060031727 0.14252663 -0.11756697 0.00046390636 -0.016973019 0.076257706
-0.015277255 0.09373894 -0.025863066 0.07422258 0.011396438 -0.08207938 0.07100789 -0.112100646
-0.059141766 -0.06520309 -0.018809786 -0.066145465 0.15348373 -0.113119885 0.099616304 0.27680767
-0.020029679 -0.17829423 0.04032454 -0.14034835 -0.0047243834 -0.080285475 -0.07974709 -0.022681262
0.0033681989 -0.021555057 -0.107913 -0.049484313 0.102118164 0.01087247 -0.060521763 0.0057860217
-0.015107786 -0.010137036 -0.13003944 0.02566032 -0.04966135 -0.108977586 -0.072312355 0.07127628
0.07335557 -0.1113967 0.117856756 0.16256838 0.18863422 -0.013239422 0.09846008 -0.16473033
-0.0977115 -0.00944677 0.1108328 0.021170955 0.13337386 0.10294608 0.12415511 0.052037492
-0.102003954 0.030445497 0.003918931 -0.08194071 0.067944035 -0.024586989 -0.120410666 0.097913414
0.15454586 0.015315145 0.0058370084 -0.041447535 0.055607826 0.034368448 -0.046372406 -0.031194776
-0.021336969 0.33550522 -0.041400593 -0.057542667 -0.13849099 0.011816263 -0.066314936 0.53208137
-0.029786319 0.11112474 0.002078101 -0.049189303 0.00883536 0.058963194 -0.05610718 -0.08030098
0.14091823 -0.022300506 -0.06021607 -0.014613792 0.07193948 -0.08031944 0.08357153 0.040689
0.15487497 0.00473471 0.22187959 0.121095 0.11823771 -0.009929498 0.09816842 -0.24435921
0.06212262 -0.020067975 -0.06509933 -0.10126033 0.0661969 -0.1230539 -0.054562796 0.024024801
-0.025637731 0.0726196 0.14923833 0.119994245 0.04284415 0.090539284 -0.112089306 -0.12120773
-0.048996452 0.047118153 0.06553641 0.37568542 0.11056535 0.17141978 -0.044740558 0.09219827
0.7065413 -0.008075699 -0.024378821 -0.106151946 0.00065891445 0.09031804 0.07878733 0.07087439
00000000: 595a 83bd 8f86 78be c377 fb3d f48e ffbd
00000010: 5e05 84bd 000b b9bc 407e 24bd 5110 99bd
00000020: e2fb d33d 0af4 22bc c03c 4c3c bf01 a9be
00000030: 254b d6bd c83e abbc d39d 193e 010e 103e
00000040: 5241 093e 0cee 233e 5a09 d1bd 90a4 e8bc
00000050: 4261 cabc de51 f83d c148 c6bd 6013 5cbd
00000060: 569d 013d 6237 843d 867d b9bd 361f 173e
00000070: bf3a aebc 629f b53d 302a 70bc 381d c8bd
00000080: 1779 bd3d 10e7 a2bd 0602 c13d 19a6 7d3d
00000090: de27 9ebd 06a0 19bd 93e9 eb3d 7672 f33d
000000a0: 8813 ea3c 907d a5bc 5178 003e 8559 e7ba
000000b0: 008d 5cba cc70 113e 8951 3bbd d45d 6ebd
000000c0: a921 0c3e 41de 30be eead debd 3aed d4b8
000000d0: 5e3f cb3d 1da2 4a3e 38e2 e4bd 0476 f2bd
000000e0: f61c 833e b809 83bc b6c2 b23d 6c15 883d
000000f0: ca3b f03d d39b 133e 1786 c1bd 609d a03c
00000100: 627f 0ebd eaa8 ddbd 0617 f13c d4ed c23d
00000110: 3cb2 cfbd 7e69 a93d a8e8 943c 0568 87bd
00000120: a633 adbd cb7d 0fbe 3069 eb3c 1729 68be
00000130: 30c0 d1bd 62a9 cebd 1a0e 943c f96d 79bd
00000140: d728 c3bc 8da9 c2bd 7c29 b7bd 7a47 e13d
00000150: 1534 ac3d ce08 e93d 0f00 57bd 6080 7e3d
00000160: 18fa 0fbe 826b ed3d 6d9a 803d 096d 9cbd
00000170: ba2b 353e 3b42 fc3d c0a4 74bb 1ba7 c2bd
00000180: 0c78 2a3c 5afa f03d d08c c53c a4e7 e13d
00000190: 66d2 aabd 03ae 93bd 37c0 e63d 2910 873c
000001a0: 10ce 913c acdb 54bd f186 a4bd 17f9 483d
000001b0: 537c 0e3e e983 003d 37f4 7a3d e6e8 ab3d
000001c0: 14fd 2abe c98c 9c3e d4e3 75bd 80f2 113e
000001d0: f4c6 f0bd 7538 f339 000b 8bbc 002d 9c3d
000001e0: 744d 7abc 34fa bf3d c8de d3bc 0202 983d
000001f0: 20b8 3a3c 3c19 a8bd 966c 913d 0695 e5bd
00000200: a33e 72bd 3389 85bd fb16 9abc 4677 87bd
00000210: d72a 1d3e 66ab e7bd a203 cc3d bcb9 8d3e
00000220: 4815 a4bc c392 36be 582b 253d 7ab7 0fbe
00000230: 00cf 9abb b66c a4bd 7152 a3bd 0ece b9bc
00000240: 00bd 5c3b 3b94 b0bc 7e01 ddbd 10b0 4abd
00000250: 5423 d13d 7222 323c abe5 77bd ab98 bd3b
00000260: a686 77bc d015 26bc 0f29 05be 9735 d23c
00000270: b369 4bbd a42f dfbd 8018 94bd 4cf9 913d
00000280: 723b 963d f423 e4bd e25e f13d 5378 263e
00000290: 5429 413e 29ea 58bc 70a5 c93d 11af 28be
000002a0: f81c c8bd a0c6 1abc 4ffc e23d b66e ad3c
000002b0: 2893 083e 65d5 d23d 0945 fe3d 4425 553d
000002c0: 73e7 d0bd d668 f93c 606a 803b 88d0 a7bd
000002d0: 3e26 8b3d a76a c9bc de99 f6bd d486 c83d
000002e0: 4541 1e3e 60ec 7a3c 6044 bf3b e4c4 29bd
000002f0: 08c5 633d eec5 0c3d fef0 3dbd 308c ffbc
00000300: deca aebc 57c7 ab3e ab93 29bd dcb1 6bbd
00000310: 95d0 0dbe 0099 413c 20d0 87bd 7c36 083f
00000320: 7002 f4bc 5e95 e33d c030 083b b97a 49bd
00000330: 30c2 103c 6483 713d a4d0 65bd d774 a4bd
00000340: de4c 103e 8daf b6bc 20a5 76bd b06e 6fbc
00000350: 0255 933d 857e a4bd 8d27 ab3d 82a9 263d
00000360: 8b97 1e3e a025 9b3b 6734 633e a800 f83d
00000370: 9d26 f23d 55af 22bc 860c c93d 4d39 7abe
00000380: 4a74 7e3d 9865 a4bc cc52 85bd 9361 cfbd
00000390: 3e92 873d af03 fcbd 3d7d 5fbd a9cf c43c
000003a0: 3806 d2bc 96b9 943d efd1 183e 8bbf f53d
000003b0: 597d 2f3d a96c b93d 148f e5bd c23b f8bd
000003c0: 81b0 48bd f7fe 403d f437 863d d759 c03e
000003d0: 1670 e23d ab88 2f3e e041 37bd 72d2 bc3d
000003e0: e4df 343f f04f 04bc 18b6 c7bc 3166 d9bd
000003f0: 00bb 2c3a aaf8 b83d 405b a13d 9826 913d

fc.4.bias f4 [4]
0.007903375 -0.10356412 -0.03109878 0.036388487
00000000: 287d 013c 6d19 d4bd dec2 febc 180c 153d
