model/model_epoch50000.pth (torch, 185359 bytes, 8 tensors)

fc.0.weight f4 [256, 16]
-0.10907061 0.6191167 0.07043398 -0.13936947 0.18750899 -0.34916392 -0.29339144 -0.8620033
-0.12393266 -1.0916849 -0.070926294 0.9723756 0.15951908 -0.7078101 0.147208 -1.7193065
0.022736408 0.03634111 -0.16717574 -0.22518548 0.095327176 0.03627653 0.092399254 -0.050531395
-0.083592296 -0.060290817 0.074701585 0.26296076 0.14830364 -0.172878 -0.27863753 -0.28195164
-0.18763238 -0.09110702 -0.07880661 -0.03757265 0.03619004 0.14185533 -0.0036571813 0.04651708
0.10959725 -0.12025194 -0.3226174 -0.10172105 -0.18996932 0.03631563 -0.061279234 0.12307081
0.045123942 0.096596934 0.11749826 0.11802981 -0.08371544 -0.14471069 0.09703743 -0.1804751
-0.1096625 0.037448466 -0.21278234 -0.087687105 -0.055628877 -0.22255479 0.014651509 0.19460624
-0.19056647 -0.030703016 0.15325113 -0.37167183 -0.2723796 0.05077645 0.11109306 -0.06776891
0.16774389 -0.09493749 0.1163986 0.040594645 -0.18731868 -0.18688571 -0.055151887 0.26660922
-0.24060138 -0.09222387 -0.102321394 -0.05342098 0.15509933 -0.0150167765 0.06734222 0.14201589
-0.005629067 0.21985002 -0.16396897 0.07940349 0.07821846 -0.19353314 -0.040795036 -0.18140614
0.11112231 -0.19519758 -0.04674712 -0.034842372 -0.10449058 0.015519977 -0.18554437 -0.19246018
0.22327256 -0.24989021 -0.21980128 -0.18878588 -0.17089003 -0.017681599 -0.18433118 0.03333366
-0.15312909 0.14798054 0.089576885 -0.073886335 -0.11612473 -0.19713765 -0.17412262 -0.12332833
-0.04956502 0.10032207 -0.23777224 0.14441869 -0.14643528 -0.093034975 -0.14375558 0.09588675
0.2180472 -0.17492394 -0.1798741 -0.122603536 -0.034904648 0.18555172 0.20956722 0.24711166
-0.18621542 -0.086500056 0.0059768273 -0.10527757 -0.118197106 0.036518693 0.0043141283 -0.06072778
-0.03841075 0.08447798 0.16628176 -0.014841841 -0.012632166 0.12623036 -0.11714081 -0.2668357
-0.03436354 -0.122058995 -0.08032603 0.22301978 0.1276692 -0.25142774 -0.30464986 -0.018684367
-0.18963206 0.06813127 0.10374965 0.18886094 0.21308473 -0.03642916 -0.21691956 -0.06636765
-0.09167067 -0.07216688 -0.085701965 -0.11833031 0.047332767 -0.072270535 -0.14263609 -0.10563541
-0.19964644 0.06378895 0.0053621233 0.02678138 -0.20835522 -0.10401392 0.1527915 -0.20481831
-0.23987776 -0.13108724 -0.15332109 -0.03055039 0.05200249 -0.22759205 0.07305044 -0.24174288
0.12971424 0.16521984 0.10492501 -0.21897238 -0.13277036 -0.090882 0.019862942 0.17411338
0.093845844 -0.09864308 -0.0948925 -0.12561953 -0.090436056 -0.109519765 -0.26007846 -0.05286471
-0.76449126 0.5926156 0.0024508468 -0.25950986 -0.20357414 0.7342541 -0.29383025 0.10081606
0.45261115 -0.692713 -0.10077759 0.13236202 0.118304655 -1.0136316 0.17467116 1.1261303
0.026299294 -0.097573794 0.06233652 -0.101463 0.0020196484 0.067359 0.011481642 0.08652526
-0.15313493 0.046796832 -0.027792403 0.15386082 -0.11158939 -0.11922272 0.13963653 0.06457007
-0.041129913 -0.23862392 -0.01838447 0.046459902 -0.17073058 0.12544589 -0.13144426 -0.09008825
-0.15469867 -0.041169792 0.051091503 0.06730291 0.21172734 0.07699376 0.22425853 -0.09481745
00000000: 6960 dfbd 6f7e 1e3f b13f 903d dfb6 0ebe
00000010: 5b02 403e 9dc5 b2be 6737 96be 40ac 5cbf
00000020: 68d0 fdbd 55bc 8bbf ce41 91bd 9bed 783f
00000030: f858 233e 0b33 35bf b2bd 163e 3c12 dcbf
00000040: b441 ba3c 6ada 143d 1e30 2bbe 0697 66be
00000050: e53a c33d b396 143d d23b bd3d 02fa 4ebd
00000060: 7032 abbd 81f3 76bd 25fd 983d cba2 863e
00000070: e9dc 173e ee06 31be 94a9 8ebe f75b 90be
00000080: b422 40be 5196 babd 5c65 a1bd c7e5 19bd
00000090: 023c 143d 8642 113e 52ad 6fbb b288 3e3d
000000a0: 8674 e03d a646 f6bd 1c2e a5be 2053 d0bd
000000b0: 5187 42be b3bf 143d efff 7abd 8d0c fc3d
000000c0: e2d3 383d 9dd4 c53d eea2 f03d 9db9 f13d
000000d0: 0073 abbd 0a2f 14be 8fbb c63d 77ce 38be
000000e0: bc96 e0bd 9063 193d 9de3 59be 4c95 b3bd
000000f0: 1bdb 63bd 67e5 63be e20c 703c dc46 473e
00000100: db23 43be e484 fbbc dded 1c3e c54b bebe
00000110: 5775 8bbe f8fa 4f3d c284 e33d 6dca 8abd
00000120: 0ec5 2b3e 966e c2bd 6462 ee3d 9246 263d
00000130: 78d0 3fbe f85e 3fbe f2e6 61bd 0181 883e
00000140: 3560 76be dedf bcbd e18d d1bd f5cf 5abd
00000150: 5cd2 1e3e ed08 76bc b8ea 893d 9d6c 113e
00000160: 0974 b8bb 5d20 613e 7be7 27be 4c9e a23d
00000170: 0031 a03d 8d2d 46be b218 27bd 88c2 39be
00000180: 1894 e33d e0e1 47be e879 3fbd e0b6 0ebd
00000190: 28ff d5bd 8047 7e3c 58ff 3dbe 4814 45be
000001a0: 90a1 643e 38e3 7fbe 9613 61be 1651 41be
000001b0: ccfd 2ebe 00d9 90bc 50c1 3cbe e088 083d
000001c0: dfcd 1cbe 3688 173e 1674 b73d b851 97bd
000001d0: cdd2 edbd 74de 49be 334d 32be 9093 fcbd
000001e0: b104 4bbd a875 cd3d 917a 73be 7ee2 133e
000001f0: 21f3 15be 1f89 bebd aa34 13be 4660 c43d
00000200: c447 5f3e 431f 33be eb30 38be 9017 fbbd
00000210: 2df8 0ebd 4501 3e3e ca98 563e d70a 7d3e
00000220: 41af 3ebe f126 b1bd 43d9 c33b c49b d7bd
00000230: 5311 f2bd a094 153d 885d 8d3b b1bd 78bd
00000240: 9754 1dbd cb02 ad3d c445 2a3e 312b 73bc
00000250: 25f7 4ebc 8842 013e 85e7 efbd b09e 88be
00000260: c9c0 0cbd 11fa f9bd f981 a4bd 4c5f 643e
00000270: b7bb 023e 23bb 80be 11fb 9bbe f50f 99bc
00000280: e82e 42be 6888 8b3d b27a d43d c364 413e
00000290: e232 5a3e be36 15bd 2920 5ebe c3eb 87bd
000002a0: d5bd bbbd 3bcc 93bd 8384 afbd 2957 f2bd
000002b0: 01e0 413d 9302 94bd 320f 12be 6157 d8bd
000002c0: 1e70 4cbe c8a3 823d c0b4 af3b a064 db3c
000002d0: 125b 55be 4005 d5bd 6075 1c3e e4bb 51be
000002e0: 84a2 75be bc3b 06be 3400 1dbe d044 fabc
000002f0: 9000 553d e40d 69be 789b 953d 728b 77be
00000300: cfd3 043e 642f 293e ece2 d63d 4c3a 60be
00000310: f4f4 07be 5820 babd 9cb7 a23c c74a 323e
00000320: 4032 c03d 6205 cabd 0057 c2bd 68a2 00be
00000330: 8a36 b9bd e64b e0bd 0129 85be ab88 58bd
00000340: b3b5 43bf a8b5 173f 639e 203b 7ade 84be
00000350: bd75 50be 14f8 3b3f eb70 96be a778 ce3d
00000360: a6bc e73e a455 31bf 7b64 cebd e989 073e
00000370: b649 f23d aebe 81bf ffdc 323e 0a25 903f
00000380: 9e71 d73c c5d4 c7bd 9454 7f3d d5cb cfbd
00000390: 145c 043b 84f3 893d 7f1d 3c3c 2834 b13d
000003a0: 67cf 1cbe 09ae 3f3d e5ac e3bc b18d 1d3e
000003b0: fa88 e4bd 0b2b f4bd e1fc 0e3e 503d 843d
000003c0: d777 28bd d459 74be 079b 96bc bd4c 3e3d
000003d0: ffd3 2ebe e374 003e 5399 06be 3080 b8bd
000003e0: 5469 1ebe a8a1 28bd 5345 513d 1cd6 893d
000003f0: 0dcf 583e e8ae 9d3d 07a4 653e a72f c2bd

fc.0.bias f4 [256]
-0.08294163 -0.06870318 -0.006703644 0.073382065 -0.06632587 0.059753776 0.17032942 -0.056368817
-0.0029954175 0.10765336 0.091633864 -0.06313267 0.102436624 -0.7831733 -0.16440775 -0.05232549
-0.017641198 0.13181743 -0.14545095 -0.067053616 -0.22053054 0.23654348 -0.038902327 -0.27299696
0.109518506 -0.1332814 -0.14514959 0.116952546 0.18511517 -0.15027839 -0.079469316 0.15950371
-0.03351209 -0.057159275 -0.10191221 0.12412125 0.003550649 0.06787261 -0.16128103 -0.0138813825
-0.29949784 -0.01856131 -0.11213423 -0.2825977 0.102578886 0.44067258 -0.24462895 -0.012124274
0.08494558 -0.12637927 0.053520195 -0.16449967 0.158494 -0.2536232 -0.04085872 -0.04199835
0.07639897 -0.19179925 -0.28864452 0.022106176 -0.009864509 0.0009460185 -0.03343789 0.104786634
0.18990892 -0.0018385414 -0.7056582 -0.10164206 0.28900498 -0.14388143 -0.0076178517 -0.09194732
0.16694728 -0.1811215 0.08706271 -0.039407797 -0.2480638 -0.1831446 -0.17894088 0.08352326
-0.120254725 0.057419658 -0.22529915 -0.138895 0.059449635 -0.22896011 0.086720936 -0.010092491
-0.06122058 -0.08389606 -0.16020977 0.04029146 -0.24061087 -0.13646145 -0.21630487 -0.1644348
-0.19423115 -0.15222153 -0.22463939 0.13800068 -0.1927376 0.14283107 -0.177333 0.028107937
-0.17772722 -0.05178808 -0.104136206 0.095294654 0.09499541 -0.22748551 -0.056891367 -0.16744038
0.03756212 -0.25230938 0.047184043 0.08515321 -0.16363817 -0.1025897 -0.31016243 -0.20646398
-0.06647709 0.09634616 0.18420108 -0.24970278 0.06422455 0.10175778 0.04129661 0.085931726
-0.009742588 -0.16195217 -0.27591178 -0.031772852 -0.091349974 -0.26428738 -0.3340842 -0.21723491
0.08575727 -0.15961045 0.23103556 0.030125368 -0.2148943 -0.10413957 -0.22163126 0.10333902
-0.06169522 0.13491334 -0.067158766 0.003733851 -0.04298779 -0.13611895 -0.1458542 -0.0076240445
-0.19178788 -0.1903034 -0.15377851 -0.06288384 -0.17650522 0.06758241 0.07428247 0.031069102
-0.46546325 -0.11893759 -0.04427932 0.16065171 -0.24024725 0.089425676 0.15075502 -0.16396338
-0.14471957 0.18772303 -0.22037643 -0.065962836 0.017371468 -0.06931722 0.22316323 -0.18938932
-0.22213645 -0.83980966 0.13613158 -0.22222298 -0.23221192 0.11124185 -0.16999781 -0.150377
-0.010176496 -0.82489663 0.015059394 -0.3485028 -0.057129502 0.19538596 -0.29040614 -0.14050162
1.0794196 0.118265584 -0.10910876 0.0013441474 -0.029304057 -0.2338486 -0.14781284 0.10526348
-0.058932763 -0.09210444 -0.1425278 0.068940915 0.07732481 -0.13302587 -0.12728253 -0.14225103
0.052834336 0.08213902 -0.21299681 -0.07884575 -0.17924748 -0.16988 -0.9012471 0.13567454
-0.22058342 -0.01984933 -0.301243 -0.16640362 -0.19112685 -0.15794174 -0.010195223 0.13817778
-0.17551644 -0.116533525 0.10325023 -0.16496992 -0.16951409 -0.13772503 -0.13740832 -0.08522587
0.14147177 -0.14991568 -0.07109998 -0.20774272 -0.06644797 -0.19071269 0.0815756 0.013462419
0.12727253 -0.12861452 0.016095165 -0.000442151 -0.23240913 0.021193286 -0.26760626 0.023465184
0.075666964 0.1931606 -0.20066324 -0.07516841 -0.01369512 0.05465689 -0.14136302 0.025991267
00000000: 4ddd a9bd 41b4 8cbd 3eaa dbbb 5649 963d
00000010: dcd5 87bd 60c0 743d d66a 2e3e fde2 66bd
00000020: c44e 44bb 5d79 dc3d 89aa bb3d b44b 81bd
00000030: 4bca d13d 0c7e 48bf 815a 28be 4153 56bd
00000040: 4684 90bc 26fb 063e 18f1 14be 6853 89bd
00000050: c2d2 61be 7438 723e 0c58 1fbd 42c6 8bbe
00000060: 3d4b e03d eb7a 08be 18a2 14be d184 ef3d
00000070: d58e 3d3e 94e2 19be cfc0 a2bd f154 233e
00000080: f943 09bd d81f 6abd 59b7 d0bd 4833 fe3d
00000090: 01b2 683b cc00 8b3d db26 25be bd6e 63bc
000000a0: c857 99be e30d 98bc a2a6 e5bd a5b0 90be
000000b0: e114 d23d d69f e13e 0380 7abe e4a4 46bc
000000c0: f3f7 ad3d 9169 01be fe37 5b3d 9a72 28be
000000d0: 404c 223e e6da 81be 795b 27bd 7606 2cbd
000000e0: 1077 9c3d 0667 44be 37c9 93be 0318 b53c
000000f0: c09e 21bc 3afe 773a 2bf6 08bd 609a d63d
00000100: 7c77 423e 36fb f0ba 04a6 34bf b629 d0bd
00000110: 76f8 933e a755 13be 2c9f f9bb e04e bcbd
00000120: 3af4 2a3e ea77 39be ef4d b23d 126a 21bd
00000130: 7004 7ebe 428a 3bbe 473c 37be 3e0e ab3d
00000140: 1c48 f6bd e030 6b3d d2b4 66be 7e3a 0ebe
00000150: 7681 733d 8574 6abe bf9a b13d fa5a 25bc
00000160: 6ec2 7abd b3d1 abbd 080e 24be a808 253d
00000170: b262 76be 8dbc 0bbe 067f 5dbe 9961 28be
00000180: 88e4 46be f6df 1bbe de07 66be 0d50 0d3e
00000190: 015d 45be 4f42 123e c896 35be 9e42 e63c
000001a0: 20fe 35be bd1f 54bd 5d45 d5bd d829 c33d
000001b0: f48c c23d f6f1 68be ec06 69bd 7e75 2bbe
000001c0: bdda 193d b22e 81be 0e44 413d ce64 ae3d
000001d0: c490 27be 8c1a d2bd 9ccd 9ebe 4b6b 53be
000001e0: 2425 88bd 2351 c53d 359f 3c3e 16b2 7fbe
000001f0: 2988 833d 6266 d03d a226 293d f9fc af3d
00000200: 609f 1fbc cad6 25be 4f44 8dbe 4024 02bd
00000210: b215 bbbd ad50 87be 160d abbe d472 5ebe
00000220: 82a1 af3d ec70 23be 9694 6c3e 7ac9 f63c
00000230: 400d 5cbe 2047 d5bd 4ef3 62be 68a3 d33d
00000240: 21b4 7cbd b926 0a3e 898a 89bd a0b3 743b
00000250: f713 30bd c462 0bbe ce5a 15be 1fd3 f9bb
00000260: 0b64 44be e5de 42be 1d78 1dbe 3ec9 80bd
00000270: c9bd 34be a668 8a3d 6821 983d a184 fe3c
00000280: 3351 eebe 8d95 f3bd 3b5e 35bd e281 243e
00000290: 6003 76be cf24 b73d 865f 1a3e 04e6 27be
000002a0: 5e31 14be 773a 403e 5caa 61be 8617 87bd
000002b0: 9c4e 8e3c 30f6 8dbd e784 643e 46ef 41be
000002c0: bd77 63be c4fd 56bf 1466 0b3e 6c8e 63be
000002d0: f6c8 6dbe c4d2 e33d e813 2ebe 6efc 19be
000002e0: 51bb 26bc 6d2c 53bf adbb 763c f66e b2be
000002f0: a000 6abd 4213 483e 1db0 94be a8df 0fbe
00000300: 6c2a 8a3f 3a35 f23d 6a74 dfbd 1a2e b03a
00000310: 100f f0bc 0276 6fbe 405c 17be 6194 d73d
00000320: 7b63 71bd 41a1 bcbd cff2 11be e530 8d3d
00000330: 785c 9e3d ef37 08be 5a56 02be 41aa 11be
00000340: d168 583d 8138 a83d d61b 5abe e179 a1bd
00000350: a78c 37be 06f5 2dbe 21b8 66bf 44ee 0a3e
00000360: 9fe0 61be 109b a2bc 863c 9abe b665 2abe
00000370: c2b6 43be 7bbb 21be dd09 27bc 7a7e 0d3e
00000380: 95ba 33be 21a9 eebd db74 d33d e0ed 28be
00000390: 1a95 2dbe ca07 0dbe c4b4 0cbe e78a aebd
000003a0: fadd 103e 7f83 19be de9c 91bd 82ba 54be
000003b0: e015 88bd 304a 43be 1c11 a73d 7a91 5c3c
000003c0: bb53 023e 86b3 03be 02da 833c 81d0 e7b9
000003d0: a9fc 6dbe 8b9d ad3c b003 89be 0f3a c03c
000003e0: 48f7 9a3d e4cb 453e aa7a 4dbe e5f1 99bd
000003f0: 7f61 60bc e7df 5f3d 78c1 10be a3eb d43c

fc.2.weight f4 [128, 256]
0.06185764 -0.015346844 -0.052746147 0.012866416 0.028606191 0.014786503 -0.05227053 0.0070187226
-0.010916767 -0.0063772635 -0.0043101963 -0.018046193 0.014899708 -0.048326902 -0.018928628 -0.052300118
0.0168515 -0.036677267 -0.052424587 -0.032827497 -0.0040547624 -0.050050177 -0.038710378 -0.03467468
0.028206894 0.062477827 -0.013084479 0.018101774 0.01647564 0.060438804 0.006045684 -0.05060626
0.071581565 0.010483116 0.037524607 0.03128671 -0.046276234 0.021407343 -0.055695746 0.06383475
-0.022024482 -0.062214855 -0.083257556 -0.007663663 -0.00628908 -0.035704754 0.021125982 0.060428977
0.05404654 0.022257144 -0.10133397 -0.03816896 -0.013306516 -0.09018711 -0.058115356 0.039186925
0.02155908 -0.007445925 0.07866965 0.042485498 0.057036318 0.027612928 -0.029148467 0.0035552164
-0.04775215 -0.07675513 0.007731475 0.014050239 -0.016375488 -0.0075874366 0.039412707 0.022903174
-0.04339821 -0.015122536 0.011672636 0.015860349 0.0150167495 -0.0006528795 -0.0374959 -0.044837233
-0.021011122 0.006933093 0.01590161 -0.028117975 -0.04034374 -0.06379468 -0.08370598 0.00012761354
0.011840732 -0.017279765 0.031974144 -0.04262475 0.061539482 -0.044618413 -0.048588842 -0.074787535
0.05231009 -0.040622376 0.002637931 -0.0066061746 -0.022843461 0.01731753 -0.036976613 -0.056181774
-0.004532635 -0.073428996 -0.02254565 0.006748466 -0.012971673 -0.0025986596 -0.0748828 -0.04382937
-0.054539774 -0.0045524044 0.07052318 0.008627819 -0.07916171 -0.0126683945 0.0041381037 0.0063192155
-0.03803083 -0.023275966 0.020378366 0.0132682845 0.011568439 -0.04642582 -0.04614753 0.028343681
0.02370891 -0.024409331 0.043449085 -0.06480085 -0.07314278 -0.029970806 -0.07691034 -0.007639575
-0.04543605 -0.031258315 0.059273407 -0.052577887 -0.017202325 -0.027876586 0.012362552 -0.050409637
-0.050279077 -0.046629634 -0.052988924 -0.06356498 -0.04285636 -0.022927921 -0.03142497 -0.048536938
0.008676761 0.012148491 0.020767173 -0.023771241 -0.095128685 -0.03381484 -0.054183014 0.011309737
0.01990746 -0.040756576 -0.036783498 -0.061734483 0.023624793 0.047015343 -0.047171794 -0.013976522
-0.017326396 -0.041497055 -0.08903123 0.020780057 -0.054256827 -0.066148914 0.03341901 -0.017270412
-0.09113623 0.013638441 -0.06250945 0.039177634 -0.0117549375 -0.058852695 0.039663225 -0.041145295
0.013897928 -0.07356697 0.0061072214 -0.023372874 0.045478232 0.010951497 0.04058567 -0.057904802
-0.0031174747 0.05405073 0.06756129 -0.016938128 -0.024026839 -0.108412705 0.03925392 -0.0116795935
0.036545344 0.022505596 0.0027138353 -0.0652941 0.048288867 -0.016806347 -0.09857338 -0.05752618
0.02027334 0.051917996 0.030351467 0.037916828 -0.032295026 -0.016939772 0.013755875 -0.022173785
-0.044123977 -0.035209455 0.00029441706 0.0015467658 -0.06089124 -0.04604078 -0.071069404 -0.015844833
-0.022600222 -0.021101853 -0.04983625 -0.035086397 0.03709514 -0.04471553 -0.007736047 -0.030242838
-0.06831995 -0.0024781667 -0.099896535 0.06372265 -0.010407612 -0.041025713 -0.0024505504 0.021213725
0.001962445 -0.0060062036 -0.024507672 0.023941176 0.048306715 -0.03290605 -0.01565972 -0.030311257
-0.01039753 -0.09548968 -0.037221808 -0.036454044 -0.0636631 -0.11072443 -0.03771277 -0.09170146
00000000: 705e 7d3d 5471 7bbc 580c 58bd a9cd 523c
00000010: 8857 ea3c 1743 723c a019 56bd 50fd e53b
00000020: 3ddc 32bc 5df8 d0bb 8c3c 8dbb 9cd5 93bc
00000030: e81d 743c 6ef2 45bd 3610 9bbc a638 56bd
00000040: 280c 8a3c e73a 16bd 2abb 56bd 2076 06bd
00000050: d0dd 84bb 6a01 4dbd c68e 1ebd 0a07 0ebd
00000060: 2512 e73c c0e8 7f3d 4860 56bc 2c4a 943c
00000070: ecf7 863c ae8e 773d e01a c63b 8248 4fbd
00000080: 5b99 923d 60c1 2b3c 67b3 193d 7e26 003d
00000090: 268c 3dbd 745e af3c 3921 64bd cbbb 823d
000000a0: b06c b4bc 01d5 7ebd f082 aabd 771f fbbb
000000b0: a014 cebb 263f 12bd 6510 ad3c 6084 773d
000000c0: e85f 5d3d 9d54 b63c 2f88 cfbd 0e57 1cbd
000000d0: 9303 5abc 05b4 b8bd 5e0a 6ebd 7882 203d
000000e0: ab9c b03c f2fc f3bb 8e1d a13d 4605 2e3d
000000f0: ea9e 693d 8234 e23c c4c8 eebc a2fe 683b
00000100: c297 43bd cb31 9dbd 5058 fd3b f932 663c
00000110: e325 86bc 08a0 f8bb 386f 213d 709f bb3c
00000120: 52c2 31bd 83c4 77bc 953e 3f3c 90ed 813c
00000130: d008 763c 0026 2bba 4d95 19bd 3fa7 37bd
00000140: 841f acbc 002f e33b 1844 823c ab57 e6bc
00000150: 7a3f 25bd c9a6 82bd 0a6e abbd 00d0 0539
00000160: a1ff 413c 4b8e 8dbc 52f7 023d 4a97 2ebd
00000170: d310 7c3d ccc1 36bd 1805 47bd 352a 99bd
00000180: 1b43 563d a663 26bd 23e1 2c3b 9c78 d8bb
00000190: 3622 bbbc 7edd 8d3c ca74 17bd dc1e 66bd
000001a0: 8086 94bb f161 96bd a8b1 b8bc 3c22 dd3b
000001b0: 2487 54bc 464e 2abb 275c 99bd 6d86 33bd
000001c0: 1965 5fbd 562c 95bb 756e 903d b25b 0d3c
000001d0: 891f a2bd 198f 4fbc ee98 873b 6c11 cf3b
000001e0: 37c6 1bbd 3dad bebc 88f0 a63c 3863 593c
000001f0: 8d89 3d3c 0029 3ebd 3105 3dbd 0231 e83c
00000200: 3039 c23c 14f6 c7bc abf7 313d 4fb6 84bd
00000210: e2cb 95bd 5685 f5bc 2b83 9dbd 6655 fabb
00000220: 271b 3abd b808 00bd acc8 723d e95b 57bd
00000230: e4eb 8cbc 705d e4bc 4d8c 4a3c 567a 4ebd
00000240: 6ff1 4dbd b7fe 3ebd ea0a 59bd 5b2e 82bd
00000250: 278a 2fbd 56d3 bbbc 78b7 00bd abce 46bd
00000260: f928 0e3c 770a 473c eb1f aa3c e8bb c2bc
00000270: d4d2 c2bd 6e81 0abd 02ef 5dbd 7a4c 393c
00000280: f814 a33c 5ef0 26bd 4baa 16bd 4cdd 7cbd
00000290: c888 c13c 2993 403d 3637 41bd c8fd 64bc
000002a0: 16f0 8dbc d1f8 29bd 0156 b6bd f03a aa3c
000002b0: 683c 5ebd 1579 87bd 5fe2 083d ae7a 8dbc
000002c0: a2a5 babd c573 5f3c f404 80bd ba78 203d
000002d0: c897 40bc 860f 71bd e875 223d f887 28bd
000002e0: 23b4 633c 48aa 96bd 161f c83b 7878 bfbc
000002f0: 6247 3a3d e86d 333c 293d 263d 962d 6dbd
00000300: 8c4e 4cbb 4c64 5d3d 935d 8a3d d4c1 8abc
00000310: efd3 c4bc 7b07 debd b8c8 203d c45b 3fbc
00000320: 92b0 153d a85d b83c 9ada 313b eab8 85bd
00000330: 8cca 453d 77ad 89bc d7e0 c9bd 92a0 6bbd
00000340: 4714 a63c f7a7 543d a4a3 f83c ad4e 1b3d
00000350: ca47 04bd 47c5 8abc 5260 613c cca5 b5bc
00000360: 58bb 34bd ca37 10bd fd5b 9a39 d9bc ca3a
00000370: 1869 79bd 4295 3cbd d68c 91bd 06cd 81bc
00000380: 1a24 b9bc cbdd acbc 1821 4cbd c1b6 0fbd
00000390: 13f1 173d a227 37bd aa7e fdbb d4bf f7bc
000003a0: 54eb 8bbd bd68 22bb 8e96 ccbd 0581 823d
000003b0: b084 2abc 940a 28bd 6a99 20bb 68c8 ad3c
000003c0: 5d9c 003b b0cf c4bb 50c4 c8bc 4920 c43c
000003d0: 43dd 453d 7fc8 06bd d048 80bc 504f f8bc
000003e0: 675a 2abc 1890 c3bd e575 18bd d650 15bd
000003f0: cd61 82bd 7dc3 e2bd b578 1abd facd bbbd

fc.2.bias f4 [128]
-0.0758947 -0.120247185 -0.08274646 -0.15438919 -0.4530184 -0.44045728 -0.044292387 -0.086855255
-0.31676808 -0.09321433 -0.08122783 0.1818985 -0.244287 -0.07159112 -0.2683917 -0.0999985
-0.3962466 -0.069048315 -0.07647387 -0.0766216 -0.5894827 -0.02229062 -0.15672691 -0.13248408
-0.027825013 -0.09580121 -0.13370977 -0.036039777 -0.08182134 -0.1155568 -0.10907239 -0.10130329
-0.10639762 -0.087682255 -0.28899294 -0.03553945 0.522217 -0.6187709 -0.05665774 -0.09119771
0.13161996 -0.19255373 -0.07764802 -0.049296785 -0.080113396 0.034286477 -0.029817462 -0.0957657
-0.06830351 -0.040281404 -0.06017288 -0.085843235 -0.08087562 -0.12842485 -0.024158163 0.43052262
-0.029212879 -0.019696364 -0.09023076 0.1684196 -0.05071298 -0.16211206 -0.42005375 -0.22990628
0.33134302 -0.090948366 -0.060204152 -0.048740875 -0.3438139 -0.07406175 -0.051749647 -0.039250646
-0.039727654 -0.27230763 -0.34288013 0.46163598 -0.041804597 -0.19063179 -0.35717943 -0.014002806
0.28681073 -0.2603311 -0.2355295 -0.07145484 -0.09696532 -0.44827694 0.012557101 -0.027506828
-0.046407536 -0.05470345 -0.41052684 -0.072875805 0.56036264 -1.1644322 -0.07774342 0.323825
-0.11203707 -0.62012476 -0.52055824 -0.064466864 -1.1542246 -0.0731995 -2.158692 -0.029379401
-0.32048395 0.51324284 -0.9831965 -0.056850687 -0.16811635 -0.055888556 0.15690598 -0.3271522
0.1695141 -0.0726391 -0.036133528 -0.07627525 -0.061867483 -0.33178312 0.14843085 -0.04112037
-0.06877075 -0.06089201 -0.051658634 -0.10712443 -0.110564284 -0.03831404 -0.9905783 -0.47275203
00000000: ae6e 9bbd 2844 f6bd fa76 a9bd 3318 1ebe
00000010: 07f2 e7be 9e83 e1be ef6b 35bd 2be1 b1bd
00000020: 6d2f a2be 28e7 bebd c75a a6bd 9a43 3a3e
00000030: 5f26 7abe 5d9e 92bd a36a 89be 03cc ccbd
00000040: d6e0 cabe 3469 8dbd 559e 9cbd c9eb 9cbd
00000050: 57e8 16bf d19a b6bc 057d 20be e8a9 07be
00000060: 48f1 e3bc 6d33 c4bd 37eb 08be 729e 13bd
00000070: f291 a7bd 0ba9 ecbd 5861 dfbd 1978 cfbd
00000080: ffe6 d9bd c192 b3bd e2f6 93be d091 11bd
00000090: 03b0 053f c567 1ebf f211 68bd ddc5 babd
000000a0: 62c7 063e ce2c 45be ed05 9fbd 6deb 49bd
000000b0: 7e12 a4bd fa6f 0c3d c043 f4bc cf20 c4bd
000000c0: b6e2 8bbd 1dfe 24bd d677 76bd 94ce afbd
000000d0: 1ea2 a5bd ce81 03be 57e7 c5bc 766d dc3e
000000e0: d94f efbc 455a a1bc e8ca b8bd 3076 2c3e
000000f0: 6ab8 4fbd b400 26be 4911 d7be 8d6c 6bbe
00000100: cba5 a93e 2343 babd a198 76bd 83a4 47bd
00000110: 6008 b0be b0ad 97bd 70f7 53bd 49c5 20bd
00000120: 77b9 22bd e86b 8bbe fc8d afbe 8d5b ec3e
00000130: 4c3b 2bbd fb34 43be 39e0 b6be 066c 65bc
00000140: dbd8 923e 1e4a 85be a52e 71be ea56 92bd
00000150: c195 c6bd 8e84 e5be 4dbc 4d3c 0056 e1bc
00000160: d415 3ebd ba10 60bd 9330 d2be e93f 95bd
00000170: ed73 0f3f 1d0c 95bf f137 9fbd 64cc a53e
00000180: b173 e5bd 7fc0 1ebf 4e43 05bf 3407 84bd
00000190: a2bd 93bf 9fe9 95bd 0228 0ac0 12ad f0bc
000001a0: 7916 a4be e263 033f c4b2 7bbf 44dc 68bd
000001b0: b126 2cbe 66eb 64bd f6ab 203e 7e80 a7be
000001c0: 1b95 2d3e cfc3 94bd c000 14bd 3336 9cbd
000001d0: c268 7dbd 7adf a9be 42fe 173e d56d 28bd
000001e0: aed7 8cbd e669 79bd 0198 53bd 0e64 dbbd
000001f0: 876f e2bd 2fef 1cbd 8a96 7dbf 8e0c f2be

fc.4.weight f4 [64, 128]
0.022457056 -0.04999852 -0.03406812 0.06730146 -0.034750994 0.03677895 -0.04859442 0.024561137
-0.08286085 0.03397879 0.083441384 -0.0016723957 -0.0017635601 -0.023872256 -0.0281762 0.02983223
-0.009915258 0.010229103 0.006254628 0.07329754 0.04512265 0.083223976 -0.06500423 -0.051467612
-0.029787485 0.066978835 -0.014502312 0.05203802 -0.012064226 -0.111306064 -0.015071407 0.073624246
0.003614664 0.052169956 -0.045947544 0.078925945 -0.061109103 0.004526563 -0.0064901114 -0.06219288
-0.030597523 0.06532309 0.010025851 -0.027963243 -0.038939852 0.059334822 0.011755444 0.053476997
-0.018963834 -0.08423065 0.08722264 -0.01407747 0.06678242 0.010642514 -0.015825152 -0.100124344
0.058649622 0.03192492 -0.06281377 0.06410181 -0.06890958 0.018311122 -0.079949506 -0.0015740991
0.02859044 0.07084612 -0.06975821 0.004456088 0.036449365 -0.045430213 0.03583125 -0.07193798
0.037949704 0.040515013 0.013972115 0.0083813965 -0.06113221 0.049058147 0.029832257 -0.08714499
0.037369695 0.020206556 -0.09082539 0.010746986 0.033820465 -0.029583495 0.021175258 0.033276245
-0.0310882 -0.047672078 -0.029755462 -0.038230248 0.018364614 0.05800334 0.040370606 -0.047732748
-0.0078103244 -0.057871792 -0.082235456 -0.08569877 -0.07418027 0.06264999 -0.08554556 -0.04790004
-0.09379656 0.04851634 -0.05194267 0.0682899 -0.011749123 -0.0386846 0.0014618188 0.0849782
-0.046254236 0.010973923 0.071312614 0.00572858 -0.027785279 -0.09022419 -0.049211174 -0.07601203
-0.0142353345 -0.046801895 0.05450394 0.042629234 0.008742563 -0.04487812 -0.06160137 0.054792248
0.07011625 5.9880316e-05 -0.038787887 -0.031331822 -0.07516074 -0.004597799 -0.023404833 -0.07455645
0.0763372 0.056889154 0.043607153 0.03213005 0.012148256 0.026680008 0.0061647324 -0.016136749
-0.023348188 -0.016832106 -0.00569223 -0.025227144 0.021972498 0.07799522 0.0040286863 -0.08877048
0.040863506 0.09333303 -0.11926422 0.003938346 0.024041826 0.019892402 -0.009990813 0.011004568
0.04168486 0.040803455 0.024760354 -0.029591922 -0.024557408 0.007830344 0.048451595 0.039832167
-0.03644689 -0.10638317 -0.0717582 -0.03938114 -0.0012167575 -0.099016696 0.029237993 -0.04409578
-0.015225509 -0.054974373 0.06914794 -0.045856643 -0.012608081 -0.07452066 -0.09541497 0.0033089283
0.026599275 0.009213589 -0.048789337 0.013143021 0.015571634 -0.06980472 0.022704331 -0.014992637
0.039087422 0.059646625 0.084599264 -0.016329082 -0.051580388 -0.020694686 0.016881868 0.07034577
0.009490609 0.008430619 -0.06544386 -0.046496317 0.037031226 -0.10133487 -0.120026626 -0.04711068
-0.0514901 -0.04888135 0.033372365 0.033634596 0.039038975 -0.08695736 -0.08833602 0.024842843
0.033459585 0.017732209 0.025854044 -0.06148418 -0.11190305 0.014912792 0.019059435 -0.011873771
-0.0069253026 0.05110081 -0.036879495 0.059338503 -0.055633973 -0.087236315 0.004611592 -0.025289804
-0.12256077 -0.084494896 -0.107164286 -0.04297282 -0.13243836 0.032194607 -0.0217532 -0.10399836
0.0039441995 -0.12366707 -0.084327035 -0.07850097 -0.00035125017 0.048444275 0.07380635 -0.004382325
-0.056422375 -0.082336575 -0.045899138 0.069118075 -0.07869688 -0.08480597 -0.0881742 -0.056723427
00000000: dcf7 b73c 40cb 4cbd 038b 0bbd 59d5 893d
00000010: 0f57 0ebd 86a5 163d f10a 47bd 7034 c93c
00000020: f3b2 a9bd 582d 0b3d 51e3 aa3d 4a34 dbba
00000030: 4227 e7ba c08f c3bc c6d1 e6bc b962 f43c
00000040: 9b73 22bc f897 273c 9ff3 cc3b 051d 963d
00000050: 87d2 383d 5571 aa3d f020 85bd b4cf 52bd
00000060: e204 f4bc 332c 893d 1b9b 6dbc d225 553d
00000070: 08a9 45bc 6ff4 e3bd 10ee 76bc 4fc8 963d
00000080: 00e4 6c3b 2ab0 553d 7e33 3cbd eda3 a13d
00000090: 8a4d 7abd 9053 943b 00ab d4bb f6bd 7ebd
000000a0: a8a7 fabc 1dc8 853d 7843 243c 2c13 e5bc
000000b0: 657f 1fbd 1209 733d e899 403c b20a 5b3d
000000c0: 0b5a 9bbc 1e81 acbd c9a1 b23d 30a5 66bc
000000d0: 39c5 883d f05d 2e3c c0a3 81bc fe0d cdbd
000000e0: 963a 703d b4c3 023d 81a4 80bd cf47 833d
000000f0: 7720 8dbd 3501 963c 91bc a3bd 0052 ceba
00000100: 8036 ea3c c517 913d 64dd 8ebd 6004 923b
00000110: ee4b 153d 0815 3abd cac3 123d 3854 93bd
00000120: 2671 1b3d 12f3 253d 4ceb 643c 2052 093c
00000130: c565 7abd 32f1 483d c762 f43c 1379 b2bd
00000140: f710 193d 3888 a53c a902 babd 2014 303c
00000150: 5487 0a3d 1659 f2bc bc77 ad3c ac4c 083d
00000160: aeac febc cc43 43bd bac1 f3bc 5297 1cbd
00000170: 6371 963c e994 6d3d a65b 253d 6a83 43bd
00000180: c0ed ffbb f90a 6dbd 106b a8bd d682 afbd
00000190: d3eb 97bd a34e 803d 8332 afbd d532 44bd
000001a0: 6918 c0bd 12b9 463d d6c1 54bd 93db 8b3d
000001b0: 657f 40bc be73 1ebd 809a bf3a 0d09 ae3d
000001c0: 1575 3dbd f8cb 333c 590c 923d d0b6 bb3b
000001d0: f49d e3bc 76c7 b8bd a891 49bd 32ac 9bbd
000001e0: 523b 69bc 58b3 3fbd 863f 5f3d fe9b 2e3d
000001f0: f83c 0f3c 1fd2 37bd b851 7cbd d66d 603d
00000200: 1c99 8f3d 0028 7b38 0ce0 1ebd cc55 00bd
00000210: e0ed 99bd 22a9 96bb 7ebb bfbc 0db1 98bd
00000220: ae56 9c3d 9a04 693d 6a9d 323d cd9a 033d
00000230: 7b09 473c 0890 da3c 8601 ca3b 3731 84bc
00000240: b344 bfbc 7ce3 89bc e385 babb 28a9 cebc
00000250: abff b33c f5bb 9f3d 1203 843b 4ccd b5bd
00000260: 7e60 273d 6325 bf3d cd40 f4bd 3e0d 813b
00000270: 5df3 c43c 64f5 a23c 82b0 23bc 814c 343c
00000280: bebd 2a3d 8621 273d 3ad6 ca3c c26a f2bc
00000290: 9e2c c9bc d84a 003c 2e75 463d 0e27 233d
000002a0: 5649 15bd 6bdf d9bd f7f5 92bd 1e4e 21bd
000002b0: 9b7b 9fba 44c9 cabd 8484 ef3c c79d 34bd
000002c0: 6a74 79bc cf2c 61bd 6f9d 8d3d 2dd4 3bbd
000002d0: 2092 4ebc 4a9e 98bd ec68 c3bd 9bda 583b
000002e0: b9e6 d93c 98f4 163c 54d7 47bd d355 573c
000002f0: 2b20 7f3c c7f5 8ebd 6ffe b93c ada3 75bc
00000300: 221a 203d 0550 743d 6142 ad3d 91c4 85bc
00000310: f545 53bd e787 a9bc d84b 8a3c 7111 903d
00000320: 807e 1b3c 9420 0a3c 6e07 86bd ec72 3ebd
00000330: 0eae 173d a888 cfbd 85d0 f5bd 21f7 40bd
00000340: 48e7 52bd cf37 48bd 76b1 083d 6ec4 093d
00000350: 55e7 1f3d b316 b2bd 84e9 b4bd 3883 cb3c
00000360: eb0c 093d 2343 913c dccb d33c d6d6 7bbd
00000370: 6d2d e5bd c854 743c 8822 9c3c 358a 42bc
00000380: a6ed e2bb 154f 513d f40e 17bd ee0c 733d
00000390: 73e0 63bd f4a8 b2bd d61c 973b 902c cfbc
000003a0: 2401 fbbd a90b adbd f378 dbbd 4504 30bd
000003b0: ec9d 07be 7ede 033d c433 b2bc 18fd d4bd
000003c0: 583e 813b 2945 fdbd a7b3 acbd 1ec5 a0bd
000003d0: 0028 b8b9 816d 463d c927 973d 9b99 8fbb
000003e0: 261b 67bd 14a0 a8bd bc00 3cbd c78d 8d3d
000003f0: d42b a1bd c1ae adbd ad94 b4bd d356 68bd

fc.4.bias f4 [64]
-0.16050358 -0.085215665 -0.06974315 -0.030901209 -0.050639007 -0.09913043 -0.096145675 0.5542262
-0.40390632 -0.08777881 0.07684456 -0.074242815 -0.025258545 -0.113578975 -0.052300896 -0.09801445
-0.07405916 -0.079398625 -0.034467902 -0.12903897 -0.13175324 -0.11272149 -0.050419852 -0.040275723
0.3501068 -0.777391 -0.11493019 -0.004285611 -0.12020059 -0.025079299 0.5677877 -0.07113588
-0.04572068 -0.033031646 -0.032815777 0.11616495 -0.05202308 -0.08203488 -0.08066126 0.0037010217
-0.10336841 0.465768 -0.11663733 0.03753177 -0.12135151 -0.086075686 -0.117977455 -0.063619375
1.1433293 -0.26944277 -0.0953152 -0.028608676 -0.09206455 -0.036155265 -0.059818123 -0.0033283816
-0.0070280284 0.24982172 -0.003123567 -0.08770733 -0.08265725 -0.1156735 -0.61896986 -0.08966669
00000000: 0d5b 24be 8d85 aebd 7fd5 8ebd 8824 fdbc
00000010: d96a 4fbd e504 cbbd 06e8 c4bd c5e1 0d3f
00000020: cfcc cebe 60c5 b3bd ae60 9d3d 9e0c 98bd
00000030: 02eb cebc 189c e8bd 7739 56bd cdbb c8bd
00000040: 54ac 97bd bf9b a2bd 372e 0dbd cb22 04be
00000050: 52ea 06be 86da e6bd 0c85 4ebd 28f8 24bd
00000060: 3341 b33e 1903 47bf 8560 ebbd 506e 8cbb
00000070: ba2b f6bd 1a73 cdbc 895a 113f b0af 91bd
00000080: 9c45 3bbd 314c 07bd d669 06bd e4e7 ed3d
00000090: 2716 55bd e701 a8bd bb31 a5bd d78c 723b
000000a0: d1b2 d3bd 2579 ee3e 8ddf eebd eaba 193d
000000b0: 2487 f8bd 7348 b0bd 2a9e f1bd e04a 82bd
000000c0: 9d58 923f 67f4 89be 9e34 c3bd be5c eabc
000000d0: 578c bcbd 8b17 14bd d903 75bd fa20 5abb
000000e0: 604b e6bb 44d1 7f3e c2b4 4cbb e79f b3bd
000000f0: 3448 a9bd 3ae6 ecbd cf74 1ebf 2ba3 b7bd

fc.6.weight f4 [4, 64]
0.024885898 0.052188445 -0.120694056 -0.041113455 -0.03716424 0.05684126 0.007382231 -0.016187293
-0.03684899 0.057524316 -0.11350949 0.10597455 0.063014075 -0.045682155 0.016983077 0.01784217
0.0618983 -0.09125408 0.0121486215 0.017180527 0.050263 0.002072399 -0.011445864 -0.024334945
-0.009201297 0.00068023347 0.032842487 -0.007464424 0.16385664 0.09250827 0.34263915 -0.092024066
0.076360665 0.015165191 -0.024061203 0.3284812 -0.033725105 0.08450909 -0.039304387 -0.14689788
-0.006717873 -0.039066665 -0.014923725 -0.25443253 -0.011318386 -0.056520324 -0.008875604 -0.10755265
0.6250828 0.010715272 0.010622281 -0.038420077 0.059097324 -0.095029786 -0.018840501 0.32478255
0.035416212 0.10292872 -0.07528101 0.02217375 -0.04682968 -0.046857562 -0.0035035636 -0.08920568
0.068172224 -0.013589555 0.030820912 -0.1278404 -0.016894616 -0.13493747 0.022394635 -0.005069226
-0.020041216 -0.021026637 -0.021725558 0.0476426 -0.035723645 0.015818734 0.020387096 0.024787884
0.050408587 0.06557544 -0.05391778 0.11398383 0.05089241 -0.115948394 -0.06516842 0.1263729
0.014587328 -0.001064642 -0.010714226 0.09553737 -0.015205735 0.017599257 0.001055832 0.01623498
-0.031925686 -0.010569893 -0.037088778 0.04726338 -0.016572423 0.002812068 -0.018981935 0.07206042
0.03317277 -0.007679529 -0.08014533 0.04207281 0.12661338 0.013646667 0.010051052 -0.08799565
-0.8518684 -0.00866622 -0.015931522 -0.089834355 0.04325422 -0.0862966 -0.017048659 0.2703387
-0.013368674 0.030429289 -0.013874228 -0.0018049048 0.08133052 0.066779 -0.032335456 0.073133014
-0.09502048 -0.020102356 -0.054616913 -0.040926572 -0.056706037 0.04110265 -0.018037736 -0.0013641436
0.008892532 0.013341114 0.03037493 -0.031656872 -0.049661536 0.058927257 -0.025823876 -0.047720153
0.034089386 0.024820916 -0.04459873 0.10656645 0.07471189 -0.019544205 0.066287585 -0.027026372
-0.022729717 0.00070315023 0.018162053 -0.03153744 0.48388627 0.040300388 0.0027901437 0.07039262
-0.060853582 0.011446726 -0.032309115 -0.020043038 -0.02984832 -0.01622322 0.012869883 -0.01766166
0.013792835 0.002037514 0.051333968 0.664401 -0.029286366 -0.009770535 -0.025663204 0.054391336
0.39614627 0.013037482 -0.06275861 -0.0026182253 0.0389516 -0.032076724 0.0068523274 -0.07187622
0.021280253 -0.10589818 0.012518632 0.0014398219 -0.07648888 -0.1090012 -8.733256e-05 -0.06373109
-0.0001490083 0.030143876 0.01784529 -0.05109046 0.044411507 -0.03195825 -0.03955183 -0.65045714
-0.2270917 -0.013627024 -0.044068452 -0.10291835 0.0034924916 0.039980385 0.010117435 -0.012608158
-0.0004809443 -0.0069922116 -0.0038135143 0.11505059 0.07992709 0.053538308 -0.06489708 0.0042845025
0.30990514 -0.21012312 -0.012370751 0.1152602 0.1388814 0.11127232 -0.70130897 -0.064588174
0.01801671 -0.045683242 -0.14301401 0.051182386 0.023955284 -0.011844284 -0.018327484 0.004962294
0.05510082 0.32593098 -0.33153346 -0.22562669 -0.038233697 0.03402561 0.08291267 0.037527435
0.15248683 -0.61950976 -0.0699751 0.09080689 -0.07399791 0.07593994 -0.012367808 0.07230353
0.2563852 -0.47847322 -0.023328291 -0.007099941 -0.122685105 0.05712354 -0.2073518 0.12357514
00000000: 83dd cb3c 8dc3 553d 722e f7bd 9566 28bd
00000010: 8839 18bd 62d2 683d a4e6 f13b 379b 84bc
00000020: f7ee 16bd 9e9e 6b3d aa77 e8bd 2f09 d93d
00000030: 860d 813d 361d 3bbd 1820 8b3c be29 923c
00000040: 1289 7d3d 6be3 babd 030b 473c 2dbe 8c3c
00000050: 93e0 4d3d 16d1 073b 6f87 3bbc 145a c7bc
00000060: 09c1 16bc b251 323a d885 063d 2098 f4bb
00000070: 09ca 273e fa74 bd3d 666e af3e 1d77 bcbd
00000080: fb62 9c3d 6c77 783c 001c c5bc b02e a83e
00000090: 5623 0abd 1a13 ad3d a3fd 20bd 666c 16be
000000a0: 9a21 dcbb 5e04 20bd a482 74bc fb44 82be
000000b0: c070 39bc db81 67bd fb6a 11bc 9044 dcbd
000000c0: 6d05 203f 1c8f 2f3c 1309 2e3c 5f5e 1dbd
000000d0: 0910 723d fa9e c2bd 6557 9abc e649 a63e
000000e0: 9710 113d 4bcc d23d ee2c 9abd b9a5 b53c
000000f0: 7bd0 3fbd b7ed 3fbd 0b9c 65bb 78b1 b6bd
00000100: e19d 8b3d baa6 5ebc 237c fc3c 98e8 02be
00000110: 9466 8abc 0c2d 0abe f474 b73c c01b a6bb
00000120: 7a2d a4bc 0e40 acbc ccf9 b1bc e324 433d
00000130: f552 12bd 4a96 813c d702 a73c f60f cb3c
00000140: 3c79 4e3d 6b4c 863d e4d8 5cbd 5b70 e93d
00000150: 8f74 503d 5a76 edbd 0577 85bd e667 013e
00000160: b0ff 6e3c 758b 8bba b98a 2fbc 19a9 c33d
00000170: 7a21 79bc 512c 903c d863 8a3a 39ff 843c
00000180: 82c4 02bd 582d 2dbc 67ea 17bd 3f97 413d
00000190: e4c2 87bc ac4a 383b 0180 9bbc 6a94 933d
000001a0: 2ce0 073d 8fa4 fbbb 3c23 a4bd 8a54 2c3d
000001b0: f0a6 013e 4596 5f3c 2bad 243c 1037 b4bd
000001c0: 0c14 5abf c3fc 0dbc d382 82bc 13fb b7bd
000001d0: 562b 313d 46bc b0bd a1a9 8bbc d669 8a3e
000001e0: 4808 5bbc d846 f93c bb50 63bc 8e92 ecba
000001f0: 9e90 a63d 6ec3 883d 2f72 04bd c3c6 953d
00000200: 199a c2bd b2ad a4bc fcb5 5fbd 9fa2 27bd
00000210: 9744 68bd 415b 283d e0c3 93bc 10cd b2ba
00000220: fcb1 113c b094 5a3c d8d4 f83c a3aa 01bd
00000230: e569 4bbd b55d 713d 988c d3bc 3576 43bd
00000240: 50a1 0b3d 3c55 cb3c 28ad 36bd 833f da3d
00000250: 8c02 993d 2b1b a0bc c9c1 873d 6966 ddbc
00000260: ac33 babc 9d53 383a 96c8 943c 672d 01bd
00000270: f1bf f73e 0512 253d d8da 363b 022a 903d
00000280: 9b41 79bd 0c8b 3b3c 9056 04bd 4c31 a4bc
00000290: 7784 f4bc 8fe6 84bc 34dc 523c 30af 90bc
000002a0: 58fb 613c d087 053b 9143 523d 2f16 2a3f
000002b0: f6e9 efbc 9814 20bc a43b d2bc 73c9 5e3d
000002c0: afd3 ca3e 2a9b 553c 9687 80bd 8896 2bbb
000002d0: b78b 1f3d e262 03bd 7d89 e03b d733 93bd
000002e0: ed53 ae3c 25e1 d8bd f31a 4d3c 68b8 bc3a
000002f0: 34a6 9cbd 053c dfbd 5026 b7b8 7285 82bd
00000300: 1c3f 1cb9 4af0 f63c 4930 923c 3b44 51bd
00000310: d7e8 353d a7e6 02bd 1a01 22bd 5c84 26bf
00000320: ba8a 68be e243 5fbc 1f81 34bd dbc6 d2bd
00000330: 49e2 643b 79c2 233d 99c3 253c 7392 4ebc
00000340: 4027 fcb9 ec1e e5bb 27ec 79bb a59f eb3d
00000350: d0b0 a33d fc4a 5b3d c3e8 84bd 0365 8c3b
00000360: e3ab 9e3e 842a 57be b1ae 4abc 8a0d ec3d
00000370: ed36 0e3e bee2 e33d fc88 33bf ce46 84bd
00000380: c897 933c 5a1e 3bbd 4472 12be 9fa4 513d
00000390: df3d c43c 870e 42bc 8523 96bc bd9a a23b
000003a0: 66b1 613d 6de0 a63e c1be a9be af0a 67be
000003b0: f09a 1cbd 705e 0b3d 1ece a93d 5eb6 193d
000003c0: 8225 1c3e 3198 1ebf 1b4f 8fbd f6f8 b93d
000003d0: 378c 97bd 6686 9b3d 59a2 4abc e013 943d
000003e0: ec44 833e 71fa f4be f91a bfbc 9fa6 e8bb
000003f0: 5442 fbbd 60fa 693d 0854 54be f714 fd3d

fc.6.bias f4 [4]
0.0724006 0.9804642 0.0010931739 0.535118
00000000: c446 943d b4ff 7a3f d448 8f3a 7efd 083f
