model/model_epoch50000_mse_6r_256b_delt.pth (torch, 38487 bytes, 6 tensors)

fc.0.weight f4 [128, 4]
0	0x3ec9608a	0.39331466
1	0x3cc9ebe9	0.024648624
2	0xbe09a758	-0.13442743
3	0xbeb63768	-0.35589147
4	0x3e646c30	0.22306895
5	0xbead00b1	-0.3378959
6	0xbeca172a	-0.39470798
7	0x3eaa71cf	0.33289954
8	0x3e0aa570	0.13539672
9	0x3dec3490	0.11533463
10	0xbec28516	-0.37992162
11	0xbec814f4	-0.39078486
12	0xbeb5c074	-0.35498393
13	0xbe613907	-0.2199441
14	0xbe24bd2d	-0.1608779
15	0xbe93f458	-0.28897357
16	0xbd7a83e3	-0.061160933
17	0x3f076939	0.5289493
18	0x3e8566a4	0.2605487
19	0xbf234377	-0.6377482
20	0xbe3f628f	-0.18689941
21	0xbe71ea33	-0.23624496
22	0xbed94f69	-0.42443398
23	0xbd380478	-0.044926137
24	0xbee4d6c9	-0.44695118
25	0xbec90b64	-0.39266503
26	0xbf0cb840	-0.54968643
27	0xc0124d6b	-2.2859752
28	0x3e5e9844	0.21737772
29	0xbee668a8	-0.4500172
30	0xbe42f751	-0.19039656
31	0xbf11e8b7	-0.5699572
32	0x3db9b0c8	0.090669215
33	0xbefd7e48	-0.49510407
34	0xbeab3d60	-0.33445263
35	0xbd111f10	-0.035430014
36	0xbeffce80	-0.49962234
37	0xbddea0a8	-0.108704865
38	0xbe6007a0	-0.21877909
39	0x3de0c618	0.109752834
40	0xbe0814c1	-0.13289167
41	0x3eceb058	0.40368915
42	0xbe71a759	-0.23598994
43	0xbb2bfab2	-0.0026241955
44	0x3eacf72d	0.3378233
45	0xbea4ce2b	-0.32188544
46	0xbefbd5ca	-0.49186546
47	0x3f172767	0.590445
48	0x3de503c0	0.11182356
49	0x3e6269b8	0.22110641
50	0xbcc4d640	-0.024027944
51	0x3e75404c	0.23950309
52	0x3e856a8e	0.26057857
53	0x3d211af0	0.03933233
54	0xbe75c780	-0.24001884
55	0xbecbb0dc	-0.3978337
56	0x3ede5613	0.43425044
57	0x3e486f0b	0.1957361
58	0x3e5a5e2e	0.21324989
59	0xbeca9c4e	-0.39572376
60	0xbe9eb97c	-0.31000888
61	0x3e444e74	0.19170552
62	0xbdd31240	-0.10306215
63	0xbed03e9c	-0.40672767
64	0xbe4b4300	-0.19849777
65	0xbeaf772e	-0.34270614
66	0xbeecd662	-0.4625731
67	0x3ee481e0	0.44630337
68	0x3e3572a1	0.17719509
69	0x3e97fe7b	0.2968634
70	0x3e6986a0	0.22805262
71	0xbe625820	-0.2210393
72	0xbdc394e0	-0.0954988
73	0xbda94f80	-0.082671165
74	0xbefe442a	-0.4966138
75	0x3e308070	0.17236495
76	0x3ef9c3b2	0.48782116
77	0x3e2e0e94	0.16997749
78	0xbdaa89f0	-0.08327091
79	0x3dcdf3e0	0.10056281
80	0xbed50426	-0.41604728
81	0x3ea89518	0.3292625
82	0xbef97a90	-0.4872632
83	0xbee1244e	-0.4397301
84	0xbf040325	-0.515673
85	0x3e5e2d84	0.2169705
86	0x3e9cdfc9	0.30639485
87	0xbed9b4e4	-0.4252082
88	0xbe88b6fe	-0.26702112
89	0x3da001e0	0.07812858
90	0xbe8e5432	-0.2779861
91	0xbda47198	-0.08029479
92	0x3d6331c5	0.055467386
93	0x3f6201d5	0.88284045
94	0x3e7506a7	0.23928319
95	0xbe9b7701	-0.3036423
96	0x3d523aea	0.051325716
97	0x3dc74093	0.097291134
98	0x3ddedc97	0.10881918
99	0xbea713a3	-0.3263217
100	0xbe07e8cd	-0.132724
101	0xbd8a525e	-0.067539915
102	0xbb404cdc	-0.0029342687
103	0xbd8f1330	-0.069860816
104	0x3e0a65d6	0.1351541
105	0x3dee0b83	0.116232894
106	0x3e95061e	0.2910623
107	0x3e0ff663	0.14058833
108	0x3d817468	0.06321031
109	0x3e6525d0	0.22377706
110	0xbd94e6d0	-0.072705865
111	0xbdd8d7c8	-0.10588032
112	0x3ee8ba6e	0.45454735
113	0xbe949c14	-0.29025328
114	0x3f1b156c	0.6057956
115	0xbee3e847	-0.4451315
116	0xbea199fc	-0.31562793
117	0x3cd74dc0	0.026282191
118	0x3e434bc0	0.19071865
119	0x3e6700f0	0.22558951
120	0x3e216740	0.15762043
121	0x3efdb0b4	0.49548876
122	0xbeb56552	-0.35428864
123	0x3ef023ac	0.46902215
124	0xbd752a98	-0.059855074
125	0xbeea614a	-0.4577735
126	0x3ddeac4b	0.10872706
127	0x3e93982e	0.2882704
128	0xbe578d6a	-0.21050039
129	0xbca3d357	-0.019998236
130	0x3d075637	0.033041205
131	0xbeb13926	-0.34613913
132	0x3e8579da	0.26069528
133	0x3e672a3c	0.22574705
134	0x3d424500	0.047429085
135	0xbe3458d0	-0.17612004
136	0x3db98a2c	0.09059557
137	0x3ee466f1	0.44609788
138	0x3dbe6f7d	0.092986085
139	0x3f0b72a7	0.5447182
140	0x3ea2427b	0.31691346
141	0x3ca25ca6	0.019819569
142	0x3f00c2c7	0.50297207
143	0x3da18f7a	0.07888694
144	0x3ec85624	0.3912822
145	0xbe49014b	-0.196294
146	0xbee8c41f	-0.4546213
147	0x3e961ad1	0.29317334
148	0x3dd90978	0.10597509
149	0xbe30c314	-0.17261916
150	0x3e48b2d0	0.19599462
151	0x3e8ea164	0.27857506
152	0x3e94f573	0.29093513
153	0x3f176111	0.59132487
154	0xbeb6a746	-0.35674495
155	0x3ed3f11e	0.41394895
156	0xbccccde0	-0.025000513
157	0x3ee415b2	0.44547802
158	0xbe3be100	-0.1834755
159	0xbda658a8	-0.081223786
160	0x3f0299f1	0.51016146
161	0xbe3dcae4	-0.18534428
162	0x3e618a9d	0.22025533
163	0x3ead742a	0.3387769
164	0x3ec12ab4	0.37727892
165	0xbe95abaa	-0.29232532
166	0x3ecc018e	0.39844936
167	0x3e338fc8	0.17535317
168	0xbee97a63	-0.45601186
169	0xbc9a5d48	-0.018843308
170	0xbc9ffb27	-0.019528938
171	0xbd05d87a	-0.03267715
172	0xbe0a9fbe	-0.135375
173	0xbeefc01a	-0.4682625
174	0xbf13391b	-0.5750901
175	0xbdbaa8c1	-0.091142185
176	0x3efa8d33	0.4893585
177	0xbe4551da	-0.19269505
178	0xbe7d8eba	-0.24761477
179	0xbee89b03	-0.45430765
180	0xbe837a7e	-0.25679392
181	0x3e806033	0.25073394
182	0x3eb0eb39	0.3455446
183	0xc01656da	-2.349051
184	0x3dda0648	0.10645729
185	0xbe9094b4	-0.2823845
186	0xbe9dd19a	-0.30823976
187	0xbd9d8378	-0.07691091
188	0xbe8c3994	-0.2738768
189	0x3e96a5c4	0.29423344
190	0xbe671134	-0.22565156
191	0xbe5a140c	-0.2129671
192	0x3ec69bee	0.3879084
193	0x3edeeb0e	0.43538707
194	0xbdcdb220	-0.1004374
195	0xbddc7c68	-0.10765916
196	0xbcf599e0	-0.0299806
197	0xbcf54600	-0.029940605
198	0x3e873ce8	0.26413655
199	0xbc2eccc0	-0.010668933
200	0x3ea35aaa	0.3190511
201	0x3d436420	0.04770291
202	0xbea171be	-0.3153209
203	0xbeeb9ee0	-0.4601965
204	0xbe6e6243	-0.23279671
205	0x3f624e9b	0.8840119
206	0x3e9741f7	0.29542515
207	0xbd350f38	-0.044203967
208	0xbe9a4796	-0.3013274
209	0x3cfdfc20	0.031004012
210	0x3e227038	0.1586312
211	0xbed38d6e	-0.4131884
212	0xbea28388	-0.31740975
213	0xbf03ac08	-0.51434374
214	0x3c57dcff	0.013175248
215	0x3f13ead5	0.577802
216	0xbef5a502	-0.47977453
217	0xbecaf51f	-0.39640138
218	0x3e564332	0.2092407
219	0x3eaff915	0.34369722
220	0x3e89eb36	0.26937264
221	0x3f822848	1.0168543
222	0xbe2d9872	-0.16952685
223	0x3ef85886	0.48505038
224	0x3eeeef8f	0.46667144
225	0xbea6816f	-0.32520625
226	0xbea6ba63	-0.32564077
227	0xbc849df6	-0.016188603
228	0x3e8da9cb	0.27668604
229	0x3f21186c	0.6292789
230	0x3e8a3bf3	0.26998863
231	0xbe6060ae	-0.2191188
232	0x3e93a675	0.28837934
233	0x3e4e9672	0.20174578
234	0xbe717e7a	-0.23583403
235	0xbef6ccea	-0.48203212
236	0x3eb8f020	0.361207
237	0x3e24b06d	0.16082926
238	0xbeb2a8fd	-0.34894553
239	0xbede8963	-0.43464193
240	0xbefe4395	-0.49660936
241	0xbde4ea55	-0.11177508
242	0x3e5d553b	0.21614544
243	0x3e1c216a	0.15247121
244	0xbe787c4e	-0.24266168
245	0xbf0fbc1c	-0.5614641
246	0x3e3a06d1	0.18166663
247	0xbbe96a55	-0.0071232715
248	0xbe4f97d2	-0.20272759
249	0xbe9d657e	-0.30741495
250	0xbe6b0d30	-0.2295425
251	0xbeb8a32f	-0.36062
252	0xbde95050	-0.113922715
253	0x3d850748	0.064955294
254	0x3e727ac8	0.2367965
255	0xbef255b4	-0.4733101

fc.0.bias f4 [128]
0	0x3d80276a	0.06257518
1	0x3da75d2f	0.0817207
2	0xbd852968	-0.06502038
3	0x3ecd2011	0.40063527
4	0x3e4c3290	0.19941163
5	0x3e97760a	0.29582244
6	0x3e97b1ff	0.29627988
7	0x3e76ea52	0.24112824
8	0xbeaebb2e	-0.34127182
9	0xbdbd67c0	-0.09248304
10	0x3ef65876	0.48114365
11	0xbd2068ed	-0.039162565
12	0xbeac5b4a	-0.33663398
13	0xbe99edb6	-0.30064172
14	0xbd96bf90	-0.073607564
15	0xbe9ea062	-0.30981737
16	0xbeff9adc	-0.49922836
17	0x3dd09df1	0.10186375
18	0xbe5a6c34	-0.21330339
19	0xbefb3f52	-0.49071747
20	0xbe8a1f8c	-0.26977193
21	0x3e4a3e5a	0.19750348
22	0xbead59a6	-0.3385746
23	0x3dcc9e3f	0.099911205
24	0x3edcaa1f	0.43098542
25	0x3ef07038	0.46960616
26	0xbdb47d08	-0.0881291
27	0xbef7aafc	-0.48372638
28	0xbeb0a9e8	-0.34504628
29	0xbefd9dbc	-0.49534404
30	0xbe8a5a24	-0.27021897
31	0x3eea5c9e	0.45773786
32	0x3edfb160	0.43690014
33	0xbeb48f36	-0.3526551
34	0x3ce8e753	0.028430616
35	0x3d768328	0.060183674
36	0x3ed580f3	0.41699943
37	0xbe643c90	-0.22288728
38	0x3d98acf5	0.07454864
39	0xbeabe9c6	-0.33576792
40	0xbea8edfc	-0.32994068
41	0xbeeaa6ee	-0.45830482
42	0x3efd5113	0.49475917
43	0x3e09d803	0.13461308
44	0xbe47c8be	-0.19510171
45	0x3e2d19c7	0.16904365
46	0xbefaad90	-0.48960543
47	0xbed13ae2	-0.40865237
48	0xbe96955e	-0.29410833
49	0xbe0e50ec	-0.13898057
50	0xbee35cd2	-0.44406754
51	0xbc8c8b0f	-0.017156152
52	0xbef368a8	-0.47540784
53	0x3e8273f9	0.25479105
54	0x3dbbda05	0.09172443
55	0xbe992e6e	-0.29918236
56	0xbe8351ae	-0.25648254
57	0x3e72b25b	0.2370085
58	0x3da518ad	0.08061347
59	0x3cc998eb	0.02460905
60	0x3e8ea923	0.27863416
61	0x3e1b4e26	0.1516653
62	0x3ec9adb9	0.39390352
63	0xbd93fcc8	-0.072259486
64	0xbebb6b2c	-0.36605203
65	0xbed5b592	-0.4174009
66	0xbee3f74c	-0.4452461
67	0x3e0795be	0.13240716
68	0xbddd43dc	-0.10803959
69	0x3ed1039a	0.4082306
70	0xbe0fe9a0	-0.14053965
71	0xbdfe43af	-0.12415253
72	0x3d9257e4	0.0714567
73	0x3eb408f3	0.35163078
74	0xbc4e8a14	-0.012606163
75	0x3e835fdd	0.25659075
76	0xbeddb229	-0.43299988
77	0xbea0168c	-0.31267202
78	0x3e935fb0	0.2878394
79	0x3e677bd3	0.22605829
80	0x3e93705c	0.2879666
81	0xbe7de2b4	-0.24793512
82	0xbe70cd90	-0.23515916
83	0xbef3a75e	-0.4758863
84	0x3ecde614	0.40214598
85	0xbe7834a4	-0.24238831
86	0x3eb398a4	0.35077393
87	0xbd59158c	-0.052999064
88	0x3e99639b	0.29958805
89	0xbd78d13e	-0.060746424
90	0xbefcff0b	-0.49413332
91	0x3d4773aa	0.04869429
92	0xbaea695b	-0.0017884182
93	0x3ec76d51	0.3895059
94	0xbe449754	-0.19198352
95	0x3eb4b309	0.35292843
96	0x3e95b276	0.29237717
97	0x3d8cde65	0.06878356
98	0xbeae8ebc	-0.34093273
99	0xbdbba9b8	-0.09163231
100	0x3e0cb768	0.13741839
101	0xbee18376	-0.4404561
102	0x3c8c41c8	0.01712121
103	0xbeaaee5d	-0.33384982
104	0x3ef4d3a9	0.47817734
105	0xbe1fc00a	-0.15600601
106	0x3d1d10af	0.03834599
107	0x3e24c009	0.1608888
108	0x3e9f6f08	0.31139398
109	0xbe20e994	-0.15714103
110	0x3e857002	0.26062018
111	0xbed5e5d2	-0.417769
112	0x3ebf1967	0.37324068
113	0x3e7abd0d	0.2448618
114	0xbeb9adce	-0.36265415
115	0xbe59eb50	-0.21281171
116	0xbed32c0c	-0.41244543
117	0x3e0cd816	0.13754305
118	0x3e97fd03	0.2968522
119	0xbede62c4	-0.43434727
120	0x3ec0106d	0.37512532
121	0xbdf01de0	-0.11724448
122	0xbeb12c5c	-0.34604156
123	0xbe948eae	-0.29015106
124	0x3e1ecbe4	0.15507466
125	0x3e841ef3	0.25804862
126	0x3d9fee50	0.078091264
127	0xbe775ebe	-0.24157235

fc.2.weight f4 [64, 128]
0	0x3c3f7baa	0.011687199
1	0xbce98f89	-0.028510826
2	0xbd53aa3c	-0.05167602
3	0xbd1e76ab	-0.03868739
4	0xbd77cfb5	-0.06050082
5	0x3c42dce1	0.011893482
6	0x3d4aca98	0.049509615
7	0xbd923e7b	-0.071408235
8	0xbcfb92ee	-0.03070971
9	0xbda5f016	-0.081024334
10	0xbdb259ab	-0.08708509
11	0xbd351aaa	-0.044214882
12	0xbd3c1182	-0.045915134
13	0xbd0e94c1	-0.03480983
14	0x3d85578a	0.065108374
15	0xbd196df0	-0.03745836
16	0x3d39014a	0.045167245
17	0x3dad718e	0.084689245
18	0xbdb34b6f	-0.08754622
19	0xbceec430	-0.029146284
20	0xbd6b2329	-0.05740658
21	0x3d14a225	0.036287446
22	0x3d824e43	0.063625835
23	0xbd5b4a8e	-0.053537898
24	0xbd4180d9	-0.04724202
25	0x3bea2500	0.007145524
26	0xbdac18f4	-0.08403197
27	0xbc2db858	-0.010603033
28	0xbd86bca3	-0.06578948
29	0xbd1e134a	-0.038592614
30	0x3c652ad8	0.0139872655
31	0x3d66bc79	0.056332085
32	0xbd8400f8	-0.06445497
33	0x3d56c96a	0.052438177
34	0x3d1aeadc	0.037821636
35	0xbd369c80	-0.044582844
36	0xbd310c3c	-0.04322456
37	0xbd8ae7b3	-0.06782474
38	0x3d8a5da2	0.0675614
39	0xbc820ed0	-0.015876204
40	0x3cfaf884	0.03063608
41	0xbd808a68	-0.06276399
42	0x3ced7bfd	0.028989786
43	0xbd5dc6e5	-0.05414476
44	0xba80fcfd	-0.0009841021
45	0x3d07e84a	0.033180512
46	0xbcdc3a98	-0.026883408
47	0xbd0954d1	-0.033528153
48	0x3d2172c6	0.039416097
49	0xbd091a87	-0.033472564
50	0x3dad4961	0.084612615
51	0xbdb4ce81	-0.0882845
52	0x3d95640f	0.07294475
53	0x3cf74f14	0.030189075
54	0x3d4e7201	0.05040169
55	0x3cd44790	0.02591303
56	0xbc9c1c8c	-0.019056581
57	0x3daaf697	0.083478145
58	0x3ca5e884	0.020252474
59	0xbd2d944d	-0.04237776
60	0x3d52e53e	0.051488154
61	0xbc474417	-0.01216223
62	0x3d17946f	0.03700679
63	0x3db22a49	0.086994715
64	0xbc94efdc	-0.01818078
65	0x3c797678	0.015225999
66	0x3d838f33	0.064237975
67	0x3cffd928	0.031231478
68	0x3d46084d	0.04834776
69	0x3ccc0ed3	0.024909412
70	0xbd8fe03b	-0.070251904
71	0xbb6871d1	-0.003546823
72	0x3cc37ca9	0.023863154
73	0x3d40360b	0.04692654
74	0x3cc4ab2d	0.024007404
75	0x3d83b1f7	0.064304285
76	0x3d7dc3b0	0.0619542
77	0x3c658948	0.014009781
78	0x3cf260d8	0.029587194
79	0xbda8b94a	-0.08238466
80	0x3ca720af	0.020401327
81	0xbd5fe06b	-0.05465738
82	0xbcfcb9a4	-0.03085024
83	0xbd2be5e8	-0.041967303
84	0xbcf8cf8e	-0.030372407
85	0x3d00fa04	0.031488433
86	0xbd8f2285	-0.06989006
87	0x3c68c912	0.014208095
88	0xbdb2ae27	-0.08724623
89	0x3d6327c4	0.055457845
90	0xbd94ddb2	-0.072688475
91	0xbcdb31ce	-0.026757147
92	0xbccc357c	-0.024927847
93	0x3d89e6b9	0.0673346
94	0xbc43a5b5	-0.011941363
95	0xbd8e61ca	-0.069522455
96	0xbd57eb91	-0.052714888
97	0x3d6d30bd	0.05790781
98	0xbda6cc77	-0.08144467
99	0x3bd718a0	0.006564215
100	0xbd8e9844	-0.06962636
101	0xbd67f28a	-0.056627788
102	0x3d660303	0.056155216
103	0xbd644fda	-0.055740215
104	0xbc8dac55	-0.017294088
105	0x3ce593ce	0.02802458
106	0x3c03225c	0.008003797
107	0x3c4dfa0a	0.012571821
108	0xbd039888	-0.032127887
109	0x3d9bf154	0.07614389
110	0x3c6104c1	0.013734044
111	0x3d8da19b	0.069155894
112	0x3c888e2d	0.016669357
113	0x3c5cedca	0.013484428
114	0xbd6ff8b5	-0.058586795
115	0x3da357b1	0.0797571
116	0xbadb6800	-0.0016739368
117	0xbca2d11c	-0.019875102
118	0xbd6d3646	-0.057913087
119	0xbc803204	-0.01564885
120	0xbd4477f9	-0.047965977
121	0xbce35a94	-0.027753152
122	0x3d69454a	0.056950845
123	0x3b2edb60	0.002668105
124	0x3da9abef	0.08284747
125	0xbb32ce9e	-0.0027283798
126	0x3d5b0d66	0.053479575
127	0xbdac0da6	-0.08401041
128	0x3d868ca7	0.06569796
129	0x3da1bd36	0.07897417
130	0xbd727e57	-0.05920252
131	0xbd7f6afe	-0.062357895
132	0xbd30acfb	-0.043133717
133	0x3d96c53f	0.073618405
134	0x3d050cd4	0.032482937
135	0xbc68c249	-0.014206477
136	0x3daa0475	0.08301631
137	0xbca22d70	-0.019797057
138	0x3d43f1c0	0.047837973
139	0xbd05aa5c	-0.03263317
140	0xbd0f18b2	-0.03493566
141	0x3da7cf25	0.081938066
142	0x3cb65628	0.02225788
143	0x3d58331e	0.052783124
144	0x3d8f908f	0.07009994
145	0x3b82be7b	0.003989992
146	0xbcd23bcc	-0.025663279
147	0x3ca18f9c	0.019721799
148	0xbd3ba525	-0.04581179
149	0xbd95e8f2	-0.073198214
150	0x3c093300	0.008373976
151	0x3c7951f4	0.015217293
152	0xbda2a302	-0.079412475
153	0x3dace786	0.08442597
154	0x3da31bd5	0.07964293
155	0xba979640	-0.0011565164
156	0x3d80b28b	0.06284054
157	0xbd1d53f1	-0.03841013
158	0x3d87b585	0.06626419
159	0x3d480b91	0.048839156
160	0x3d71a1ee	0.05899232
161	0x3db152ef	0.086583965
162	0x3bab9cac	0.0052371826
163	0x3d3e4d4f	0.046460446
164	0xbd4041bb	-0.046937685
165	0xbd02940b	-0.031879466
166	0xbd11cc22	-0.035595067
167	0x3d89f71b	0.06736585
168	0x3d249b5c	0.040187225
169	0x3cbf8cf8	0.023382649
170	0xbd97ffe3	-0.074218534
171	0xbda59236	-0.08084528
172	0xbd9d952e	-0.076944694
173	0x3d81a821	0.06330896
174	0xbd986a9f	-0.07442211
175	0xbd4dc7d2	-0.05023939
176	0x3d88d33b	0.06680914
177	0x3d87c713	0.06629767
178	0x3cf2bb50	0.029630333
179	0xbd66cb03	-0.05634595
180	0x3ce0d4a8	0.027445152
181	0xb915313c	-0.00014228089
182	0x3d6f5ad2	0.058436222
183	0x3b20f57a	0.0024560378
184	0xba240e60	-0.00062582456
185	0x3af3fbdd	0.001861449
186	0xbd4a6389	-0.04941133
187	0xbcbe81c5	-0.023255238
188	0xbd6b5e12	-0.05746276
189	0xbd68f2a8	-0.05687204
190	0x3bb7fa20	0.005614534
191	0x3d33388a	0.04375509
192	0xbdb47350	-0.088110566
193	0x3d241292	0.040056773
194	0x3d3ec70e	0.046576552
195	0x3d48689f	0.0489279
196	0xbcc44360	-0.023957908
197	0x3d237373	0.039905023
198	0xbb83d950	-0.0040237084
199	0xbd3e6a2d	-0.046487976
200	0x3c9a2550	0.01881662
201	0xbd954d98	-0.072901905
202	0xbd4cae19	-0.04997072
203	0xba921f32	-0.0011148213
204	0x3d4892db	0.048968177
205	0x3d908323	0.07056262
206	0x3bf4ab88	0.007466737
207	0x3d702f23	0.058638703
208	0xbd34a60a	-0.04410366
209	0xbbb950e0	-0.005655393
210	0xbd678296	-0.05652102
211	0x3d8484b3	0.06470623
212	0xbb18c8a5	-0.0023312953
213	0x3d5090be	0.050919287
214	0x3c9b9c47	0.018995417
215	0xbd4057bb	-0.046958666
216	0x3d94d69b	0.07267495
217	0xbd5564e0	-0.052098155
218	0x3d1c8a5e	0.038217895
219	0xbd977f45	-0.073973216
220	0x3d60c79c	0.054877862
221	0xbd6b45d5	-0.057439644
222	0x3caaf85a	0.020870376
223	0x3d01d5d3	0.03169806
224	0xbccb4f3f	-0.02481806
225	0x3da269fc	0.07930371
226	0x3d0d5d12	0.034512587
227	0xbb9267b0	-0.004467927
228	0xbcddd43e	-0.027078744
229	0x3bd4a220	0.0064890534
230	0x3d822d91	0.06356347
231	0xbd0885e7	-0.033330824
232	0xbc2a6df9	-0.010402196
233	0x3ca4c7cf	0.020114807
234	0x3da263c7	0.07929187
235	0xbda39013	-0.07986464
236	0xbd178d8f	-0.037000235
237	0x3d3c6ba2	0.046001084
238	0x3c955873	0.018230652
239	0xbd70e6c8	-0.05881384
240	0xbd7f1cbd	-0.062283266
241	0x3d30ab68	0.043132216
242	0xbd0cfd89	-0.034421477
243	0x3bec80f0	0.007217519
244	0xbd4b42ba	-0.049624182
245	0xbd7d9812	-0.061912604
246	0xbb8732ee	-0.0041259443
247	0x3c70f368	0.01470647
248	0xbd44abc3	-0.048015367
249	0x3d47b3d6	0.04875549
250	0xbc6fc520	-0.014634401
251	0xb8c42c00	-9.354204e-05
252	0xbd876b39	-0.06612248
253	0xbd925417	-0.07144945
254	0xbd2d7369	-0.04234639
255	0xbd1075ed	-0.035268713

fc.2.bias f4 [64]
0	0x3d3c9fa6	0.04605069
1	0xbdb35292	-0.087559834
2	0x3d7a1c5f	0.061062213
3	0xbb839d90	-0.0040165856
4	0x3d071ed2	0.032988377
5	0x3d781b9e	0.060573213
6	0x3d4d682c	0.050148174
7	0x3d122357	0.035678234
8	0xbd98e863	-0.07466199
9	0x3d521be7	0.05129614
10	0x3d39107c	0.045181736
11	0x3d907ca4	0.07055023
12	0xbd5d1d72	-0.05398316
13	0xbcaa9599	-0.020823287
14	0xbcbba4bc	-0.0229057
15	0xbd684c65	-0.05671348
16	0x3dcc98d1	0.09990085
17	0x3d1b29ca	0.03788165
18	0xbd915ec6	-0.07098155
19	0x3d0461c6	0.032319807
20	0xbda9fd39	-0.083002515
21	0xbd4db3cd	-0.0502203
22	0xbca334c8	-0.019922629
23	0xbd332fcc	-0.043746755
24	0xbd8accc7	-0.067773394
25	0x3cbc8896	0.023014348
26	0xbcce89b5	-0.025212148
27	0x3d98b6ed	0.07456765
28	0xbd0065f5	-0.031347234
29	0xbd2755c1	-0.040853266
30	0x3cb91e80	0.022597551
31	0x3c87c9f9	0.0165758
32	0x3b1a1f7b	0.00235173
33	0xbdb4d595	-0.088298
34	0xbd1980ac	-0.037476227
35	0x3d8f4c7e	0.069970116
36	0xbc49b842	-0.012311997
37	0x3d329cb4	0.043606475
38	0xbdb06c80	-0.08614445
39	0xbc78d130	-0.015186593
40	0x3a1cd180	0.00059821457
41	0xbd4c6ddb	-0.049909454
42	0xbd93eb2c	-0.0722259
43	0xbd4e6631	-0.050390426
44	0x3d69e997	0.057107534
45	0x3c2fae60	0.010722727
46	0x3d980582	0.074229255
47	0x3b81aa20	0.003957048
48	0x3c9d08a8	0.019169167
49	0xbd42c166	-0.04754772
50	0x3d14a3f2	0.036289163
51	0x3c112b76	0.00886046
52	0x3d4a1ef7	0.049345937
53	0xbd208a42	-0.039194353
54	0xbd85267e	-0.065014824
55	0xbda12e1f	-0.07870125
56	0xbcab583c	-0.020916097
57	0x3d9ddfb1	0.077086814
58	0x3db3995c	0.08769485
59	0x3d05fa4a	0.032709397
60	0x3d85239b	0.06500932
61	0xbc24724c	-0.010037016
62	0x3dce74df	0.10080885
63	0xbd1edcf0	-0.03878492

fc.4.weight f4 [4, 64]
0	0xbdc70dbc	-0.097194165
1	0xbb483637	-0.0030549893
2	0xba8b983e	-0.001065023
3	0x3dc01a70	0.093800426
4	0x3de9e0a4	0.114198
5	0xbdfd8409	-0.12378699
6	0xbe038991	-0.12845446
7	0x3e2da328	0.1695677
8	0xbdea2230	-0.11432302
9	0x3d2aba5d	0.041681636
10	0x3df5e773	0.12007036
11	0xbc9906cc	-0.018679999
12	0xbd2f4858	-0.0427936
13	0x3e419ae0	0.18906736
14	0x3dada4b5	0.08478681
15	0x3dbdb8db	0.09263774
16	0xbdbbeed2	-0.09176411
17	0x3bc41a20	0.0059845597
18	0xbd4e7064	-0.050400153
19	0x3d13216c	0.035920545
20	0xbd4caad9	-0.04996762
21	0x3dda79d0	0.10667765
22	0xbc934df8	-0.017981514
23	0x3e78950b	0.24275605
24	0x3dc0e932	0.094194785
25	0xbd823a46	-0.06358771
26	0x3da6a756	0.081373855
27	0x3d7d70b4	0.06187506
28	0xbd4306c0	-0.04761386
29	0xbad2b000	-0.0016074181
30	0xbdc450bc	-0.09585711
31	0xbd9cb79d	-0.07652209
32	0xbdad089d	-0.084489085
33	0xbf59644a	-0.84918654
34	0xbca33cc4	-0.019926436
35	0xbe0ad07d	-0.13556094
36	0xbc1e545d	-0.009663668
37	0x3d8d60a4	0.06903198
38	0x3dff8d04	0.124780685
39	0x3e2b50bd	0.16730018
40	0xbd798a70	-0.06092304
41	0xbd74aa92	-0.05973298
42	0x3dfaf914	0.12254539
43	0xbe188a5e	-0.14896533
44	0xbd890a14	-0.066913754
45	0xbd95b38d	-0.07309637
46	0xbde956be	-0.11393498
47	0xbcb17c40	-0.021665692
48	0x3db35790	0.087569356
49	0xbd036e6a	-0.03208772
50	0x3e170050	0.14746213
51	0xbd923dae	-0.07140671
52	0x3dfafb2a	0.12254937
53	0xbd70bd12	-0.05877406
54	0xbd6767ec	-0.056495592
55	0x3d933d08	0.07189375
56	0xbddc0bc6	-0.10744433
57	0xbe314ad7	-0.17313705
58	0x3d9ae91d	0.07563994
59	0xbdd89f3d	-0.10577247
60	0x3dac1703	0.08402827
61	0xbd3de5ea	-0.04636184
62	0xbe5546db	-0.2082781
63	0x3db25052	0.08706726
64	0x3c4e07b6	0.012575081
65	0x3d8f26b1	0.06989802
66	0x3e391b6a	0.18076864
67	0xbd699884	-0.057030216
68	0xbd5322c8	-0.05154684
69	0xbdbcebd8	-0.09224671
70	0x3d2afcde	0.04174506
71	0x3db892c1	0.09012366
72	0xbdaea8e2	-0.085283056
73	0xbdb9953e	-0.09061669
74	0xbda0dc7a	-0.078545526
75	0xbdde1047	-0.108429484
76	0xbd15232c	-0.036410496
77	0x3c1201b3	0.008911538
78	0xbc6d779b	-0.014493848
79	0x3dc18d08	0.09450728
80	0xbe2dbe1d	-0.16967054
81	0xbc331e70	-0.01093255
82	0x3d0eeb20	0.0348922
83	0xbd682bc2	-0.056682356
84	0xbde5d7f4	-0.112228304
85	0x3d59cf90	0.053176463
86	0x3d5d6948	0.054055482
87	0x3d0a046d	0.033695627
88	0x3d053c34	0.032528117
89	0xbe53bd32	-0.20677641
90	0x3ddb165f	0.10697626
91	0xbdd30e2e	-0.10305439
92	0x3cd1f398	0.02562885
93	0x3da1b0a4	0.0789502
94	0x3cb19c00	0.021680832
95	0x3c14ca77	0.0090814745
96	0x3d00287e	0.031288616
97	0xbe9f6600	-0.31132507
98	0x3e3aaeff	0.18230818
99	0xbc95e589	-0.018297927
100	0x3d4d9812	0.050193854
101	0xbe18cde0	-0.14922285
102	0xbdbe051a	-0.09278317
103	0xbdb886da	-0.09010096
104	0x3dbb6f36	0.09152071
105	0x3ddbe17f	0.10736369
106	0xbdedb2a3	-0.11606338
107	0x3dbc2dc6	0.09188418
108	0xbd1b9957	-0.037988033
109	0x3d1f4da7	0.038892414
110	0x3e0bd175	0.1365412
111	0xbc7c3440	-0.015393317
112	0x3cf21378	0.029550299
113	0xbd841a2a	-0.06450303
114	0x3de59778	0.11210531
115	0xbcb9101d	-0.022590691
116	0x3da8883b	0.08229109
117	0x3c31dcb7	0.010855845
118	0x3db82020	0.08990502
119	0xbb586540	-0.0033019334
120	0x3d3de9f0	0.04636568
121	0xbdfb0df3	-0.1225852
122	0x3d1cc8c6	0.03827741
123	0x3d055873	0.032555055
124	0x3ca0e67d	0.019641155
125	0x3d5d9777	0.054099526
126	0xbc6f48ff	-0.014604806
127	0xbc7495a0	-0.0149282515
128	0x3c812bde	0.015767988
129	0x3df21721	0.11820818
130	0x3e65313a	0.2238206
131	0x3ce489a0	0.027897656
132	0x3dcb25ae	0.09919296
133	0xbc8985ee	-0.016787495
134	0x3dc21755	0.094771065
135	0xbd45b6a0	-0.048269868
136	0xbd2976c0	-0.041373014
137	0xbc5d987d	-0.013525126
138	0xbd885fd8	-0.06658906
139	0xbd9caff8	-0.07650751
140	0x3dec4b3a	0.11537786
141	0xbdef7e8e	-0.1169406
142	0xbe7fbacb	-0.249736
143	0xbd573f62	-0.05255068
144	0xbd766aea	-0.060160555
145	0xbdb7570c	-0.0895215
146	0xbdf8003c	-0.1210942
147	0x3d2380f7	0.039917912
148	0xb9c615ee	-0.00037781842
149	0xbdd6cae6	-0.104879186
150	0xbba7c500	-0.00511992
151	0xbe77d792	-0.24203327
152	0x3de51ca6	0.11187105
153	0xbe290968	-0.16507494
154	0xbc94e080	-0.018173456
155	0x3d7bc0ac	0.061463043
156	0x3dded040	0.10879564
157	0xbccddb18	-0.025128886
158	0xbdbd9126	-0.092562005
159	0x3c17eebf	0.00927323
160	0xbdaaab6e	-0.08333479
161	0xbe5b2eb3	-0.21404533
162	0x3d0ddef9	0.03463647
163	0x3c9a3ea6	0.018828701
164	0x3c9102be	0.017701503
165	0x3befa39e	0.007313206
166	0xbdc1863e	-0.09449433
167	0xbdc2c426	-0.095100686
168	0x3dd30ea2	0.10305525
169	0x3dad0e71	0.0845002
170	0xbd890025	-0.06689481
171	0x3dca44f5	0.09876434
172	0xbe11056a	-0.14162222
173	0xbe0d2c7d	-0.13786502
174	0xbe00a40e	-0.12562582
175	0x3cfb07e8	0.030643418
176	0x3d98509e	0.074372515
177	0xbdeb6a92	-0.11494936
178	0xbd1b8193	-0.03796537
179	0x3dc0cf3c	0.09414527
180	0x3e07ade1	0.13249923
181	0xbd630664	-0.055426016
182	0x3c2b2e60	0.010448068
183	0xbda22438	-0.079170644
184	0x3d885290	0.066563725
185	0xbe426bab	-0.18986385
186	0x3de54e43	0.11196568
187	0x3d69c0ce	0.05706864
188	0x3d841305	0.0644894
189	0xbe03c7a5	-0.12869127
190	0xbc9e33c8	-0.0193118
191	0xbde65180	-0.11246014
192	0x3dc9df62	0.0985706
193	0x3d93c2fa	0.07214923
194	0x3f11ae10	0.56906223
195	0xbdb741d0	-0.089480996
196	0x3c5ae6e0	0.013360709
197	0x3da0a4bc	0.078439206
198	0xbdfff089	-0.1249705
199	0xbe2c3d80	-0.16820335
200	0x3d88fa50	0.06688368
201	0x3cddace7	0.027059985
202	0x3e1140b9	0.14184846
203	0xbd9710e9	-0.07376272
204	0x3a68ed00	0.00088854134
205	0x3df2881e	0.118423685
206	0x3df6f55f	0.120585196
207	0xbe184d5f	-0.14873265
208	0x3e81b163	0.25330648
209	0xbbeeb3e0	-0.0072846264
210	0x3d804c70	0.06264579
211	0xbd91fe11	-0.071285374
212	0x3ceeacd4	0.029135145
213	0x3d9a05e0	0.07520652
214	0xbd4aa2b4	-0.049471572
215	0xbe619592	-0.22029713
216	0x3d1d9158	0.03846869
217	0xbe687e2d	-0.22704382
218	0x3e850486	0.25980014
219	0x3cdb1b58	0.026746437
220	0x3ddc0fec	0.10745224
221	0x3d82c780	0.06385708
222	0x3c8cb678	0.017176852
223	0x3ed8723d	0.42274657
224	0x3d01a29f	0.03164923
225	0xbd9e5d2a	-0.077326134
226	0x3e94640c	0.2898258
227	0xbeae7c90	-0.3407941
228	0xbd11dfc3	-0.035613786
229	0x3dc511f1	0.09622563
230	0x3d64c350	0.055850327
231	0x3ea3f993	0.32026348
232	0xbccc9a18	-0.024975821
233	0x3d98ed21	0.07467104
234	0xbdfed6d5	-0.1244332
235	0xbdb25912	-0.08708395
236	0xbd25355a	-0.040334083
237	0xbdc646d0	-0.09681475
238	0x3e58c9a6	0.21170673
239	0x3d65d030	0.056106746
240	0x3ccb26f0	0.02479884
241	0x3ceb7a91	0.028744968
242	0xbe5c89d7	-0.21536957
243	0xbeec3d3d	-0.4614047
244	0x3e5487df	0.20754956
245	0xbce7fcdb	-0.028318813
246	0x3c2d1bb0	0.010565683
247	0x3d94eba4	0.072715074
248	0x3d928e6c	0.07156071
249	0x3e7485c4	0.23879153
250	0xbe2bdbc1	-0.16783048
251	0xbf245eef	-0.6420736
252	0x3e9482f9	0.29006174
253	0xbdf8e941	-0.12153865
254	0x3e338b36	0.17533574
255	0x3dff1a0a	0.124561384

fc.4.bias f4 [4]
0	0x3c4f7a66	0.012663459
1	0xbdda3578	-0.106547296
2	0x3d4388e5	0.047737975
3	0xbb4825f6	-0.0030540205
