BC_actor_dist.pkl (torch, 279553 bytes, 6 tensors)

weight_ih_l0 f4 [512, 4]
00000000: 4d55 893d 0351 c23e 6ab3 ac3d 6bd4 b43f
00000010: ec4b 96bd 5828 47be 0391 babe 3a2b 0ebe
00000020: 0ffa ef3e 966e f6be 1be4 943c 4b26 94bd
00000030: 996b 3b3d fc15 38be 9577 cabf b705 11c0
00000040: a825 a93e d71f 82bf 8682 a13c 6902 b0bf
00000050: 0f70 033d d718 6cbe 904a ecbd 3672 94be
00000060: 3e7a ff3e 6196 f93e c258 b6bf 5d98 333d
00000070: 0987 bdbd 7520 353f 38aa 553f b480 24be
00000080: 563b aabd 172d 813b d4ea 1abf 0fb6 f23e
00000090: 5ade a6be 2880 203f 0a3b d5bd a6ae bc3e
000000a0: 5cd5 b43d 8e61 163f 892b c5bf d1a6 cfbf
000000b0: 54dd 10be 97b5 fb3d 433c c3bf 55d9 533e
000000c0: 243d 333e aabb 0abe 4637 8fbc 4644 b53e
000000d0: 1dc9 37be 346d 26be 3b63 463e 843a 4ebe
000000e0: 4170 903e 789f 69bf 527c c2be e4f3 d33f
000000f0: 9930 57be 38c4 f43e bea0 10bf 867c 0b3f
00000100: b7f5 72be 3326 653f 98a1 c8be 9069 d13d
00000110: e03f a0be 672e 2d3e 0436 a0be fdcf c03e
00000120: 270b 4e3f ba05 f4bf d4d1 f63e 7e13 953f
00000130: f506 30bd edc5 103e 32f4 8fbe 55e4 5e3e
00000140: 15d6 413f 458c e13e d684 c83d 975b 823f
00000150: 3d03 11be 8986 aabc 3eff 9cbd 168d 1cbd
00000160: 4bd2 c0bd 3abd 1a3f f976 7c3f 6b24 fdbd
00000170: a8f0 82be da35 9a3f 1e20 f73c 75ef e43e
00000180: 8dfb bdbd ab73 463d 35b8 5cc0 dec6 60be
00000190: 44fe f23d 5a0c 37be 8753 483f f64d 06be
000001a0: 56a7 433e 7507 d83e 65a7 1dbe 1c00 663e
000001b0: bd8e 0bbe 86ad 863e 68ba 9d3d ce9a 283e
000001c0: da9d 543d 7d48 243e 390f bfbd 2daf 623d
000001d0: 71b8 98be 7b4d 923e 5c6d 47be 5045 2f40
000001e0: cf2b ef3c 434d 443e c68b 5abd 290a cb3e
000001f0: 7fa1 71bd e4ba 52be 2a43 1b3e 48e0 0b3f
00000200: 48d7 933e 17d5 e9bf a3ac c73e f093 da3d
00000210: ff5f 0c3f 8c20 a1be 3992 ecbe 9414 b33e
00000220: 4851 9cbe 3ee4 913f 8b0e 54bf 7c8c 4cbe
00000230: e15d 27be 39c9 333f c89e 77be a542 6e40
00000240: 0b41 723e 2477 ddbc 3a01 863e 71cd c53e
00000250: 6ee4 a53d 1367 22bf b4ae 19be 51fe d43d
00000260: 7234 8cbe a133 563f 5cc4 11bf 03ea 66bb
00000270: 1ec9 ee3e ac35 90bf 8049 5fbf 3cd6 3e3e
00000280: c8ba 20be b040 393e fb5f bebe a36b a73e
00000290: fc35 773d ead9 25bf e3f8 0dbe 0525 bd3c
000002a0: 17b3 a93d bb5b 633d a1fb 5d3c 2ef9 ec3e
000002b0: 814b 1d3e 266b fcbd 3737 a2bd a38b 743f
000002c0: eebc bf3e d401 b1be 5757 8f3f 6073 1ebf
000002d0: b104 d03e 40cd 263e eb69 e1bc cc57 513f
000002e0: 7250 d33d 69ed a8bf 4c83 edbc dc10 d33e
000002f0: ecc1 b03e b942 a0bf dd59 443e 9823 363f
00000300: fef4 6fbd e846 a23e af10 29bf 8b60 083f
00000310: b499 8dbe ae07 c23e a8ee b4bd 6351 2c40
00000320: b2a8 c43d 5dbd 923e 1538 343f c9f0 c13f
00000330: f6e8 313e 2e0a 87bf 1edf 13bd 88db 49be
00000340: 8a47 57be a4ea a83e d33e bfbe a4d7 b7be
00000350: 97cf 2c3e 2100 7f3c e4f4 d53d 24d0 ec3d
00000360: f926 0d3f cb10 1a3e 8d96 29bf 8b63 ecbe
00000370: c6dc e9bd 49cd 603f a77f 4d3f 5d28 d43f
00000380: f9a2 7bbe efa8 bc3f 903e e2be 21f9 4f40
00000390: ee7d 88be ee4b 833e 0eb0 abbe 6a6c 1840
000003a0: 1b35 c33d 1fe9 0abf 86a2 8f3e 37d8 363e
000003b0: b3c2 dd3d b289 0f3d 0c5b 203f 4299 9d3f
000003c0: fdad f0be 8e77 df3d aba3 4abd 8afb ac3e
000003d0: 171f f2bd 4871 eebe 1ea2 a53e f7a9 24bf
000003e0: d325 533d c37c 55bf b8bf 9b3e db87 d63d
000003f0: efb8 b23e a0ac d13e 9c6b a73f adf6 bbbe
0.06705723 0.37952432 0.08432658 1.4127325 -0.073387 -0.19448984 -0.3643876 -0.13883677
0.46870467 -0.48131245 0.018175175 -0.07233866 0.04575691 -0.17977136 -1.5817744 -2.2659738
0.33036542 -1.0165967 0.019715559 -1.3750736 0.03208929 -0.2305635 -0.11537659 -0.28993386
0.4989795 0.48747543 -1.4245837 0.043846477 -0.092542715 0.7075265 0.8346286 -0.16064721
-0.08312099 0.0039421427 -0.6051457 0.47404525 -0.32591516 0.6269555 -0.104116514 0.36851996
0.088297576 0.58742607 -1.5403911 -1.6222783 -0.1414693 0.12290495 -1.5252765 0.20688374
0.17503792 -0.1354815 -0.017482411 0.3540365 -0.17947812 -0.16252595 0.19373791 -0.2013951
0.28210643 -0.91258955 -0.37985474 1.6558805 -0.21014632 0.47805953 -0.56495273 0.5448688
-0.23726545 0.8951141 -0.39185786 0.102252126 -0.31298733 0.16912232 -0.3129121 0.37658682
0.8048577 -1.9064248 0.4820696 1.1646574 -0.042975385 0.14138003 -0.28115994 0.2176679
0.7571729 0.4405233 0.097909614 1.0184201 -0.14161392 -0.020816104 -0.07665871 -0.038220488
-0.0941511 0.60444987 0.9861904 -0.12360462 -0.2557423 1.2047684 0.030166682 0.4471394
-0.09276495 0.048450153 -3.448743 -0.21950862 0.118649036 -0.17875805 0.7825245 -0.13115677
0.19106802 0.4219319 -0.15395887 0.22460979 -0.13628669 0.26304263 0.0770157 0.16465303
0.05190835 0.16043277 -0.09329075 0.055342842 -0.29828218 0.28574738 -0.19475311 2.7386055
0.029195694 0.19170098 -0.053355955 0.3965619 -0.058991905 -0.20579106 0.1516234 0.546391
0.28875184 -1.8268155 0.389989 0.10672748 0.5483398 -0.31470144 -0.4620531 0.34976637
-0.30530763 1.1397779 -0.8283469 -0.19975466 -0.16344406 0.70228916 -0.24181664 3.7228177
0.23657624 -0.02703435 0.2617281 0.38633302 0.0810021 -0.6343853 -0.1500805 0.104000695
-0.27383763 0.8367253 -0.56940246 -0.0035234697 0.46637815 -1.1266379 -0.8722153 0.18636411
-0.15696251 0.18091083 -0.37182602 0.32699308 0.060354218 -0.64785635 -0.13864474 0.023088941
0.08286112 0.055507403 0.013548763 0.4628386 0.15360834 -0.123251244 -0.07920688 0.9552557
0.3744883 -0.34571707 1.1198529 -0.618948 0.4062858 0.16289234 -0.027516326 0.8177459
0.10318078 -1.3197452 -0.028993271 0.412238 0.3452295 -1.2520362 0.19174905 0.7114806
-0.058583252 0.31694722 -0.6604108 0.5327231 -0.2765633 0.37896484 -0.088345826 2.6924675
0.096024886 0.28660098 0.70398074 1.5151607 0.17374024 -1.0549982 -0.036101453 -0.19712651
-0.21023384 0.32991517 -0.3735262 -0.35906708 0.16876064 0.015563996 0.104471 0.11563137
0.5513759 0.15045469 -0.6624535 -0.46169695 -0.11419062 0.8781324 0.80272907 1.6574818
-0.24573888 1.4739054 -0.44188356 3.2495806 -0.26658577 0.25643867 -0.33532757 2.381617
0.095316134 -0.54261965 0.28053683 0.17855917 0.108281516 0.035043426 0.62638927 1.2312396
-0.47007743 0.10911475 -0.049472492 0.3378566 -0.11822336 -0.46570802 0.32350248 -0.64321846
0.051549744 -0.83393496 0.30419707 0.10475131 0.34906718 0.40952015 1.3079715 -0.36711636

weight_hh_l0 f4 [512, 128]
00000000: dda0 8abe 14b8 90be f787 fa3e 00ed c33e
00000010: cdf3 80be 309c 333e 1e4d 2a3f 9178 bc3e
00000020: 06b4 663e 1b72 a6be 2189 17be 295c 5bbd
00000030: 58d0 5f3e f0b4 09bf 7f66 843e c310 903e
00000040: 65dc 89be d7f8 623e 37dd 4ebf 3ab7 413e
00000050: 288e f8bd 7e58 ec3d 8ae8 a9be c010 55be
00000060: 15e8 07bf 2849 ed3e 096f b03d e300 2fbf
00000070: 4691 d8be b55f 3ebf 12e1 043e c7c3 21bf
00000080: d6fb b03e 0ddf 0b3e 8cd5 62be 06a0 a83e
00000090: 116d bfbd 7ea4 973d 25e9 013e 7ac5 70bf
000000a0: e353 6f3e aa18 a33e 4629 b23d ba5a 5bbe
000000b0: 1687 17bf 81b6 8e3d e44b 77bf 0554 393f
000000c0: bd3b 453f 2be4 923f c21d 16bf 0e0e 72bd
000000d0: 81b9 483e 5a55 80be e066 75be 343b 40bf
000000e0: 8a7b bdbe 7991 6a3e 967d 1bbe 897f 243f
000000f0: 3ecb d0be 5afa 98bd d395 5e3e 4e5b f43e
00000100: 5a91 12bf 7c4e 313d d7ae aebe 7e94 c03b
00000110: 1f0d 04bf c094 93bd f28e 843e 0bca ad3e
00000120: a69e efbd 7369 42bf c1cb 45bf 917d 38bf
00000130: 9fee 76bc bddb 983d 732f c3bf 1f79 0bbe
00000140: 1609 c0be 4c50 ad3d 3d53 9d3f 6b77 50bf
00000150: 57ea 43be 2cf4 35be dce0 94be c6f8 013e
00000160: 6762 f4bd c938 f1bd 410d a9be dba1 43be
00000170: 4886 163f a410 bf3e 4a35 dfbd 9117 b23e
00000180: 96e9 603d 9144 3cbf 1092 54be 87f8 223b
00000190: 06d2 523e 2f89 71be f254 adbe 7d11 3d3f
000001a0: f6d0 ff3d 70ba 993e ec73 103e fdab 50bf
000001b0: 63b5 c73f e656 0ebe 9813 3abe fa14 34bf
000001c0: 3917 2fbc ec1b 0c3f b19b 4d3e e68d 78be
000001d0: ae8e 82be 935d 29be 5eff e5bd 1111 01be
000001e0: 3555 a9bd 307c 053f afa6 263d a0f1 5dbe
000001f0: 9fb0 e53d 7ff7 86be eaaa fdbd fbcb 6a3d
00000200: 9e0c 39bf e0c0 17be 4e35 1d3f a6b1 a23d
00000210: fb15 c83c ba5f 0d3f d4ef 853e f88f d13e
00000220: 151e 45bf 9247 61bf ea80 163e da9b cbbd
00000230: 4748 a93e b38f 183e 5ed6 33bf f6c6 fe3e
00000240: a110 03bf 9f88 843e 9658 4ebe 77db 22bf
00000250: 39d0 18bf 1d57 033f 4764 b83c e2f3 283e
00000260: 2f06 5f3c 47c8 ad3e bf65 f43e 731f d03d
00000270: da63 eabe 19ea edbe 7c2c 1c3f 04de a73c
00000280: 4fc7 59be 9167 e13e ff3e b73e c7eb 4abd
00000290: 709d f6bd 1314 233e 83a9 dfbe cee6 88bf
000002a0: 03b1 853e 704b 153f 424b 87be db9e 113e
000002b0: ce82 3a3e f92c ffbd 1593 2e3d 6064 cdbd
000002c0: e5ec e93d 8ca6 c03f dd1c 753f 5e6c 8bbe
000002d0: f7f3 6fbe 5586 f9bd 8ab9 cf3e f6c7 dbbe
000002e0: fa29 c3be 46a5 e2be f0df 45bd 7cf6 3cbe
000002f0: 8439 14bf 2f5e 9abe e434 65be 059e c2bd
00000300: 2f06 39be 2cdf 2b3f fbac b0be af0c 41bd
00000310: 79e9 c3be 2fb4 0c3e c643 36be cd39 043f
00000320: 09f5 5d3e 719e ecbd 3691 f7be 384c 52be
00000330: c91c b13d deaf f5bc 4be4 d5be fdcb 84be
00000340: aa65 0dbe 9a4f 83bf e6b0 a83b b72b 9fbf
00000350: 5b6a bcbe eb13 053e 6963 0dbc fbc5 393f
00000360: def6 3dbf da77 f2be 9ac5 7cbe 10f7 7e3e
00000370: d067 9e3e 32ce 853e 64e6 ffbe da1d 7e3c
00000380: c710 9fbe 763a fa3e 8ef5 3b3e d18c b8bd
00000390: 77af 083e c24a 17bf aba9 9e3e b612 293f
000003a0: 3031 003e 4941 18bd 5b22 823e dc2d 1fbf
000003b0: 1f20 933f 4be5 49be f80c b83b 1865 cfbe
000003c0: 40a0 243f ca49 403e a00f 26bf 7056 083f
000003d0: 3714 65be 4bfb 36be 7878 77bf d089 15be
000003e0: e997 89be b9b9 0e3c d009 2a3e 2371 4a3d
000003f0: cd0b e8be 3b21 e63e bc53 d7bd 6b70 b2be
-0.27075854 -0.2826544 0.48931858 0.38266754 -0.25186005 0.1754005 0.6652392 0.36810735
0.22529611 -0.3250893 -0.14798404 -0.053554688 0.2185682 -0.53791714 0.25859448 0.28137788
-0.2692596 0.22165237 -0.808063 0.18917552 -0.12136489 0.11540316 -0.33185226 -0.20807171
-0.53088504 0.46344876 0.08614928 -0.6836073 -0.42298335 -0.7436479 0.12976483 -0.6318936
0.34567136 0.13659306 -0.22151774 0.32934588 -0.09346975 0.07404421 0.12686594 -0.94051325
0.23371844 0.31854755 0.086992785 -0.21421328 -0.591905 0.069684036 -0.96600175 0.7239383
0.7704428 1.1475881 -0.58639157 -0.059095435 0.19602014 -0.25065118 -0.23965025 -0.75090337
-0.37008315 0.22907056 -0.15184626 0.64257103 -0.4078006 -0.07469626 0.21736841 0.4772591
-0.5725304 0.04328774 -0.34117767 0.0058770766 -0.5158252 -0.07206106 0.2589031 0.3394321
-0.11700182 -0.7594215 -0.7726403 -0.720666 -0.01507154 0.07463787 -1.5248855 -0.13620423
-0.37506932 0.08462581 1.2291027 -0.8143222 -0.19132362 -0.17768925 -0.29077804 0.12692556
-0.11932831 -0.11778409 -0.33017924 -0.19104712 0.58798647 0.37317383 -0.10898836 0.34783605
0.054910265 -0.73542124 -0.20758843 0.0024867372 0.2058793 -0.23587488 -0.3385387 0.7385481
0.12491028 0.30025053 0.1410672 -0.81512433 1.560223 -0.13900337 -0.18171537 -0.7034451
-0.010686689 0.54730105 0.20078923 -0.2427288 -0.2549948 -0.16539602 -0.11230348 -0.12604167
-0.08268205 0.5214262 0.040686306 -0.21674204 0.112153284 -0.263607 -0.12386115 0.057323437
-0.7228488 -0.1481967 0.6140946 0.0794404 0.024424544 0.5522419 0.26159537 0.40930152
-0.76999027 -0.8799983 0.14697614 -0.09941836 0.33062956 0.14898567 -0.70248973 0.4976117
-0.5119725 0.25885484 -0.2015098 -0.63616127 -0.5969272 0.513048 0.022508753 0.16499284
0.013612314 0.33941862 0.47733876 0.101622485 -0.45779306 -0.46467665 0.6100538 0.020491607
-0.21267436 0.44024327 0.3579025 -0.04954126 -0.120417476 0.15925626 -0.43684015 -1.0695436
0.26111612 0.58318233 -0.26424605 0.14220755 0.1821396 -0.1245975 0.042620737 -0.10028911
0.11422137 1.5050826 0.95747167 -0.27231115 -0.23432909 -0.12183825 0.40571243 -0.42925996
-0.38117963 -0.4426672 -0.048309267 -0.18453401 -0.5790026 -0.3014998 -0.22383457 -0.09502796
-0.18068765 0.6713741 -0.34506974 -0.047131237 -0.38264063 0.1374061 -0.17799291 0.51650697
0.21675505 -0.11553658 -0.48352975 -0.20536888 0.086480685 -0.029991087 -0.41775736 -0.2593688
-0.13808313 -1.0258667 0.005148041 -1.2435216 -0.36799893 0.1299588 -0.008629658 0.7256772
-0.74204814 -0.47357064 -0.24684754 0.24898934 0.30938578 0.26133877 -0.49980462 0.015510047
-0.31067488 0.48872727 0.1835539 -0.090112336 0.13348185 -0.59098446 0.3098882 0.66044176
0.12518764 -0.037171636 0.25416836 -0.6217935 1.1494178 -0.19716375 0.0056167804 -0.40506816
0.6430702 0.18778148 -0.6486759 0.53256893 -0.22370993 -0.17869298 -0.96668196 -0.14603353
-0.2687371 0.008711272 0.16605306 0.0494243 -0.45321503 0.44947228 -0.10514018 -0.34851393

bias_ih_l0 f4 [512]
00000000: 548b 603e a434 81be 966f ec3e dca2 d63e
00000010: 33fe 963e c3f9 e0bd 924d 4f3f 6f89 7b3e
00000020: 7e39 20be 62ae adbd 4e65 623f 15e5 2e3e
00000030: e4cb 153e e6aa bcbd 00f4 2e3e bc21 09bd
00000040: 2549 a9bd e813 69be dc5b 5fbd 0aba f4ba
00000050: 2b9a 843f 2a3e 27be 0544 cd3d c508 bcbd
00000060: 3f38 5b3e b5ff 46bc 9c5e b53e 9d59 74bd
00000070: 6356 a5bd 84af 86be 8d9d 18be aa1b 463e
00000080: ef6e 1e3d 5f33 1d3f 650b c83c 6e51 bb3b
00000090: 908c 1f3e fdff 75be cf92 3cbe 015c 963e
000000a0: b065 67be cb45 49be c9ca d2bd 98ea af3d
000000b0: 562a 6e3e 4e96 203f 7fa2 1d3d bc77 933d
000000c0: 8a89 3a3e 7a43 45be 8640 4a3e 8470 353e
000000d0: d318 fcbd 5444 193d ae15 543f 8287 8f3e
000000e0: 1e15 883d d4e4 75be c4ce 5e3c 21b6 fc3c
000000f0: 73cd 61be afdc f73d 54cc 18be 4e7c 443f
00000100: d8c1 f33c 7b1e 33bd 8760 b9bd 5ac1 0b3f
00000110: aef6 523e 776b 69bd fc2d 1ebd 67f7 3dbe
00000120: 1197 413f 3133 0e3e 1160 b13d a48a a83d
00000130: 9e82 1bbe cee0 143d 7d12 493f b9df 9d3e
00000140: ad17 eabc 0612 753d aece 023f 61e2 73bd
00000150: 85cf 633e 6a78 dc3d f3c9 48be 5300 9bbe
00000160: 4915 20be 4845 e43d d539 693d 756e 743f
00000170: ac28 023f 1c38 483e fac9 3fbe 8efc ed3e
00000180: 8dee 63be 17b6 483e 288c 153f 204c 993d
00000190: b55a 9dba c8c3 26be 9508 5c3d d0eb 9a3e
000001a0: 6e4b b13e eff8 243e bf52 ad3e 96b2 e8bd
000001b0: a360 e73c 1f2f c03e 9d92 b83e 5ab2 7cbd
000001c0: 19b1 c63c 0555 36bd 091f 2ebe 3435 dabc
000001d0: e992 70be af29 f43d 04b8 853d a638 5b3e
000001e0: 772d 63bd a185 3a3e 7ee3 92be e915 bd3e
000001f0: bbd6 85bd a960 ecbe 4361 b4bc 10b4 9abe
00000200: b839 45be 1c8c b6be b585 8bbe 64e4 6fbe
00000210: ae2b 8fbe e7d9 ffbd 2e6a 4fbe 9cdb 4fbe
00000220: b750 7fbe 00cc bdbd cd2c c5bd ed45 563c
00000230: 7672 01be 9957 20be 8af6 ebbd 5cf9 32be
00000240: 4740 eabd 7fac 2fbe 3e8d a1be 649d 5ebe
00000250: cbec 93bd 4519 bdbd 99da 80be 12f4 87bc
00000260: 2945 c8bd 34cb 84be 7b6c 04be 6b60 c7bd
00000270: 4349 d9bd 2293 a4bd 7d4c abbe 00d4 2ebe
00000280: d699 47be 5676 c0bc 687f d2bd 031e 543d
00000290: 181b 9ebd b960 60bd 8211 023c 6877 4bbe
000002a0: 596e bbbd 327f 0ebe b126 6bbe b30d bcbe
000002b0: 3de5 c0be 5fcf a0be 55df c7bc 4038 46be
000002c0: c226 cd3c 439c 2bbe b721 1ebe 81e4 a5bc
000002d0: 3525 e7bd fcb7 9aba 01d2 c3bd 0c5b 79be
000002e0: 5f00 59be 950f 7fbe fa4e 0fbe 3a62 90be
000002f0: 32fc 77be 2764 10be 0dfd 24be 6fb4 33be
00000300: e152 a2bd 499d 17be 1122 b0bb 1036 83be
00000310: 3786 3cbd f269 01bd b254 2fbe ced0 a1be
00000320: a4e9 6cbe 8339 55be 2d69 e7bc 151e 8cbd
00000330: 20c7 8fbe 5158 83bd 35be b0be 345a 86bd
00000340: a66f f7bd eeb3 15be 02d3 c4bd cd1b aabe
00000350: 7664 b4bd 591e b5be ac98 63be 9ecd 32be
00000360: b16b 6dbe 293c 313e c975 07be 612b 13be
00000370: 931b 18be a7e9 77bd c64e 0dbe 56cd 82be
00000380: 7f5c 7e3c 7320 66be 210c 46bc 04dc 343c
00000390: 34b7 dfbe 4f25 07bd 821b a2bd 3ca7 f1bd
000003a0: 6619 6bbd 0a66 fabd 1187 4ebe abbb adbd
000003b0: 1f57 0abe 1a60 443c b006 a0be 2ad1 a1be
000003c0: 8670 26be 54ef 92be 4e6d 72be 6bb1 85be
000003d0: 40a5 cf3c 14b5 0b3c 0ee9 67bc ae24 8bbe
000003e0: a5f8 63be 511a 35be ba6c 7bbd 70e0 8ebe
000003f0: 5984 30be dafc 6e3c 684c 34bd 360e dbbc
0.2192815 -0.25235474 0.46178883 0.41921127 0.29490814 -0.10985138 0.8097774 0.24564146
-0.15646932 -0.084805265 0.8843583 0.17079575 0.1462856 -0.09212284 0.17085266 -0.033479437
-0.08265904 -0.227615 -0.054530963 -0.0018671167 1.0359548 -0.16332307 0.10022739 -0.0918136
0.21408175 -0.012145926 0.35423744 -0.059655774 -0.080731176 -0.26305783 -0.14903851 0.1934649
0.038680013 0.6140651 0.024419496 0.0057164943 0.15580964 -0.24023433 -0.18415378 0.29367068
-0.22597384 -0.1965553 -0.102925844 0.08589667 0.23258337 0.62729347 0.038485046 0.07200572
0.1821653 -0.19264022 0.19751176 0.17718703 -0.12309422 0.03741868 0.8284558 0.28033072
0.06644653 -0.24013072 0.013599101 0.030848565 -0.22051029 0.12102639 -0.14921695 0.76752174
0.029755518 -0.04373024 -0.09051614 0.54591906 0.20601913 -0.056987252 -0.038618073 -0.18551408
0.75621134 0.13886715 0.08660901 0.082295686 -0.15186545 0.036347203 0.78543836 0.3083475
-0.028575743 0.05983164 0.5109662 -0.059542064 0.22247131 0.10765155 -0.19608288 -0.30273685
-0.1563312 0.11146027 0.05693992 0.95481044 0.5084331 0.19552654 -0.18729392 0.46481746
-0.22258969 0.19600712 0.58416986 0.07485223 -0.0012005182 -0.16285622 0.053719122 0.30258036
0.3462786 0.16110586 0.33852193 -0.113621876 0.028244322 0.3753595 0.36049357 -0.061693527
0.024254369 -0.044514675 -0.17004026 -0.026636697 -0.23493542 0.11922013 0.06529239 0.21408328
-0.05546328 0.18215038 -0.28689188 0.3693078 -0.06535097 -0.46167496 -0.022019034 -0.30215502
-0.19260299 -0.3565377 -0.27250448 -0.23426968 -0.27963012 -0.124927334 -0.20255348 -0.20298618
-0.24933134 -0.092674255 -0.09627686 0.013078195 -0.1264132 -0.15658416 -0.11521633 -0.17477936
-0.11438041 -0.17155646 -0.31553072 -0.21739727 -0.07222899 -0.092333354 -0.25166777 -0.016595874
-0.09778816 -0.25936282 -0.12932007 -0.09735187 -0.10609677 -0.08035876 -0.33456793 -0.17073059
-0.19492278 -0.023493927 -0.10278207 0.051786434 -0.077200115 -0.054779742 0.0079387445 -0.19869769
-0.091519065 -0.13915709 -0.22963978 -0.36729202 -0.37674895 -0.31408212 -0.024398485 -0.19357395
0.025042895 -0.16758828 -0.15442549 -0.02025056 -0.112863936 -0.0011804099 -0.095615394 -0.24351138
-0.21191548 -0.24908288 -0.13994971 -0.2819994 -0.24217299 -0.14100705 -0.16112156 -0.17549299
-0.07925964 -0.14806093 -0.005375155 -0.25627184 -0.046026435 -0.031595178 -0.17122152 -0.31604618
-0.23136002 -0.2082272 -0.028248394 -0.06841675 -0.28081608 -0.064133294 -0.34520116 -0.06560174
-0.12081842 -0.14619419 -0.09610559 -0.33224335 -0.08808224 -0.35374716 -0.22226208 -0.17461249
-0.23185612 0.17308106 -0.13228525 -0.14372016 -0.14854269 -0.060525563 -0.13799581 -0.25547284
0.0155249825 -0.22473316 -0.012087853 0.011038784 -0.4369446 -0.032994565 -0.07915403 -0.117994756
-0.05739727 -0.12226494 -0.20168711 -0.084830604 -0.13509797 0.011985803 -0.31255102 -0.31604892
-0.16253862 -0.28698218 -0.23674509 -0.26111922 0.025347352 0.008527059 -0.014154686 -0.27176422
-0.22262819 -0.1768582 -0.061382987 -0.27905607 -0.17237987 0.014586652 -0.04401818 -0.026740175

bias_hh_l0 f4 [512]
00000000: f771 f53d 1991 90be 1125 073f 1f09 f23e
00000010: 1d64 8c3e 1a73 97bd 6e8c 353f 24a7 843e
00000020: b38c 3ebe 28fe 93bd 98e8 6e3f aa77 a43d
00000030: 5aaf 293e 7815 39be 92a2 713d 9c6b 163d
00000040: 8cb4 e7bd bd5e a4be a9a0 68bc cedf bf3d
00000050: 3555 943f 3f64 e5bd 21e0 1c3d 5cbd ff3b
00000060: e4ff ac3e 130c 9c3d 1396 d03e c4b0 833d
00000070: 8e9b 76bc 21f1 8abe f977 9dbc 51a9 4c3e
00000080: 6b24 c7bc 21f8 043f 641e e73c b840 bc3d
00000090: 755f f23d 6218 0bbe 2443 55be 5826 d63e
000000a0: 0b2c ccbd cd8e 25be 462a 9ebd 2094 28bd
000000b0: f6dc 343e 94ec 2a3f b383 36bd ca44 3f3e
000000c0: 500e 9a3d 5127 92be 4613 963e a428 3b3d
000000d0: fa5d 06bd 35fc 19bc dfb9 593f b159 ab3e
000000e0: 8764 bc3d da30 6dbe b19d abbc 4178 f23d
000000f0: 1cdf 16be be84 d03c 7821 b2bd 5cab 333f
00000100: fa48 efbc b02a 963c 3bfc 1bbd ec0a 0a3f
00000110: 7eb7 813e d641 d1bd a6d9 9dbd 7238 27be
00000120: 4c53 4b3f 2b42 413e e0ab 873d c0bd 283d
00000130: f0f1 d3bd a5c3 403d 4549 303f a181 833e
00000140: 1fbb e13c 1286 e33c 3e77 0b3f 902c 07be
00000150: 047c 343e 114a 413e fe52 04be ff90 ecbe
00000160: 8f74 49be 30c3 a33d fbd2 1a3d 46b0 6d3f
00000170: 1d15 df3e 757c 403e 3c3f 19be d60f d13e
00000180: 10a1 5abe ca4c 553d aad7 f13e 0a10 333e
00000190: 673a 8abd dcab 7fbe 097f 423d ec57 9c3e
000001a0: 82d2 753e 651f 513e 5cb9 bf3e 6d9c b3bd
000001b0: b01c 0c3e db8b b83e b06d b53e ce4b 5cbd
000001c0: 9dc4 4abd 3916 5bbd 9c43 e7bd 7a52 e0bd
000001d0: 3053 50be 60c9 4c3e a66f b9bd 6542 553e
000001e0: e4d8 3fbd 74f5 753e 9659 b4be 5743 633e
000001f0: 0c81 46be ce87 e9be 3523 62bd 95eb 3ebe
00000200: 1c8a 6ebe e758 a1be 49c2 54be 56d5 9ebe
00000210: 494d 43be 3569 ee3c 8af4 43be 2b89 7cbe
00000220: a20d 38be dbfd efbc a00d 71be d562 40ba
00000230: 0b0c cfbc 650c 39bd 5250 05be 4f68 56be
00000240: 92d0 1abe 2e3c 44be fe07 bdbe af58 38be
00000250: 67df aebd c7aa 7dbe 1c79 b0be 5b7f 04bb
00000260: 2835 12be 9e4d 7cbe f094 d0bd 6fc8 5fbc
00000270: d991 9abd 6f17 89bb 304e 80be 6192 a0be
00000280: 68fb 85be 1a66 8d3d 99f6 bbbd b903 de3d
00000290: 8a1c 4bbe c380 bfbd 4b36 fdbd e39b 5cbe
000002a0: 24eb 35be 331e 3dbd 8ee5 29be 9c1a cabe
000002b0: 92bb ffbe d77b a0be 754c 28bc 2137 73be
000002c0: 647f c3bd 30cc f6bc 262e 19be 0074 21be
000002d0: 84a7 353d 6eee 41bc 8dc2 81bd 1479 9fbe
000002e0: 7a1a 5dbe 3f91 1bbe d228 03bd b542 8cbe
000002f0: c291 b9be 0276 3abe 2c73 22be 468f 85be
00000300: 1288 0e3d ce38 fcbd d511 dcbd f68a 2abe
00000310: 1794 fabc 2462 6fbd 3cff 0dbe d199 56be
00000320: 5060 b0bd f48f 2cbe da35 9a3d 49c0 7cbd
00000330: a138 8bbe d1fd febd 0608 bcbe 29c6 0cbe
00000340: b929 8f3c 9b8a 90be 8028 7bbe f2d3 81be
00000350: df0d 0fbc 4b47 b0be abbf 55be a47a 19be
00000360: 954f a9bd 4092 bd3d 5ec1 36bd d016 36be
00000370: 2637 2bbe d9e0 3ebe f935 dbbd 9083 b1be
00000380: c1c1 c1bd 07e6 a5be 07f9 81bc 3406 8e3c
00000390: 6b86 90be 8841 e1bd e16d 27be 2971 52be
000003a0: 0ea9 00be b203 4ebe 9787 9dbd 1fcf e5bd
000003b0: 7183 3cbe 143b e63c bfe7 72be 106a 65be
000003c0: b420 f9bd f32f 7ebe c9f9 93be 047b 79be
000003d0: e031 86bb 3999 46bc b557 a6bd f2a5 f8bd
000003e0: aca5 5fbe 272b 07be 4bf6 06be d0b9 8fbe
000003f0: ff87 f6bd f187 f8bb 4509 413d 6d56 aa3b
0.11984628 -0.282357 0.52790934 0.47272584 0.2742013 -0.07395001 0.70917404 0.25908768
-0.1860836 -0.07226211 0.9332366 0.080306366 0.16570798 -0.18074596 0.05899293 0.036723718
-0.113137335 -0.3210353 -0.014198461 0.09368859 1.1588503 -0.11200761 0.038299683 0.007804556
0.3378898 0.076194905 0.40739498 0.064302 -0.015051736 -0.27137092 -0.019222246 0.19986464
-0.024309358 0.51941115 0.028212734 0.091920316 0.11834613 -0.1358352 -0.20826393 0.4182613
-0.09969338 -0.16167755 -0.07722907 -0.041156888 0.17662415 0.6676724 -0.044559192 0.18678585
0.07522261 -0.2854562 0.2931158 0.045693055 -0.032804467 -0.00939851 0.8504924 0.33466867
0.091988616 -0.23163167 -0.020949217 0.11839343 -0.14733547 0.025453921 -0.0869779 0.7018335
-0.029209603 0.018330902 -0.038082343 0.53922915 0.25335306 -0.10217635 -0.07707529 -0.16330126
0.79423976 0.18872897 0.066245794 0.041196585 -0.1034888 0.04706158 0.688618 0.25684837
0.027555047 0.02777389 0.54478824 -0.13200593 0.17625433 0.1887591 -0.12922284 -0.46204373
-0.1967337 0.079962134 0.037798863 0.92847097 0.43570796 0.18797477 -0.14965528 0.40832394
-0.21350503 0.052075185 0.4723485 0.17486587 -0.067494206 -0.24967903 0.04748443 0.3053583
0.24006084 0.20422132 0.37446105 -0.0877007 0.13682818 0.360442 0.35435247 -0.05378323
-0.04950391 -0.05348799 -0.11292192 -0.10953231 -0.20344234 0.19998693 -0.090544984 0.20826109
-0.046837702 0.24019414 -0.352246 0.22193657 -0.19385165 -0.45611423 -0.055209357 -0.18644555
-0.23294872 -0.3151314 -0.20777239 -0.31022137 -0.1907245 0.029102901 -0.19136253 -0.246617
-0.1797395 -0.029295852 -0.23540354 -0.0007338946 -0.025274297 -0.045177836 -0.13018921 -0.20938228
-0.15118626 -0.19163582 -0.3692016 -0.1800258 -0.08538704 -0.24772178 -0.344674 -0.0020217511
-0.1427809 -0.24638984 -0.101846576 -0.013658627 -0.075473495 -0.0041837017 -0.25059652 -0.31361678
-0.2616837 0.0690424 -0.09177894 0.10840554 -0.19835106 -0.09350731 -0.12363871 -0.21543841
-0.1776548 -0.04617138 -0.16591474 -0.39473426 -0.49947792 -0.31344482 -0.010272135 -0.23751499
-0.09545782 -0.030126661 -0.1495901 -0.15766907 0.04434921 -0.011836631 -0.06335936 -0.31147063
-0.21592131 -0.15192126 -0.03202135 -0.27394643 -0.36244017 -0.18209079 -0.15864247 -0.2608587
0.034797736 -0.12315522 -0.10745589 -0.16654572 -0.030588193 -0.058443204 -0.13866895 -0.20957114
-0.0861212 -0.16851789 0.075298026 -0.061706815 -0.27191642 -0.124507554 -0.3672487 -0.13747467
0.01747595 -0.28230748 -0.24527168 -0.25357014 -0.0087313345 -0.34429392 -0.20873897 -0.1498819
-0.08267132 0.092564106 -0.044618003 -0.1778214 -0.16720256 -0.1864046 -0.10703654 -0.34670687
-0.09460784 -0.3240206 -0.015865816 0.017336942 -0.28227553 -0.10998827 -0.16350509 -0.2055098
-0.12564489 -0.20118597 -0.07691877 -0.11221146 -0.18409516 0.028104343 -0.23721217 -0.22403741
-0.12164441 -0.24822979 -0.28901508 -0.24363333 -0.004095301 -0.012121492 -0.081221975 -0.121410266
-0.21840543 -0.13200055 -0.13179891 -0.2807145 -0.12037658 -0.007584565 0.04712798 0.005198291

weight f4 [4, 128]
00000000: 3c74 14bc aa47 f83c f746 25bc f2f1 a2bc
00000010: 5fd9 b73b f06f 0b3e c4e4 21bf 8ac1 973e
00000020: 4fe6 fcbd e165 7abe 1f78 413e 2804 9e3e
00000030: e675 9ebd 178d 0bbf 28e1 36be 8ca6 163e
00000040: fe1a 73be b5c5 5b3e c8e0 773f 0ad1 8dbe
00000050: 0fe5 f4be b277 3e3d 879b a5be 275d 933e
00000060: bbc0 db3e 8ed1 12bd cfa5 bd3d 4031 50be
00000070: 1086 e93d 0ba3 b93b 35fd e8bd d622 57be
00000080: 4434 c93d 3f60 9bbe 65d0 2dbc 1551 813d
00000090: 7a85 c83e d22e b4bd 4aa4 b9bd bbe9 923d
000000a0: 6dd3 80be f7cf 653e e671 083e ee39 6a3d
000000b0: 5755 3cbd 6a3b c43c 5fad 933d eeb5 b33e
000000c0: f4c9 293e d10b c13d d666 cb3e 06c3 91be
000000d0: 121c 87be 7163 89be f691 dabd 1b44 21be
000000e0: eea0 e83d 6831 e2bc 4830 7c3e 0781 a23e
000000f0: db4f 02be fa16 91bb abca 1fbe b7f6 84be
00000100: 4ab4 34be d6ed f73d d431 143e 7286 6e3e
00000110: bc2e 613e 999f 4dbd f508 d7bd b25c 4c3e
00000120: ce4e c73d 54bf 713d 26cc dabc a2ea bdbe
00000130: ca81 833e e997 d83f a820 0cbe c5af 51be
00000140: 02b6 463e d50c 9ebd 3bcd 90be b5b8 3cbc
00000150: 4f40 e2be 0a69 c83e 0961 a9bc 20eb 87bc
00000160: 9813 62be 2bde ad3c 76e7 823e f957 3bbe
00000170: 8905 803e 7394 203d 1f34 163e 6306 40bf
00000180: 39d7 ccbc eb3d d43e 8cba 1ebd b338 83be
00000190: 6830 3cbe e946 493e 66c5 b4bd ecba 4d3f
000001a0: ecb5 6bbf 6f24 2b3f ff02 61bd 41a5 273c
000001b0: 006a 003d 9aed 8c3e 115e b13c 2393 ec3d
000001c0: e492 07be 387c f63c 568e c13d 641c 8d3e
000001d0: 9c2c 69bd 35cd b2be aae2 00bd 1d0b a03d
000001e0: 90b4 fd3e d323 abbe 169d 6a3c ed9d 8e3c
000001f0: 8942 ac3c 4101 4abc 2f57 273c b9cd 2ebe
00000200: 9df0 f33c d0aa 413e 4d40 1abd 259b ef3b
00000210: 4650 7e3d b4c4 d13d b8cf 053e 74d3 503e
00000220: 2b35 23be 4511 3cbd af91 ffbd b967 e73d
00000230: 61f5 2dbb 26b1 2c3e af33 bcbe 1df0 8d3d
00000240: f887 e2bd 59a8 f63d 37f9 3ebe 5fee 28be
00000250: 9e3d 54be 2e88 d53d d669 32be 095f b73d
00000260: 0864 00be df42 e53c acf7 4dbd 1478 a9bd
00000270: b223 263e dfe4 b0ba 836b 013e 4337 663d
00000280: 6e3c b5be 4698 4fbd c0f3 cf3b 98e6 9e3c
00000290: 2185 9b3e 1773 9dbe 64a9 5ebe 98cc bf3c
000002a0: e39a b1be 9f5a 54bd 4893 94bc 0b21 ca3c
000002b0: e958 d9be ef3f b73c 1f98 c93e 243e 7cbe
000002c0: 9ee3 2d3b f5bf 35ba b7b9 e1bc 7c56 85be
000002d0: 9c75 30bd 7b79 d5be a96a 39bd ccbd bdbd
000002e0: 0d74 fb3d dd70 e8bc 81e5 b53e 4ad8 4ebd
000002f0: 80fa 1e3c f994 d13d 6bf3 0c3d b881 83be
00000300: 9b84 573e ea06 973e 8010 aebd b8e9 043e
00000310: c733 2d3d 2625 c8be 2b2c 75bd c5a7 353e
00000320: 7566 433e feac 403d b5d3 be3b 430a 1bbd
00000330: 3424 263e 01a5 5bbf cde8 dcbc fa59 2bbf
00000340: 1bfb ef3c f292 adbe a605 283e 22a9 803c
00000350: f1e2 dabe 59dd 1e3e 3c93 8b3d d880 c9bb
00000360: f6b2 3cbe eca2 30be 1727 613e 3829 b63d
00000370: 7701 b53d 597a 1d3e 42bf d83d 5003 8cbd
00000380: 30b5 43bc 9372 273d 0a52 03be 56c2 d8be
00000390: 6ccc 9fbd 8ae2 8f3e 2517 07be 602a 943e
000003a0: 5435 e1bf c8bb 353e 4b43 383d b288 ac3c
000003b0: b16e 973d 3988 103f ad3b 73bd 8248 e6bd
000003c0: 4ac1 debc f21b 83bd fbe0 743d 66b4 0bbe
000003d0: 80f7 30be 1cdc 39be 327b 1e3d c4f3 253e
000003e0: 9284 8b3e db96 f0bd c6e0 abbd 3521 12bd
000003f0: 244e 0f3e 2762 22bd 36b9 df3d 4426 2cbe
-0.009060916 0.03030761 -0.01008772 -0.01989076 0.0056106295 0.1361692 -0.63239694 0.29639846
-0.123486154 -0.24452926 0.18893479 0.30862546 -0.07737331 -0.5451216 -0.17859328 0.1471197
-0.23740765 0.21462138 0.96827364 -0.27698547 -0.47831008 0.04650087 -0.3234522 0.28782007
0.4292048 -0.03584438 0.09260141 -0.20331287 0.114025235 0.005665188 -0.113764204 -0.21009383
0.09824422 -0.30346867 -0.010608767 0.06314293 0.39164335 -0.08797993 -0.09064539 0.07173487
-0.25161305 0.22442614 0.13324699 0.057184152 -0.045979824 0.023954112 0.07210802 0.3509974
0.16580945 0.09426082 0.39726895 -0.28469104 -0.26388603 -0.2683368 -0.10672371 -0.15748636
0.1135882 -0.02761145 0.24627793 0.31739065 -0.12725775 -0.004427788 -0.15604655 -0.25969478
-0.176469 0.121059105 0.14472133 0.23293474 0.21990484 -0.050201032 -0.10499755 0.19957235
0.09731828 0.059020355 -0.026708674 -0.37093073 0.2568496 1.6921359 -0.13684332 -0.20477207
0.19405368 -0.07717291 -0.28281578 -0.011518647 -0.4418969 0.39142638 -0.020676153 -0.016591609
-0.22077787 0.021224102 0.25567216 -0.18295278 0.25004223 0.039204072 0.1466832 -0.75009745
-0.02500497 0.4145349 -0.038752124 -0.25629196 -0.1837784 0.19655956 -0.08826713 0.80363345
-0.92074466 0.6685247 -0.054934498 0.010232271 0.03135109 0.27525026 0.0216513 0.115515016
-0.13239628 0.030088529 0.094509766 0.27560723 -0.05692731 -0.34922186 -0.031466164 0.0781462
0.4955182 -0.3342577 0.014319679 0.01740929 0.02102782 -0.0123294005 0.010213657 -0.17070664
0.02977782 0.18912816 -0.03765898 0.007312196 0.062088273 0.10242596 0.1306752 0.20393163
-0.1593825 -0.045914907 -0.12478959 0.112990804 -0.0026543962 0.16864452 -0.3675818 0.069305636
-0.1106109 0.120438285 -0.18649755 -0.16497181 -0.2072663 0.10426365 -0.17423186 0.089536734
-0.12538159 0.027985988 -0.050285026 -0.08274856 0.16224554 -0.0013495943 0.12638669 0.056205045
-0.35397667 -0.05068233 0.006346196 0.019397065 0.30375007 -0.3075187 -0.21744305 0.023412988
-0.34688482 -0.051844236 -0.018136635 0.02467396 -0.42450646 0.022369353 0.39373872 -0.2463308
0.0026533375 -0.0006933206 -0.027554376 -0.26042545 -0.04308091 -0.41694245 -0.045267735 -0.092647165
0.12277994 -0.02837413 0.3552666 -0.050499238 0.009703279 0.102334924 0.03441183 -0.25684905
0.21046679 0.29497463 -0.08499241 0.12979782 0.042285707 -0.39090842 -0.059856575 0.1773978
0.19082053 0.04703998 0.0058235773 -0.037851583 0.16224748 -0.8579865 -0.026966477 -0.6693417
0.029294541 -0.33901173 0.16408405 0.015705649 -0.42751268 0.15514125 0.06815192 -0.0061493926
-0.18427643 -0.1724965 0.21987568 0.088945806 0.0883817 0.15378703 0.105833545 -0.06836569
-0.011945054 0.04088075 -0.12824264 -0.42335767 -0.07802662 0.28102523 -0.13192423 0.2893858
-1.75944 0.17747414 0.04498605 0.021061275 0.073941596 0.5645786 -0.059383083 -0.112442985
-0.027191777 -0.064018145 0.05978487 -0.13643035 -0.17281914 -0.18150371 0.038691707 0.1620627
0.2724958 -0.117475234 -0.083924815 -0.0356762 0.13994652 -0.039644387 0.10923998 -0.16811472

bias f4 [4]
00000000: aca8 5fbe ec65 8dbe a23f b2bd fba9 f8ba
-0.21841687 -0.27616823 -0.08703543 -0.0018971557
