results/TD3/checkpoints/model_1000_critic1.pth (torch, 559471 bytes, 5 tensors)

mlp.0.weight f4 [512, 14]
000000 95 7d c8 be 92 56 b9 3e d9 17 53 3e 61 a7 03 3e
       -0.3915831 0.3619886 0.20614566 0.12856819
000010 13 ee 60 3e 94 a6 82 3e 8e 0a 3e 3e a0 55 44 be
       0.21965818 0.25517714 0.18558714 -0.19173288
000020 69 6a 37 bc e8 c6 98 be 68 76 42 bf c8 8d 58 3d
       -0.011194804 -0.29839253 -0.75961924 0.052869588
000030 15 dd 6b 3f 10 1c 32 3c 79 c0 9f be 8b 2b 03 bd
       0.9213422 0.010870948 -0.31201532 -0.032023948
000040 fb 30 c5 bc ce b4 eb bc 2d ca a6 3d 46 3d c1 3d
       -0.024071207 -0.028772738 0.08144031 0.09435515
000050 82 1b 7d be 80 ad 61 be 90 06 d5 3d dc 4d 19 be
       -0.24717525 -0.22038841 0.10401642 -0.14971107
000060 7e a7 d5 be 45 9e 1f 3e 91 85 7d 3e 36 ab 07 3e
       -0.4172935 0.15587719 0.24757983 0.13248906
000070 5e 43 97 bd 7e 8e 15 3f e9 9f 72 3e b0 46 35 3d
       -0.07385896 0.5842055 0.23693813 0.044256866
000080 9a 72 0b 3e 20 f2 af 3d ed de 50 bb e6 c2 b0 bd
       0.13617936 0.085911036 -0.0031871155 -0.08630924
000090 bb b3 7a bd 4d 9c f7 bd c4 46 57 3e f9 81 a9 3e
       -0.06120656 -0.12090359 0.21023089 0.33106974
0000a0 26 ff 49 bd c0 10 88 3c b5 fa 58 bd a8 83 8b 3d
       -0.049315594 0.01660955 -0.052973468 0.06812221
0000b0 3c f5 4f 3c 1c 53 43 be b9 b7 2e 3e f7 11 a1 bd
       0.012692746 -0.19074672 0.17062272 -0.07864755
0000c0 13 73 70 be 19 e1 60 be be 64 64 bd ad 4d 10 3e
       -0.23481397 -0.21960868 -0.055760138 0.14092131
0000d0 86 55 64 be 31 fd 28 be 2f ec 01 be bb ba 14 3e
       -0.2229825 -0.16502835 -0.12687753 0.14524357
0000e0 1f 0e 6c be 2c 26 13 be ec 9d ce 3d 4e 4c c1 bd
       -0.23052262 -0.1437003 0.10088715 -0.09438382
0000f0 77 ae 19 be fa 57 5d 3e 7b 42 ea 3c c2 1e b7 3c
       -0.1500796 0.21615592 0.028596153 0.022353534
000100 5c 73 a4 bd df f4 47 3e 53 19 27 be a4 78 c3 bd
       -0.080298156 0.19527005 -0.16318254 -0.09544495
000110 38 e8 d3 3d 2e e5 19 3e b6 42 17 3e 4b 9c 11 3e
       0.103470266 0.15028831 0.14771542 0.14219777
000120 de 45 8a 3d 30 f7 3c bd 2d ba ff bb a6 b7 e6 3d
       0.06751607 -0.046134174 -0.0078041763 0.11265497
000130 7e 3d 7d 3e 71 4c 40 be 11 1d 24 be 9c ed e9 3d
       0.24730489 -0.1877916 -0.16026713 0.114222735
000140 7d 2d 37 3d 1e ea bf bd 77 d4 3e 3e 40 b9 40 be
       0.044721115 -0.09370826 0.18635736 -0.18820667
000150 c0 02 8d be cd db 89 3d c0 59 25 3e a3 b6 21 be
       -0.2754116 0.06731377 0.16147518 -0.15792327
000160 5b d4 2b be 52 b3 f3 3b 7f a5 1f be e7 bd 0b 3e
       -0.16780226 0.007437148 -0.15590475 0.13646661
000170 80 c5 b6 3e ea a8 29 bc ca 62 23 bd e2 1a c6 3c
       0.35697556 -0.010355214 -0.039889134 0.02418274
000180 7c d5 c6 3e c8 0b 14 3e bd f6 38 3d 86 30 83 3e
       0.3883475 0.14457619 0.045157183 0.25622958
000190 64 77 6b 3e d9 7c 45 be 0a 4f 70 3d b6 37 8d 3e
       0.22994763 -0.19285907 0.058669128 0.27581567
0001a0 ef 57 f5 3d d8 89 cd 3c fc 34 70 be 32 8f a1 3c
       0.119796626 0.025090143 -0.23457712 0.019721601
0001b0 4a 87 80 3e a1 68 15 3d 9c df 3f 3d 27 ca 6c 3d
       0.25103217 0.036476735 0.04684411 0.057809975
0001c0 50 19 46 be 4a 8f 05 3d 2d 0c 1d bd 0e f0 22 be
       -0.19345593 0.032607354 -0.03834169 -0.15911886
0001d0 ad 2a c7 bd 40 82 aa 3e 79 e7 a7 3c b4 34 46 3d
       -0.09724937 0.33302498 0.020496117 0.048390105
0001e0 70 6c 51 3e 0f 6e 84 be 90 87 dd 3d 10 8f e5 3e
       0.20451522 -0.25865218 0.10816872 0.4483571
0001f0 0f 54 53 3d 96 60 0b 3e c0 29 df bd 22 ee dc bd
       0.051593836 0.13611063 -0.10896635 -0.10787608
000200 08 e7 5f be 5e 55 48 be 2c 43 44 bb b1 48 cf bc
       -0.21865475 -0.19563815 -0.0029947264 -0.025303217
000210 44 e9 96 be 38 fe 71 bb 50 3d 8a bd ad 96 68 bd
       -0.29474843 -0.0036925208 -0.06749976 -0.05678432
000220 9a cc 83 be 81 97 b2 3d a2 45 67 3c ee 6b 93 bd
       -0.25742036 0.08720303 0.014115723 -0.0719832
000230 b0 1a 8e bd 41 e4 f9 bd 70 e2 13 be 02 b4 af bd
       -0.06938684 -0.12201739 -0.14441848 -0.08579256
000240 dc 2f a6 bd 04 ce 2c 3e be dd 16 3e e9 e0 35 3e
       -0.08114597 0.16875464 0.14733025 0.17761578
000250 79 d0 8a 3e a8 3c 52 be f3 23 aa 3e 07 29 6e 3e
       0.27112177 -0.20530951 0.33230552 0.23257838
000260 c2 35 77 be 83 ed 93 3e 5d 45 b3 3c fa 6b fb bd
       -0.241416 0.28892145 0.02188366 -0.12276454
000270 3b 02 77 3e 66 aa 26 3e c6 27 17 3e 71 37 4e 3e
       0.24121945 0.1627594 0.14761266 0.20138337
000280 01 32 ba bd 36 07 f0 bc d7 2d 1e be 31 2a a1 be
       -0.09091569 -0.029300313 -0.15447174 -0.31477502
000290 93 cb 55 3e a2 0c a3 3e 74 3e 36 3d 06 da 9d be
       0.20878439 0.31845576 0.044493154 -0.308304
0002a0 42 44 1f be 61 08 90 3c 6c 02 94 3d 50 33 6b be
       -0.15553382 0.01758212 0.072270244 -0.22968793
0002b0 6b bb 92 bd 9b c8 d6 3d 76 e6 5e bd d4 43 3c be
       -0.071646534 0.10487481 -0.054419003 -0.1838525
0002c0 fd d1 1d 3e 9f f6 85 3e 26 7f 81 3e a4 a3 c0 bd
       0.15412135 0.2616472 0.2529232 -0.09406212
0002d0 c7 a0 11 3e 7a d6 d3 3d 02 25 0d be 74 ea b4 bd
       0.14221488 0.103436425 -0.13783649 -0.08833781
0002e0 3f 9f a3 3d 4f 19 dc bd 14 91 a2 be 1a 3b 8c 3e
       0.07989358 -0.10747015 -0.3175131 0.2738884
0002f0 58 46 05 be eb e1 1c 3d ca cc 42 3d 45 1a b4 bd
       -0.13015115 0.03830139 0.047558583 -0.08794073
000300 8c d1 23 be 84 f0 1d 3e 57 2b 08 3e f9 6c 99 be
       -0.15997905 0.1542378 0.13297783 -0.29965952
000310 33 5b 6b 3c 7d 87 02 3e f7 cc 16 3e 26 24 c6 be
       0.014365005 0.12746997 0.14726625 -0.38699454
000320 4b 98 90 be 7d 27 7b bd 70 93 08 be 13 53 31 3e
       -0.2824119 -0.061316956 -0.13337493 0.17316847
000330 4e b7 1a be e2 8f 92 bc 51 4c a9 bd 05 fe a2 3a
       -0.15108988 -0.017890874 -0.08266509 0.0012435323
000340 3f 82 3d 3e f0 4f 21 3e 4c a1 c5 3d 4d e4 07 3e
       0.18506716 0.1575315 0.096499056 0.13270684
000350 ac 36 f7 bd 4e d1 24 3e 39 71 06 3e 58 12 e9 bd
       -0.12070975 0.16095468 0.13129129 -0.11380452
000360 9d 11 46 3e df 77 62 bd 50 61 db 3d 94 e9 a3 bd
       0.19342656 -0.0552901 0.1071192 -0.08003536
000370 41 2c 0e 3d 3b 47 34 be 8b 36 f3 3d 4a 4d 34 3d
       0.034710173 -0.17605297 0.118756376 0.04401902
000380 2b 4a ac 3d f3 9e 89 3d 07 9e 22 3e 43 18 97 bd
       0.08412584 0.0671977 0.15880595 -0.073776744
000390 52 bc 69 be 84 f9 d0 bb ef 1a 8d 3d 27 3d 03 3e
       -0.22825745 -0.006377401 0.06889903 0.12816297
0003a0 8b a2 91 bd ec 9f d6 bd e4 23 1e be c6 50 29 3e
       -0.07111081 -0.104797214 -0.15443379 0.16534719
0003b0 62 34 99 bc 84 e1 2e be 72 3d ab be db 6b 59 3e
       -0.018701736 -0.17078215 -0.33445317 0.2123255
0003c0 15 06 2b bd 0c 9a f8 3d ed 79 69 3d 8b 7e 8f 3e
       -0.041753847 0.12138757 0.057001043 0.28026232
0003d0 74 09 a6 be 15 73 dc 3c 2c 2c 61 3e 3a 3a 7e be
       -0.32429087 0.026910344 0.21989506 -0.24826899
0003e0 53 70 99 3d 2c e4 9c 3d db 27 82 bd 07 e0 21 3d
       0.07492127 0.07660708 -0.06355258 0.03952029
0003f0 7c 53 76 be 92 81 25 be 58 31 2c 3e 7b 6f 23 be
       -0.24055284 -0.16162708 0.16815698 -0.15960495

mlp.0.bias f4 [512]
000000 a2 e0 b3 3d fb c7 aa 3d 9e 0f 11 be b8 28 51 3c
       0.0878308 0.083389245 -0.14166114 0.012766056
000010 5b 6b fb bd 2f bc 23 be dd 0f 04 be 74 7b 3d 3d
       -0.12276336 -0.15989755 -0.12896676 0.046260312
000020 76 cd 24 3e 41 a6 52 3d dc 39 2d be 2d dd 10 3e
       0.16094002 0.051428083 -0.16916603 0.14146872
000030 12 97 04 3d 17 9d 99 3d d2 3e fe bc 43 ee 3d be
       0.032370634 0.07500666 -0.031035814 -0.18547921
000040 88 2b 3f bd 01 b6 27 3d 99 6d 26 be 6c d7 35 be
       -0.046672374 0.040945057 -0.16252746 -0.17757958
000050 95 92 17 be 00 5f 87 be ef 04 71 bc 47 58 c7 bc
       -0.1480201 -0.26439667 -0.014710649 -0.024334086
000060 6c b3 87 be 8a 58 84 be 6c 87 88 3e 09 6c 5a 3c
       -0.26504076 -0.258488 0.2666582 0.013331422
000070 1c 55 45 be 01 da 09 be ec 7e 0f be 26 eb 40 bd
       -0.19270748 -0.13462068 -0.1401326 -0.047099255
000080 d5 1d 7e bd 52 c2 a8 3d 03 0d fb 3c b8 62 cc bd
       -0.06204017 0.08240189 0.030645853 -0.099797666
000090 1c c9 0d 3e dd d3 15 3c 22 d3 49 be 65 4b 80 bd
       0.13846248 0.00914475 -0.19709447 -0.0626438
0000a0 ec 2c 6f be c7 ea 06 3d 05 0c 64 be c9 b5 91 bd
       -0.2335698 0.032938745 -0.2227021 -0.07114751
0000b0 9b b7 c3 3d 5f e7 01 bd e1 9f 2a bd 2c 9a 5c bc
       0.09556504 -0.031714793 -0.04165638 -0.013464492
0000c0 39 4e 71 bd 4d c7 39 3d d3 0d 84 3d 77 96 ce bd
       -0.05891249 0.045356084 0.06447949 -0.10087293
0000d0 f1 c3 f1 bd 46 76 bd bc 98 f3 1e be 55 6c 5b be
       -0.11804951 -0.023127686 -0.15522611 -0.21428044
0000e0 81 2e 55 be c6 88 f5 3c c0 8a ea 3d f2 d8 e9 bd
       -0.20818521 0.029972445 0.11452246 -0.11418332
0000f0 de d1 83 be 4b 28 3b bd 72 c3 0c 3e 41 56 5a be
       -0.25746053 -0.045692723 0.13746431 -0.21321966
000100 53 9f f6 3c 4d a0 76 be 91 59 96 3d fd 30 bb bd
       0.030105269 -0.24084587 0.07341302 -0.09140203
000110 b2 c9 d7 bc 40 5f 76 be 8a 80 03 be 2d d1 95 bd
       -0.026341293 -0.24059772 -0.12842003 -0.07315288
000120 33 6d 49 be f2 95 dc bd ba a5 df 3d 6a ab 36 3e
       -0.19670562 -0.10770787 0.10920282 0.17838827
000130 07 44 1e be b8 4a 26 3e c8 ac 3c bd 87 a0 bd bd
       -0.15455638 0.1623944 -0.046063215 -0.09259134
000140 d0 5b 58 be 2d 8b 0c be 24 a7 3f be 7b a1 e6 bb
       -0.21128774 -0.13724966 -0.18716103 -0.007038293
000150 41 d3 20 be 6f 42 42 3d f3 81 ea 3c 0a 02 1f 3d
       -0.15705587 0.047426637 0.028626418 0.038820304
000160 56 05 e1 3d 59 d6 14 3d 47 99 1b 3e ef 79 92 bb
       0.10987346 0.03633723 0.1519519 -0.004470102
000170 cc bb 63 bd 39 bb 94 bd 0f 64 c2 bd 61 8b 95 be
       -0.05559902 -0.072622724 -0.09491741 -0.292079
000180 d8 65 56 3d 8c 8d 6c be 98 4d 1e 3b 7a 23 12 bc
       0.05234322 -0.23100871 0.0024155136 -0.008919591
000190 82 d1 58 be e0 1b 0a be f1 99 bb bd 07 90 e7 bd
       -0.21173671 -0.13487196 -0.09160221 -0.11306768
0001a0 aa 1e 63 be 84 68 27 be 30 6e 92 3d 5b 92 7c 3d
       -0.22179666 -0.16348463 0.07149923 0.061663013
0001b0 3a 25 30 be 2a 03 32 bd d7 ba 1c 3d a5 cf a9 bb
       -0.17201701 -0.04346005 0.03826412 -0.005182224
0001c0 d1 ac 9c 3d 2d aa a7 bd b2 62 27 be dc 32 16 3e
       0.076501496 -0.08186755 -0.16346243 0.14667839
0001d0 a1 10 ed bd 50 a5 90 3c cf 4f 75 bd a9 03 cf 3d
       -0.11575437 0.017656952 -0.059890565 0.1010812
0001e0 63 83 5f 3d cc ff 0b 3e c9 e8 15 be 1e 97 8d 3b
       0.05456866 0.13671798 -0.14639582 0.004320993
0001f0 0b ca d7 3d 4d b3 89 3d b4 da a6 be 0e f7 49 bd
       0.105365835 0.06723652 -0.32588732 -0.049307875
000200 9c 74 f8 3d 80 38 a7 3d 20 68 19 3e 0c 4a 64 be
       0.121316165 0.081650734 0.14981127 -0.22293872
000210 d0 81 b4 3d 96 c0 18 3e f8 49 b4 bd 02 c2 f5 bd
       0.08813822 0.14917216 -0.08803171 -0.11999895
000220 7f 43 2a be 9b 31 54 be df ca 1c be 27 a5 0b bd
       -0.1662731 -0.20722048 -0.15311764 -0.03409305
000230 9c c8 dd bd 8f ae be 3d 49 cb 88 be d1 d9 72 be
       -0.10829279 0.09310638 -0.26717594 -0.23715903
000240 cb 74 58 3c db 32 30 3e fc 3a ab 3d 1e df 36 be
       0.013211439 0.172069 0.0836086 -0.1785855
000250 8a e3 83 be 81 6e 2d bd e8 e6 84 3d a8 24 47 be
       -0.25759536 -0.042341713 0.06489354 -0.19447577
000260 8d b2 49 3d a4 a0 87 3d f2 8f 18 be 5b a3 24 be
       0.049242545 0.06622437 -0.14898661 -0.1607794
000270 6c 9f 09 bc 2a 21 bf 3c db 68 d9 3c 94 e2 12 3e
       -0.008399826 0.023331244 0.026539257 0.14344245
000280 2d 10 12 bd 91 ab 19 3e f3 73 03 be f7 1f 93 3d
       -0.035659958 0.15006854 -0.128372 0.07183831
000290 aa f9 e5 3d 76 d5 ce bd 34 dd a2 bd 6c 79 37 bd
       0.1122926 -0.10099308 -0.079523474 -0.04479353
0002a0 1a e4 70 be b2 32 1f 3c fe f2 cd bd 42 b2 db 3c
       -0.23524514 0.009716677 -0.10056113 0.026818398
0002b0 21 a3 17 be e4 01 0c bd f8 0a c7 3d b0 5e 76 be
       -0.14808322 -0.03418149 0.09718889 -0.24059558
0002c0 66 cf 45 be 12 77 2c be 2a 59 cf 3d 7c ef 3f be
       -0.19317397 -0.16842297 0.101244286 -0.187437
0002d0 2c 47 f1 bc d7 90 bb bd 83 3c 42 be fb 83 13 be
       -0.029452883 -0.091584854 -0.18968396 -0.14405815
0002e0 25 0c 0e be f9 ca 50 3e f7 21 ee 3d c7 2c 28 be
       -0.1387182 0.20389928 0.11627572 -0.16423331
0002f0 de bb db bd e5 7d a2 bb 08 83 61 bd 0b b1 97 bd
       -0.10729192 -0.0049588555 -0.0550566 -0.07406815
000300 01 07 5d be 06 ec 6c 3e 43 db 2c bc 42 e3 62 be
       -0.21584703 0.23136911 -0.010550323 -0.22157004
000310 fb 08 a2 bd 83 18 a6 bd c1 c3 11 3e e2 32 57 be
       -0.07911869 -0.08110144 0.1423483 -0.21015504
000320 ec d6 f6 3d 83 a2 d3 bd 43 71 42 be 71 af 96 3d
       0.12052712 -0.10333731 -0.18988518 0.073576815
000330 11 de 16 3d d8 e9 17 be d9 38 8c 3c 58 9a c6 3d
       0.036832873 -0.14835298 0.01711695 0.096974075
000340 bf 22 8e bb f9 35 e5 3c 2e c0 85 be 96 3b 7c be
       -0.004337638 0.027979838 -0.26123184 -0.24632105
000350 32 c8 18 be ae d2 0f be 92 2c 87 3d 45 35 4b be
       -0.14920118 -0.14045212 0.06600298 -0.1984454
000360 bb 75 27 be 78 aa 73 3b 4a a4 7b be f2 d5 4e bd
       -0.16353504 0.0037180465 -0.2457439 -0.050497003
000370 96 c7 a3 3d 1a d5 96 3d 70 71 9f 3d 5a 20 bc bd
       0.07997052 0.07364865 0.07785308 -0.09185858
000380 93 17 02 be ec 6b 2c be 54 8a 82 3d a8 33 dc bc
       -0.12704305 -0.16838044 0.0637404 -0.0268801
000390 49 a6 06 be 98 69 83 3e a1 17 e9 3d f9 d9 4b be
       -0.1314937 0.256665 0.1138146 -0.19907369
0003a0 df 60 4e 3d d4 ef f0 bc 79 87 9a bc 3e 9e 39 3d
       0.050385352 -0.029411234 -0.018863427 0.045316927
0003b0 b7 79 5f be b5 e1 e0 3d b4 9d 4e be a2 a3 9f bd
       -0.21823774 0.1098055 -0.20177346 -0.07794882
0003c0 9f 0f 8e bd 5a 9e 25 3e 92 77 82 bc 38 01 56 bd
       -0.06936573 0.16173688 -0.015926156 -0.052247256
0003d0 1c 17 25 3d c9 3b 16 be ff 40 3e be d2 eb c4 3d
       0.040305242 -0.14671244 -0.18579482 0.09615292
0003e0 ad 9b b0 3a 48 f1 1c 3d c5 bd c8 3d 8b aa 18 3d
       0.0013474129 0.03831604 0.09801821 0.037272017
0003f0 45 fd 0f be d6 54 0e be d0 0e 38 3e 0e 28 8c 3d
       -0.14061458 -0.1389955 0.179744 0.06843577

mlp.2.weight f4 [256, 512]
000000 b4 4b c6 3c 41 20 31 bd a3 22 2f 3b 54 73 aa 3c
       0.02420602 -0.04324365 0.0026723526 0.020806946
000010 41 39 f0 3b 0f 76 f5 bc 37 94 32 3d ee 11 2f bc
       0.007331044 -0.029963521 0.04359838 -0.010685427
000020 a4 43 78 3b 75 8b d6 ba 58 1f 04 bd 02 1d 8a 3c
       0.0037882114 -0.0016368466 -0.032256454 0.016859535
000030 86 7d 0d 3c a6 0b 3d 3c 80 fc 94 bb 0e e0 23 bd
       0.008635884 0.011538422 -0.004546702 -0.040008597
000040 69 1f 72 bc b8 92 36 bc a0 b4 01 bd 32 7a 2c 3d
       -0.014777997 -0.011143379 -0.031666398 0.042108722
000050 58 1d 35 bc cd 28 96 bb 2c 4a 03 bd 04 cf 8d bc
       -0.011054359 -0.0045825006 -0.032053158 -0.017310627
000060 67 b8 56 bc 8e 16 19 3d fe 4a 90 bc d8 e5 d4 bc
       -0.013105488 0.037375025 -0.017613884 -0.025988504
000070 c6 5b 20 3d 19 52 2b bd c4 c6 10 bd 68 9d c8 bc
       0.039150022 -0.04182634 -0.035345808 -0.02448912
000080 28 40 94 bc 9b 7e 0d 3b a9 53 33 3d 1d b3 10 3b
       -0.018096998 0.0021590355 0.043780956 0.0022079416
000090 87 b3 3b bb d7 12 d8 b9 c9 96 0b bd cb 4c 7b bc
       -0.0028640942 -0.00041212767 -0.034079347 -0.015338133
0000a0 d2 7f 3b b9 10 33 4b 3c 9a 42 2c 3d 73 fa a0 3c
       -0.00017881326 0.012402311 0.042055704 0.019650673
0000b0 e5 9b ce 3b 09 71 b1 bc 37 55 c0 bc 55 3d 02 3d
       0.006305205 -0.021660345 -0.023478134 0.031796772
0000c0 ea 22 a4 bc 65 79 8e bc 4e fd f3 3b 6c 44 33 3d
       -0.02003618 -0.01739187 0.0074459678 0.043766424
0000d0 6a c1 c8 bc cb 5e 2e 3d 98 37 81 bc 70 1a 55 bb
       -0.02450629 0.04257087 -0.01577358 -0.0032516979
0000e0 5d bb f8 3b a3 7c 89 bb a8 4f d7 3c 2d 35 91 3b
       0.007590695 -0.004195766 0.0262831 0.004431388
0000f0 de 2f 5a bb 2f 89 49 3c aa 24 c5 3c e3 4d bc bc
       -0.0033292691 0.0123007735 0.024065334 -0.022986358
000100 63 07 f7 ba 01 97 fe 3b df ef 66 bc 40 8f d1 3c
       -0.0018846806 0.007769466 -0.014095276 0.025581002
000110 f3 51 2e bc c3 31 19 3d e7 0a 55 3c c4 05 07 bd
       -0.010639655 0.037400972 0.013003088 -0.032964483
000120 71 3a f9 bc ec f6 c2 bc 64 05 e1 bc 6c fd fa bc
       -0.030423375 -0.023799382 -0.02746839 -0.03063842
000130 7b 49 f9 bc 92 a0 17 bd 46 48 09 bd 45 bf 42 3c
       -0.030430546 -0.037018366 -0.03351619 0.0118864225
000140 4c 00 c4 39 59 a2 c6 bb c0 89 b1 bc 34 f7 d8 3c
       0.00037384254 -0.006061834 -0.02167213 0.026485063
000150 02 58 f7 bc 7b 5a 43 3a dc 10 20 bd c7 de 14 bc
       -0.030193333 0.00074521423 -0.03907858 -0.009086317
000160 9d be da 3a 7f b5 18 3d 86 65 df bc fe 21 c0 bb
       0.0016688887 0.037282463 -0.02727009 -0.005863427
000170 ac f3 03 3d 43 1d 28 3d 79 97 1d 3d a1 81 08 bd
       0.032214805 0.04104353 0.038474534 -0.03332675
000180 85 1c c7 3c 1f f5 fb 3c 66 69 e4 3b 3f 1a c7 3c
       0.024305591 0.030756531 0.0069705723 0.024304507
000190 72 5a 41 bb 15 f7 58 bc 73 3f 08 3d 89 1a b1 bc
       -0.0029503372 -0.013242503 0.033263635 -0.021619098
0001a0 73 4d 57 bc 94 23 12 3d 27 a6 56 3b 86 01 a2 bc
       -0.013141024 0.03567846 0.0032752843 -0.019776117
0001b0 18 af a5 bb 57 99 12 3d 97 5e 97 3c ac 55 00 3d
       -0.005056273 0.035790768 0.018477721 0.031331703
0001c0 a5 2f 02 bd 0a 13 c3 3c e3 70 ed 3b 6a d8 0c bc
       -0.03178372 0.02381279 0.007246123 -0.008596519
0001d0 8e 3d aa bb 1f ac 04 bd f9 f8 6f bc a1 4a cd bc
       -0.005195326 -0.03239071 -0.014646762 -0.02506
0001e0 23 7a c9 bc 0c 38 96 bb e7 fc 35 3c 12 0a 32 bc
       -0.024594372 -0.004584318 0.01110766 -0.010866659
0001f0 56 e8 f7 3c 29 e1 d8 bc 3c ea ef bb 8f df 6b bc
       0.030262154 -0.026474552 -0.007321624 -0.014396562
000200 4d 5a 7e bc ff 7b 2f bb c1 0a 95 3c 76 9b 12 3b
       -0.015524459 -0.0026776788 0.018193604 0.0022370494
000210 68 90 f6 3c de 3d 83 3b b6 85 2d bd 95 1c 20 bd
       0.030098155 0.004005178 -0.042363845 -0.039089758
000220 8f e4 00 bd c6 c7 ed bb 58 be 31 3c 3b 70 b3 3c
       -0.03146797 -0.007256481 0.010848604 0.021904102
000230 37 fe 34 3d b9 69 f2 3b 68 a0 18 bd 4e ab 92 bc
       0.04418775 0.007397857 -0.03726235 -0.01790395
000240 ca 7c 7b bc f7 e0 cb b8 bd 30 86 bc 87 37 9a bc
       -0.015349576 -9.721697e-05 -0.016380662 -0.018825306
000250 73 2b e4 bc b6 33 23 bc fc ea c3 3c fc 49 31 bd
       -0.02785275 -0.009961059 0.02391576 -0.043283448
000260 71 e2 28 3d eb a8 90 bc 14 0b 7b bb 67 ef e9 3c
       0.041231576 -0.017658671 -0.0038306164 0.028556539
000270 fe 05 8a 3c a8 8a d3 ba 8c 81 15 bc 2d 3c 27 bd
       0.01684856 -0.0016139345 -0.009125125 -0.040828872
000280 2c 5e 27 3d 2b 7c b2 bc 64 00 d4 bc 30 af 8f bc
       0.040861294 -0.021787724 -0.025879093 -0.01753959
000290 6c db 46 3c 60 ec 97 bb 43 ba b6 3c 26 cd f4 3b
       0.012137275 -0.0046363324 0.022305613 0.0074707447
0002a0 22 40 03 bd 52 26 b0 3a a8 57 e4 bc 06 b8 0f bd
       -0.032043584 0.0013439155 -0.027873829 -0.035087608
0002b0 9e 8c ce 3c ce e5 dc ba f9 ca 50 3c f8 cc 4b 3c
       0.025213536 -0.0016853155 0.012743705 0.012439005
0002c0 95 d7 01 bd 51 cb 8f 3b b6 86 f3 3c df 98 6f 3c
       -0.031699736 0.004388251 0.029727321 0.01462385
0002d0 b9 7f a8 3b ed 69 d4 bb c0 b2 a7 bb 88 f1 ec 3c
       0.005142179 -0.006482354 -0.005117744 0.028923765
0002e0 71 1e 8a bc e6 95 c1 bc f6 c5 f3 3c e5 98 49 39
       -0.016860219 -0.023631047 0.029757481 0.00019225811
0002f0 22 14 39 3b 9f af 05 bd bf cb 32 bd 1e 23 09 bd
       0.002824076 -0.03263819 -0.04365134 -0.033480756
000300 50 d1 0d bd 6d 1b 34 bd af 90 bf ba cf 7d 8d 3c
       -0.034623444 -0.043971468 -0.0014615263 0.017271904
000310 db 23 2d bd e5 be bc 3c fa 97 e9 bb f7 90 2c 3d
       -0.042270523 0.023040244 -0.0071287127 0.042130437
000320 7e 4a a8 bc 97 89 d6 3c 0a 27 06 3d 1b fc 39 bc
       -0.020543333 0.026188655 0.032752074 -0.0113516105
000330 d9 50 f5 bb 89 3e ca bb 20 28 81 3c 86 79 3b 3c
       -0.0074864444 -0.0061720056 0.015766203 0.011442548
000340 2f 50 b8 bc cf a0 02 bd f0 53 76 bc 88 21 37 ba
       -0.022499172 -0.03189164 -0.015034661 -0.00069858925
000350 75 16 3c 3c 7e c3 0e 3d 93 c1 8e 3a 5f a4 e5 3b
       0.011479964 0.034854405 0.001089143 0.00700812
000360 11 e6 3f bc 2b ce fa 3c 29 03 8f 3b fc 6b 85 bc
       -0.011712567 0.030615887 0.0043643904 -0.016286843
000370 b0 e4 b6 bc 57 7c af 3c e6 6c 0e bb bc 68 8c 3c
       -0.022325844 0.021421595 -0.002173239 0.017139785
000380 67 9a 72 bc 46 6a 27 bd 96 45 29 3d f8 ef 8a bc
       -0.01480732 -0.040872835 0.041326128 -0.01696013
000390 96 a5 bf bc 06 cf fb bc f7 1d bb bc e7 e9 05 bd
       -0.023394387 -0.030738365 -0.022841437 -0.03269377
0003a0 e9 51 98 bc 9b f7 cd 3c c8 d2 e4 bc 0d b1 40 3c
       -0.018593745 0.025142482 -0.02793254 0.011760962
0003b0 bc 0b 23 3d 36 35 fc 3c 28 86 8c bc 2e 22 13 3d
       0.039806113 0.030787092 -0.017153814 0.03592127
0003c0 24 d1 fa bb 21 8b 0e bc cd 8b f1 bc 53 a3 f3 3b
       -0.007654326 -0.008700163 -0.029485608 0.0074352412
0003d0 8f fc b1 3c f6 49 27 bd 38 3d 23 3d 8c c1 17 3d
       0.021726875 -0.04084202 0.039853305 0.037049815
0003e0 54 e4 1c bd 85 e3 a7 bc 5b 28 94 bc e8 00 35 3d
       -0.03830369 -0.020494232 -0.01808565 0.044190317
0003f0 0e d0 9a 3c 11 e9 fb bb d3 74 a5 3c e7 44 45 3c
       0.018898036 -0.007687696 0.020197308 0.012040353

mlp.2.bias f4 [256]
000000 8c 77 93 bc 0a 71 6e bd cf db d3 3a cc fa 4f 3b
       -0.01800134 -0.05821327 0.001616353 0.003173518
000010 a6 f0 75 bd d4 d0 0b 3e c5 d6 e5 3d 2e 87 aa bb
       -0.060043953 0.1365388 0.11222605 -0.005204103
000020 08 44 30 b5 c9 10 d8 bc 10 fc 8f 3d b3 3b 7a 3d
       -6.566411e-07 -0.026375191 0.07030499 0.06109209
000030 77 a2 7f 3b c1 4f 32 bd 1c e9 50 bb 5c b2 f2 3d
       0.0039006749 -0.04353309 -0.0031877225 0.118504256
000040 43 74 7f bd 85 c5 eb 3c 7a 50 a6 bc 5e 79 39 3c
       -0.062366735 0.028780708 -0.020302046 0.01132044
000050 9d 07 88 bc 9f df 2c 3d 20 a2 8f bc 87 70 52 bd
       -0.016605193 0.04220545 -0.017533362 -0.051376846
000060 73 d7 cd 3c da 13 88 bd 03 63 29 3b 59 0e e6 bc
       0.025127148 -0.066444114 0.002584637 -0.028083013
000070 fa ad 26 bd cd d9 12 bd 26 d9 14 bb 50 37 e4 3c
       -0.04069326 -0.035852242 -0.0022712438 0.027858406
000080 ac 8f 15 bd 4d de b5 3c d1 07 16 bd 8b 09 c4 3d
       -0.03651397 0.022200728 -0.036628548 0.09572133
000090 bd b9 fb 3c 36 05 42 bd 15 33 b6 3d a8 c9 e3 bc
       0.030728215 -0.04736825 0.08896462 -0.027806118
0000a0 6b ca fb 3b 11 37 3c 3c 0f 3f 2f 3e f7 5a 9d 3b
       0.007684042 0.011487738 0.17113899 0.0048021036
0000b0 6f e8 46 bc bf 08 b1 bb 77 0b a8 3d d0 f6 bc 3b
       -0.012140377 -0.005402654 0.08205312 0.005766727
0000c0 44 2d d7 3c 52 64 b7 bc 93 dd 51 bd ad 1e 34 bd
       0.026266702 -0.022386704 -0.0512367 -0.043974567
0000d0 b2 f4 ad bc 0d d9 50 bd e2 6d a6 bc e8 fb 2c bd
       -0.021234844 -0.050988246 -0.020316068 -0.042232424
0000e0 fc 14 13 bd 16 e8 85 bd 72 90 19 bd 02 21 47 bd
       -0.035908684 -0.065384075 -0.03749127 -0.048615463
0000f0 f7 28 f3 3b 2c 96 03 bd b3 13 0b bd 1b f6 95 3c
       0.007420655 -0.032125637 -0.033954334 0.018305829
000100 f4 5b 1c 3c 21 ed 9b 3c c1 73 ca bc 21 d2 2b 3c
       0.009543408 0.01903397 -0.024713399 0.01048711
000110 b6 17 e4 bc 5b aa 15 3c f7 22 cc bb 63 c7 3d bd
       -0.027843338 0.009134854 -0.006229754 -0.046332728
000120 19 ab b2 bc d3 d1 1b 3c c7 99 00 3c 4e bf 1d bd
       -0.021810101 0.009510475 0.007849163 -0.03851252
000130 58 2f 2b bd 46 83 36 bc 9d 88 2e bb 72 8a 1c bd
       -0.041793197 -0.011139696 -0.002663172 -0.03821797
000140 9b ea ac bc 88 ca d2 3a ba ae d2 3c d5 e0 a2 3a
       -0.021107962 0.0016082088 0.025718082 0.0012426624
000150 7c 31 a1 bc 94 a5 0c bb 86 58 01 bd ee e1 8b 3d
       -0.019676916 -0.0021460997 -0.031578563 0.06830202
000160 41 eb 95 3c 1c 0b 06 bd 57 06 ff 3d 12 e3 95 bc
       0.018300654 -0.03272544 0.12452381 -0.018296752
000170 eb 3c 4b 3b 34 01 a4 bc ae 68 02 3c 0f 28 07 bd
       0.0031011652 -0.020020105 0.007959528 -0.032997187
000180 df 56 a7 3c f0 a8 d5 3c 19 f8 5c bc e5 6e a9 bc
       0.020427166 0.026081532 -0.0134868855 -0.020682761
000190 37 ac 09 bb 0a c6 c4 ba 5b ea 08 bd a0 12 4b bd
       -0.002100719 -0.0015012634 -0.033426624 -0.04957831
0001a0 46 39 9c bc df ab 1e bd 8a e6 1c bc 35 56 42 bb
       -0.019070279 -0.038738128 -0.009576449 -0.0029653434
0001b0 58 bb 06 3d 8a d5 08 bd c1 9f f8 3c f3 2f 1a bd
       0.03289351 -0.03340677 0.030349614 -0.037643384
0001c0 62 53 93 3b 0c a9 c2 bc cc e7 d0 bc 83 3d 3c bd
       0.004496024 -0.023762248 -0.025501154 -0.0459571
0001d0 23 ff 32 3c ef ed b4 3c d3 be 93 bd 8b b6 0b bd
       0.010925087 0.022086112 -0.07214131 -0.034109633
0001e0 97 6d 23 3d c3 e8 9a 3d be ef 2b bd 62 ea ff bc
       0.039899435 0.07563927 -0.041976683 -0.031239692
0001f0 6f 75 b5 3d 3f 86 e5 bc 1d 08 af 3a 07 af 1f 3c
       0.08860289 -0.028018115 0.0013353858 0.00974632
000200 b1 3d 5e bc f7 9c 18 bd 53 74 03 3e c5 70 09 bd
       -0.013564513 -0.03725907 0.12837343 -0.03355481
000210 21 b2 37 bd 2c 05 03 3e ce 10 bd 3c 42 57 7c bb
       -0.04484761 0.12794942 0.023079302 -0.0038504158
000220 1d 8b 8a bd f3 76 8a 3c 3b 4f 80 3c 91 f5 14 bd
       -0.06764815 0.016902423 0.01566278 -0.036367003
000230 18 8f 21 bc b3 2f bc bc 61 6c 9f 3a 7c c9 df bc
       -0.009860776 -0.022971964 0.0012163037 -0.027317755
000240 16 e2 a1 bc ed 92 bb ba 4f 61 25 bc b6 ac 82 3c
       -0.019761126 -0.0014310755 -0.010094001 0.015951496
000250 0b db 43 bd 05 5a b5 3c 8e 24 9a bc a0 8e df 3d
       -0.047816318 0.022137651 -0.018816259 0.109158754
000260 e4 2c 26 bc 2b 37 34 bc d3 60 7a bc 5d 40 4f 3c
       -0.010142539 -0.010999481 -0.015281874 0.012649623
000270 7b 0e bd bc 39 39 99 bc c4 70 0a bb 99 b6 c5 3c
       -0.023078194 -0.018704044 -0.0021124342 0.02413492
000280 89 6a 27 bd 3e f2 31 bd cc ae c8 bb 29 4a e3 bb
       -0.040873084 -0.04344391 -0.006124353 -0.006936331
000290 17 fe e7 bc 85 25 d7 bc 2e 93 a2 3c 66 65 0f 3e
       -0.028319402 -0.026263008 0.019845571 0.14003524
0002a0 c2 85 2f 3d 0f e5 22 bd fd 02 fa 3d 05 44 8e bc
       0.04285217 -0.03976923 0.12207601 -0.017366419
0002b0 79 c6 52 bd 40 12 33 bd 3a b6 fa bb 80 df d4 3b
       -0.05145881 -0.043718576 -0.0076511176 0.00649637
0002c0 55 d4 a2 3c 94 99 a9 3c fc 3d a6 bc c4 9c ee bc
       0.019876638 0.020703115 -0.020293228 -0.029127486
0002d0 7b 48 92 3d 92 6c df bc 13 d1 dd 3b 9c 49 62 bd
       0.07142731 -0.02727345 0.0067693084 -0.05524598
0002e0 a6 5d d8 bc ec 01 4e bd 8e 3e 02 3c fd 74 22 bd
       -0.026411843 -0.0502948 0.0079494845 -0.03966235
0002f0 78 9c d4 3d 8a d2 03 bc 78 46 8c bc 32 31 24 bd
       0.103814065 -0.008045802 -0.017123446 -0.04008598
000300 38 b1 23 3b 0e e5 33 bd 4b 09 b2 3b 01 54 32 3c
       0.0024977457 -0.043919615 0.0054332367 0.010884286
000310 c2 c8 6a bd 95 16 e2 3a 81 fc 2b bc 15 1b 17 bd
       -0.057320364 0.0017249162 -0.010497213 -0.03689106
000320 d3 df 00 3c 75 b2 86 bb db 41 3d bd 22 2b cb 3d
       0.007865864 -0.004110629 -0.046205383 0.09920336
000330 9c b1 e6 bc 02 04 ed bc e4 d4 4a bc 83 67 77 bd
       -0.028160863 -0.028932575 -0.012379859 -0.06040145
000340 c5 7e 0b bd 34 ed 21 3b 33 4d 45 3c 48 3c f2 bc
       -0.034056444 0.0024708034 0.0120423315 -0.02956976
000350 09 9b e1 bc b3 38 ab bc 43 b0 5b bc 55 8f 1b bd
       -0.027539747 -0.02090106 -0.013408723 -0.03797849
000360 5e 51 06 3d 09 ae ce 3c b6 a5 0e bd d3 67 10 bc
       0.03279244 0.02522947 -0.034826003 -0.008813816
000370 ab de 3d 3d 4d fb 58 3c 2f 11 08 b9 f2 ed 16 bc
       0.04635493 0.0132435085 -0.00012976372 -0.009212004
000380 95 42 d5 3b ef dd 2f 3e 43 35 32 bd 71 60 48 bc
       0.0065081813 0.17174505 -0.043507826 -0.012230025
000390 b5 13 e9 3a 2a eb 08 3d a4 0a f8 bc 30 bd ad bc
       0.0017782362 0.033427395 -0.030278511 -0.021208376
0003a0 1a 55 c3 3b ed fd 48 bd 99 e5 b8 bd 98 94 39 bd
       0.0059610726 -0.049070287 -0.09028167 -0.045307726
0003b0 ea 52 26 bd e6 7e f1 bc 62 45 e7 3c a1 2d da bb
       -0.040606417 -0.029479455 0.028231326 -0.0066582714
0003c0 be 37 1d bd 0d 95 85 bd 5e 4e 1e 3e 4b a7 62 bd
       -0.038383238 -0.0652257 0.15459582 -0.055335324
0003d0 68 49 a2 bd 6c e6 0c bc e7 6a aa 3c 1c ac 46 bc
       -0.079241574 -0.008599859 0.020802928 -0.012125995
0003e0 cd f5 d8 bb a6 ba a1 bc a0 41 9e 3b 84 f0 6a 3c
       -0.0066210986 -0.019742321 0.0048296005 0.01433957
0003f0 42 67 60 bd cc cf 17 bd c0 ba 93 ba 10 13 0d bd
       -0.054785974 -0.037063405 -0.0011270866 -0.034442008

mlp.4.weight f4 [1, 256]
000000 a0 09 12 bd de b1 e0 bc 01 3b 16 bb de b7 1f bb
       -0.03565371 -0.027428564 -0.0022923353 -0.0024371068
000010 d3 19 e2 3c 0f dc 2b bd 74 9a 7d bc 10 9e 90 3b
       0.027600205 -0.04195791 -0.015478719 0.004413374
000020 6c 8c b0 bc e3 41 ac bc b4 c1 ed bb d8 58 0a bb
       -0.021551333 -0.021027511 -0.007255757 -0.0021110084
000030 96 23 0e 3c 21 11 e5 bc 82 e8 1d 3d 4e b2 4b bd
       0.008675477 -0.02796227 0.038551815 -0.04973059
000040 84 fa a1 3c f1 d4 86 3a 85 b9 24 3d de 9d d5 bb
       0.019772775 0.001028685 0.040215988 -0.0065190634
000050 52 80 36 3d 15 14 74 ba e8 43 11 bc 9f 97 3b 3d
       0.04455597 -0.0009310854 -0.008866288 0.045798894
000060 a0 c5 87 3c 24 a0 5c bb bf 2f 56 3d 0c 70 e5 3c
       0.016573727 -0.0033664787 0.052291628 0.02800753
000070 42 d8 2f 3b 99 45 17 3c 62 e2 55 3b 87 4d e9 b8
       0.002683178 0.009232902 0.0032636155 -0.000111247464
000080 a4 1f d3 3c b7 0a ca bc 7a 4c e9 3a 5a 14 52 bc
       0.025771923 -0.024663312 0.0017799281 -0.012822235
000090 d7 1a a3 bb c7 72 dd 3b 84 ff 35 bc bd cd 3b 3c
       -0.004977565 0.0067580673 -0.011108283 0.011462626
0000a0 b2 a0 01 3d 5b 74 35 3d 81 97 ce bd d0 30 81 3c
       0.03164739 0.04430042 -0.10087491 0.015770346
0000b0 f0 fd 53 bc 6c 92 1f 3c 0a 61 52 bd 7b 58 2a 3b
       -0.012938961 0.0097395 -0.051362075 0.002599268
0000c0 85 66 01 39 18 d4 ad bc fd 2f fc bb 73 db 8f 3c
       0.0001234059 -0.021219298 -0.0076961503 0.017560696
0000d0 4b 88 3c 3b de 1a f8 3a 88 a4 e2 3c e0 0a a8 3b
       0.002876776 0.0018928905 0.027666345 0.0051282495
0000e0 fc 4b 08 3d c1 bf e2 3b 95 15 58 3c 0b f7 67 3b
       0.03327559 0.0069198315 0.013188739 0.0035395052
0000f0 d2 22 5a bc ed 94 19 3b 9e f6 a1 3c e0 d4 71 3c
       -0.013313966 0.0023434714 0.019770917 0.014760226
000100 be 45 7e bb b7 39 04 3d 65 59 6c 3c fd 25 90 3b
       -0.0038798894 0.032281604 0.01442561 0.00439906
000110 06 f5 c1 3c 01 f2 7e b7 f1 6f f1 3c 0e 72 aa bb
       0.023676407 -1.5195926e-05 0.029472323 -0.0052015847
000120 2b d6 ce 3c b1 42 5f 3c f8 d8 85 3b aa 82 20 bd
       0.025248608 0.01362674 0.0040847026 -0.03918711
000130 00 12 78 3a f8 35 78 3b e4 cf d3 3c 32 69 4c 3d
       0.00094631314 0.0037873965 0.025855966 0.04990501
000140 60 89 96 3c 37 c6 79 bc 3e 52 01 3c 9a b2 8f 3a
       0.018376052 -0.015245012 0.007893143 0.0010963262
000150 4c a5 ad 3b e2 8a 3c bb 76 1b b6 3c e7 8e f0 3d
       0.005299246 -0.0028769304 0.022229891 0.117460065
000160 5b a6 3f bd 2b 67 6f 3b 1f fc 48 bd 10 74 ae 3c
       -0.04678951 0.0036529999 -0.049068566 0.021295577
000170 d4 a2 f7 bc 60 e5 fc bc db f2 fd 3c 88 93 e4 b9
       -0.03022901 -0.030871093 0.030999592 -0.00043597468
000180 32 54 52 3c 58 86 74 3b f8 93 35 bd 3d 7a dc 3c
       0.012837457 0.003731152 -0.044330567 0.026913757
000190 21 53 ea 3a 76 6d 8a 3b 1a 9b 87 3b a9 a7 6d 3c
       0.0017877558 0.0042244745 0.0041383626 0.014505305
0001a0 08 d9 bb 3c d1 1a ee 3c 70 21 0e 3c be 65 61 bd
       0.022930637 0.029065521 0.008674964 -0.05502867
0001b0 9f 73 93 39 60 16 d6 3b 9f 6d 77 3a 36 52 67 bd
       0.0002812417 0.006533429 0.0009438637 -0.056474887
0001c0 7e 95 a1 bb 51 f0 18 3c bd ab 3f 3c 07 a2 f9 3c
       -0.004931151 0.00933464 0.01169866 0.030472768
0001d0 d5 49 70 bb 93 ac 2b 3d d6 8f 0a 3c e3 6e 2a 3d
       -0.00366651 0.041912626 0.008457145 0.041609656
0001e0 a2 25 a4 3d 0d 7e d6 bc 0b 4b b5 bc b8 fa 0c 3d
       0.080149904 -0.026183153 -0.02213051 0.03441879
0001f0 72 a8 9c bc 24 22 76 bc 7d 3c 26 bb 2d 5f 10 bc
       -0.01912329 -0.015022788 -0.0025365644 -0.008811754
000200 74 be f6 3b f0 79 ce 3c ad 9a 1c bd ac d6 59 bd
       0.007530028 0.025204629 -0.038233448 -0.053183243
000210 4c 43 3b 3d 57 e2 24 bd 85 7a 1b bc cb ae 27 3d
       0.045718476 -0.040254917 -0.00948966 0.04093818
000220 16 16 13 3d ca 31 61 3b 7c 68 4c bd f9 04 71 3b
       0.035909735 0.0034361952 -0.04990433 0.0036776646
000230 f4 e6 a0 bb e2 a5 ae bb e1 ce 07 3c ce 55 32 bc
       -0.0049103443 -0.0053298334 0.00828907 -0.010884715
000240 39 8b 37 3d de 13 95 b8 d1 ff 6c 3b 2f 70 cc ba
       0.044810507 -7.108574e-05 0.003616322 -0.0015597398
000250 99 47 2f 3d 19 5c 49 3b ab 34 29 3c 47 a3 04 bd
       0.04279289 0.003072506 0.010327498 -0.032382276
000260 27 c2 46 3d 13 36 08 3c 2d 54 14 39 df 34 3c 3c
       0.048525 0.008313674 0.00014145738 0.011487215
000270 bb 32 82 3c a0 50 ce 3b ce c4 6e bb cb 13 34 bd
       0.01589333 0.0062962323 -0.0036433223 -0.04396419
000280 83 1a da 3c b2 2b 8c 3b d0 51 ea bc b4 79 ca bc
       0.02662397 0.00427767 -0.028603464 -0.024716236
000290 dd 6a 90 3c d3 aa bb ba 2e fc c1 3c 9a 51 c4 bd
       0.017629081 -0.0014317877 0.023679819 -0.09585877
0002a0 4a 8e 60 ba 4a f2 ce 3a 76 87 6b bd 9c 46 f4 3c
       -0.00085661246 0.001578876 -0.057502232 0.029818825
0002b0 24 15 b9 bc 9c 25 3f 3d d8 d8 7d bc a3 7b 9f 3a
       -0.022593088 0.046666726 -0.015493594 0.0012167584
0002c0 85 9b 25 3d c3 da 10 3d 88 3f 1d 3c 70 58 e1 3c
       0.040431518 0.035364877 0.009597667 0.02750799
0002d0 fb fb 02 bd ed 94 d5 3b 49 da 88 bc 1f 80 3a 3c
       -0.03197859 0.0065179975 -0.016705649 0.0113830855
0002e0 13 0d b8 3b 91 8e cb 3c 32 09 ab 3c aa eb c7 3b
       0.005616793 0.024848254 0.020878408 0.0061010914
0002f0 f5 3f c7 bc 2a 86 5f 3b f1 fc b9 ba 16 c2 b7 bb
       -0.02432249 0.0034107068 -0.0014189762 -0.0056078536
000300 a1 91 00 3b 1a 8b 3a 3d ea 45 ba ba a2 ad 8d 3c
       0.0019618052 0.045542814 -0.001421151 0.017294709
000310 a7 81 2b 3c 39 91 94 3b 6e a9 2d bc b3 7e 66 ba
       0.010467923 0.0045339135 -0.010599477 -0.00087926834
000320 d1 fc 44 3c ea b9 0c 3d 49 c1 12 3d 48 53 c6 bc
       0.012023167 0.03435699 0.035828862 -0.024209633
000330 97 e9 49 bd 05 0f 9e bb b9 31 01 3d 6f e9 fa 39
       -0.049295034 -0.004823568 0.03154156 0.00047857637
000340 88 69 50 bd a7 62 0b 3c d7 b3 a1 3b 56 ba 3f 3c
       -0.050881892 0.008507407 0.0049347687 0.011702141
000350 a8 58 f7 3c 67 1a 22 3d 9a e4 a6 3a a2 b0 41 bd
       0.030193642 0.03957596 0.0012732923 -0.04728759
000360 f8 28 fd 3c f2 90 38 3c 44 a4 76 bd 94 9b a6 ba
       0.030903324 0.011265026 -0.06021525 -0.0012711161
000370 4e 62 aa bc 78 9d 0e 3b bb ab 1d bc 7e f7 15 3c
       -0.020798828 0.002176134 -0.009623463 0.009153245
000380 1c d4 1a ba 75 e9 a8 bd ca f5 0d 3d a5 c6 2b 3c
       -0.00059062405 -0.082476534 0.03465823 0.010484372
000390 cc a2 24 3d 01 05 22 3b 10 04 a0 bc bf c0 37 3d
       0.040194318 0.002472222 -0.019533187 0.04486155
0003a0 5f bf de 39 a3 86 c0 3c 6f 17 92 bc 4f fa 49 3d
       0.00042485722 0.0235017 -0.01783344 0.04931098
0003b0 dd b3 98 3c 44 20 73 bc e4 cb 60 3d 4c a2 64 bb
       0.018640453 -0.014839236 0.054881945 -0.0034886776
0003c0 00 78 2b bc 8b aa aa 3c 72 fc 75 bd cc 81 26 3d
       -0.010465622 0.020833274 -0.060055204 0.040651128
0003d0 df e1 d6 3c ee b4 1e 3d d1 96 2a 3c d3 96 cd bc
       0.02623075 0.038746767 0.010411934 -0.025096333
0003e0 1a a7 1a bc f1 eb 9b 3c 1d bd df 3a d9 cd 0f ba
       -0.009439254 0.019033404 0.001706991 -0.0005485691
0003f0 cd 29 61 3c ab e5 d8 bc 9a 41 e0 37 41 ad 48 3c
       0.013742876 -0.026476702 2.6733429e-05 0.012248338
