results/TD3/checkpoints/model_500_critic2.pth (torch, 559463 bytes, 5 tensors)

mlp.0.weight f4 [512, 14]
0	0xbe494daa	-0.19658533
1	0x3c5c227c	0.013435956
2	0x3e4774b6	0.19478115
3	0x3e5c9491	0.21541049
4	0xbe94d338	-0.29067397
5	0x3e8c65b2	0.27421337
6	0x3d911c5c	0.07085487
7	0xbe3bc8a1	-0.18338253
8	0x3e392dfd	0.1808395
9	0x3d8be47f	0.068306915
10	0x3d405f57	0.046965923
11	0xbdec8f18	-0.115507305
12	0x3e2e2832	0.17007521
13	0xbe98022a	-0.2968915
14	0x3e172a5a	0.1476225
15	0xbd7171a4	-0.058946267
16	0x3d3bf033	0.04588337
17	0xbe50cf45	-0.20391567
18	0xbb530f23	-0.0032205067
19	0x3e6aa780	0.22915459
20	0xbe3e730e	-0.18598577
21	0xbe19d068	-0.15020907
22	0x3cf36f60	0.029716194
23	0x3e1d9b42	0.15391257
24	0xbd8bddd7	-0.06829422
25	0x3dec264f	0.11530744
26	0xbe278449	-0.16359057
27	0xbcbb38d4	-0.022854246
28	0xbe131b5a	-0.14365903
29	0x3d50ac6d	0.050945688
30	0x3d08817a	0.033326603
31	0x3d994935	0.07484666
32	0x3dca4ef6	0.09878342
33	0x3e81352c	0.2523588
34	0xbe8d4c22	-0.27597147
35	0x3d9eff1a	0.077635005
36	0x3e843646	0.25822657
37	0xbdc7f42d	-0.0976337
38	0x3bad7aaa	0.0052941637
39	0xbdd2986e	-0.1028298
40	0x3b9814a2	0.0046411315
41	0xbe5a49b1	-0.21317174
42	0xbdc59996	-0.09648435
43	0x3f0a837f	0.541069
44	0x3e642fe1	0.2228389
45	0xbd0b4646	-0.034002565
46	0xbd2e8fc1	-0.042617563
47	0x3e1e0c2e	0.15434334
48	0x3d6b657f	0.05746984
49	0xbe8ceb62	-0.27523333
50	0xbe75a3ec	-0.23988312
51	0x3e578a21	0.21048786
52	0xbe49f1fe	-0.19721219
53	0x3eea027c	0.4570502
54	0x3edfad06	0.43686694
55	0x3da4fd66	0.080561444
56	0x3e305389	0.17219366
57	0x3d6eb2bc	0.058275923
58	0xbea20428	-0.31643796
59	0x3b811752	0.0039395476
60	0xbddbaa69	-0.107258625
61	0x3dfeea51	0.12447036
62	0xbdd26e9a	-0.10275002
63	0x3e48622a	0.19568697
64	0xbe0ec0bf	-0.13940714
65	0x3d8226cb	0.063550554
66	0xbe9338c7	-0.28754255
67	0x3da17c89	0.07885081
68	0x3df01e16	0.117244884
69	0xbd91a33e	-0.07111214
70	0x3e2431cb	0.1603462
71	0xbdbdaca0	-0.09261441
72	0xbe3944b4	-0.18092614
73	0x3e2b883e	0.16751191
74	0xbd93b3d2	-0.072120324
75	0xbd69f2ed	-0.057116438
76	0xbd5597bb	-0.052146655
77	0xbe9d53cb	-0.3072799
78	0xbdeb2680	-0.11481953
79	0xbddfab1f	-0.10921311
80	0x3d8fab0b	0.07015046
81	0x3d6ccb5c	0.057811126
82	0xbe80861b	-0.25102314
83	0xbe680d76	-0.22661385
84	0xbec62263	-0.3869811
85	0xbddf836c	-0.109137386
86	0xbe68b7fd	-0.22726436
87	0xbcfdfc80	-0.03100419
88	0x3e704d9b	0.23467104
89	0x3e40642a	0.1878821
90	0xbd779c60	-0.060451865
91	0x3dc63dc8	0.096797526
92	0x3bacc105	0.005272033
93	0xbe6aef0c	-0.22942752
94	0x3e69a0c9	0.22815241
95	0xbc5ff979	-0.013670319
96	0x3d872ea5	0.066006936
97	0x3e54f188	0.20795262
98	0xbd085899	-0.03328762
99	0xbe172a80	-0.14762306
100	0x3cba3ea5	0.02273495
101	0xbe7ebd60	-0.24876928
102	0xbdab0004	-0.08349612
103	0xbd968846	-0.07350211
104	0xbe3a5265	-0.18195494
105	0x3dfb0cf5	0.12258331
106	0x3d5bc2ac	0.05365245
107	0x3c01456f	0.007890089
108	0xbe2a8a10	-0.16654229
109	0xbe06fb58	-0.13181818
110	0x3ddf4299	0.10901374
111	0xbcac30b4	-0.021019317
112	0x3cb65ccb	0.022261044
113	0xbddec3b8	-0.10877174
114	0xbe526dfc	-0.20549768
115	0xbe79dd5c	-0.24400848
116	0xbe0f50ae	-0.1399562
117	0xbe469a3c	-0.19394773
118	0xbe3b5cea	-0.18297163
119	0x3e87eddd	0.26548663
120	0x3dfe10a5	0.124055184
121	0xbc35d54a	-0.011098215
122	0x3de6e2ba	0.112737134
123	0xbdf055c6	-0.1173511
124	0xbb0c2d2b	-0.0021389227
125	0x3e21bd46	0.15794858
126	0x3d171c00	0.036891937
127	0x3f04dce6	0.51899564
128	0x3e4ec53d	0.20192428
129	0x3c392fbb	0.011302884
130	0xbdae9962	-0.08525349
131	0x3d8d652c	0.06904063
132	0x3e4e0ce0	0.20122099
133	0x3e6ec654	0.23317844
134	0x3d86d2bc	0.06583163
135	0x3d256217	0.04037675
136	0x3ebbd981	0.3668938
137	0x3ed8146b	0.42203078
138	0xbe106a9f	-0.14103173
139	0x3ccb46b0	0.02481398
140	0x3d41db6d	0.0473284
141	0x3e910e7d	0.28331366
142	0x3c138a46	0.009005135
143	0xbe5e67e8	-0.21719325
144	0xbe9b43f6	-0.30325288
145	0x3e608dd6	0.21929106
146	0x3dbea48b	0.09308728
147	0x3c08bd3a	0.008345896
148	0xbd75c583	-0.060002815
149	0xbcbf5484	-0.02335573
150	0xbe14665b	-0.1449217
151	0x3e21fa1e	0.15818068
152	0xbe1d5a85	-0.15366562
153	0x3c8d3141	0.0172354
154	0xbda4d97f	-0.080492966
155	0xbe6548bc	-0.22391027
156	0x3e543277	0.20722376
157	0x3e55e65c	0.20888656
158	0xbe5baa44	-0.2145167
159	0x3e128193	0.14307241
160	0xbc693280	-0.014233232
161	0xbdb4013d	-0.08789299
162	0x3df56d64	0.11983755
163	0xbd9db029	-0.076996155
164	0xbe70ec50	-0.23527646
165	0xbdc68ad8	-0.09694451
166	0x3dd691fe	0.104770645
167	0xbd09e318	-0.03366384
168	0x3c05dde8	0.008170582
169	0xbe40c479	-0.18824948
170	0x3d4363d1	0.047702614
171	0x3df0c055	0.117554344
172	0xbd8b43e5	-0.06800059
173	0xbb830f2a	-0.0039996104
174	0xbe885a45	-0.2663137
175	0x3aed3e58	0.0018100245
176	0x3d970bf9	0.073753305
177	0x3d2905ac	0.041265175
178	0xbde25067	-0.11050492
179	0x3ce02e65	0.027365873
180	0x3cf6bae1	0.030118408
181	0xbd3f8063	-0.0467533
182	0x3e1fde0a	0.15612045
183	0xbd82ba6b	-0.06383213
184	0x3de51a3a	0.11186643
185	0xbe679eab	-0.22619121
186	0xbe7bf9c5	-0.24606998
187	0x3d3ff26b	0.046862047
188	0xbcac1054	-0.02100388
189	0x3dfdbcf1	0.12389553
190	0x3e4cb459	0.19990672
191	0xbe50e058	-0.2039808
192	0x3d56e75c	0.052466735
193	0x3b8a8c3d	0.0042281435
194	0xbd9e6ddd	-0.077357985
195	0xbe4ecc7e	-0.20195195
196	0x3d0e0bea	0.03467933
197	0x3c8eb71d	0.0174213
198	0xbdfcf08f	-0.123505704
199	0x3e36c4e2	0.17848542
200	0xbe9d5dfb	-0.30735764
201	0x3beda07f	0.0072517986
202	0x3e2cf101	0.1688881
203	0xbe45c26e	-0.1931245
204	0xbdc42197	-0.09576719
205	0x3d5b57c8	0.05355051
206	0x3eafd182	0.3433953
207	0x3d6cfc12	0.05785758
208	0xbeac5853	-0.33661136
209	0x3e506622	0.2035146
210	0x3db92e2b	0.09042009
211	0x3d3558e6	0.044274233
212	0xbccf8c70	-0.02533552
213	0xbe83da0b	-0.2575229
214	0xbe3b0049	-0.18261828
215	0x3dd9505b	0.1061103
216	0xbea37011	-0.31921437
217	0x3e4a3160	0.19745398
218	0xbe0ae185	-0.13562591
219	0x3d9ab67c	0.075543374
220	0x3e3774e3	0.17915682
221	0x3ca0d407	0.019632353
222	0xbe5c89b0	-0.21536899
223	0xbedba7f8	-0.42901587
224	0x3e229967	0.15878831
225	0xbe87b581	-0.26505664
226	0xbe727569	-0.23677601
227	0xbccd19f1	-0.025036784
228	0xbe70c050	-0.23510861
229	0xbe19d85c	-0.15023941
230	0x3d6191b3	0.05507059
231	0xbdf91162	-0.12161519
232	0x3df97556	0.12180583
233	0xbe42a15d	-0.19006868
234	0xbe418d04	-0.1890145
235	0xbdf6149d	-0.120156504
236	0xbd163738	-0.036673754
237	0xbe11db5e	-0.14243838
238	0xbe6b7c1b	-0.22996561
239	0x3e5fbfd7	0.21850525
240	0xbe5eaf12	-0.21746472
241	0x3db9bdb0	0.09069383
242	0xbe1cc364	-0.1530891
243	0xbe337573	-0.17525272
244	0x3e176ccb	0.14787595
245	0xbe7d1a25	-0.24717005
246	0x3dde35fa	0.10850139
247	0xbe3a9de3	-0.18224292
248	0x3dd3425b	0.10315391
249	0xbdb61c1b	-0.088920794
250	0xbcebd72c	-0.028789125
251	0x3e62e98c	0.22159404
252	0x3e9ba71f	0.3040094
253	0xbf02d620	-0.5110798
254	0x3d2fc0aa	0.04290835
255	0x3d812f33	0.06307831

mlp.0.bias f4 [512]
0	0x3d428f24	0.04749979
1	0xbe58a082	-0.21154979
2	0x3d0fcf08	0.03510955
3	0x3de780d5	0.1130387
4	0xbe15b76c	-0.14620751
5	0x3e041c46	0.1290141
6	0xbb97dd0f	-0.0046345065
7	0xbd939251	-0.07205642
8	0xbe50b2e2	-0.20380738
9	0xbe4bc786	-0.19900331
10	0xbd7d00bd	-0.061768282
11	0xbe0fec9b	-0.14055102
12	0x3dececc7	0.11568599
13	0xbe2af2d5	-0.16694196
14	0x3ceb792c	0.028744303
15	0x3d1f8f09	0.03895477
16	0xbc8451c2	-0.016152266
17	0x3ddac07f	0.10681247
18	0x3d8d873a	0.06910558
19	0x3d18507b	0.037186127
20	0x3dc74a16	0.09730928
21	0xbdd5dabe	-0.104421124
22	0xbe61d848	-0.22055161
23	0x3d576d25	0.052594323
24	0xbdbb83fa	-0.09156032
25	0xbcf2ec7c	-0.02965378
26	0xbe87fb84	-0.2655908
27	0xbe4aaeef	-0.19793294
28	0x3e1bac94	0.15202552
29	0x3dd50523	0.104013704
30	0xbe02e6e3	-0.12783389
31	0xbe90ddc7	-0.28294203
32	0xbd1fe149	-0.039033208
33	0x3db6efd6	0.08932464
34	0xbbf551d9	-0.0074865636
35	0x3d32330a	0.043505706
36	0x3e27309a	0.16327134
37	0xbda6d9f1	-0.08147038
38	0xbbcaa4e5	-0.0061842077
39	0x3d84f306	0.064916655
40	0x3e47f4f8	0.19527042
41	0xbdc094f2	-0.09403409
42	0xbc9245c0	-0.017855525
43	0x3dd394f9	0.10331149
44	0xbe2eb38b	-0.17060678
45	0xbda96a63	-0.08272245
46	0x3d36d8df	0.04464042
47	0x3df7de86	0.1210299
48	0x3e064ad3	0.1311448
49	0xbe0f7578	-0.14009655
50	0xbe846777	-0.25860187
51	0x3e1e3f3f	0.15453814
52	0xbe864854	-0.26227057
53	0xbd988bfd	-0.07448576
54	0xbe6a874d	-0.22903176
55	0xbe11c724	-0.14236122
56	0x3d3aa553	0.04556782
57	0xbe00940f	-0.1255648
58	0x3e891146	0.2677099
59	0xbe6c4b84	-0.23075682
60	0x3d03f193	0.032212805
61	0xbe4bd2d3	-0.19904642
62	0xbe428c42	-0.18998817
63	0xbb0bfee5	-0.0021361646
64	0x3dc80f07	0.09768491
65	0xbe0be81b	-0.1366276
66	0xbd8083d4	-0.06275144
67	0x3e7ed87b	0.24887268
68	0x3d993be4	0.07482126
69	0xbe721fb8	-0.23644912
70	0xbd59eafa	-0.053202607
71	0x3da9932c	0.08280024
72	0xbe68cb5b	-0.22733824
73	0x3e6179f3	0.22019176
74	0xbdd72216	-0.10504548
75	0xbd140f22	-0.036147244
76	0x3e30101e	0.17193648
77	0x3dfd7d86	0.12377457
78	0xbe030918	-0.12796438
79	0x3e577843	0.2104197
80	0xbdaa87aa	-0.08326657
81	0x3dcb42d5	0.099248566
82	0x3a39c1c8	0.00070860656
83	0x3d256485	0.040379066
84	0xbe83a2b7	-0.2571008
85	0x3decf3a2	0.11569907
86	0xbcbf1d26	-0.023329329
87	0xbe14bc15	-0.14524873
88	0xbc87ec8a	-0.016592283
89	0xbdce0319	-0.100591846
90	0xbd135efc	-0.035979256
91	0x3e2b04b1	0.16701008
92	0xbe623635	-0.22090991
93	0xbd63e9d6	-0.055642925
94	0xbe012bce	-0.12614366
95	0xbe245bc9	-0.16050638
96	0xbd0b2472	-0.033970304
97	0xbe2bbc52	-0.16771057
98	0xbe2ba8e6	-0.16763648
99	0xbe5103e5	-0.20411642
100	0x3e23b64f	0.15987514
101	0x3e41f123	0.18939643
102	0xbe3c810d	-0.18408604
103	0xbe86d259	-0.26332358
104	0x3dd661fe	0.10467909
105	0x3dcde4dc	0.10053417
106	0x3e3fdd12	0.18736675
107	0x3d5ba513	0.053624224
108	0x3c6a3c43	0.014296594
109	0xbe801e88	-0.25023293
110	0xbe35b379	-0.17744245
111	0xbe24ee10	-0.16106439
112	0xbe5eb507	-0.21748744
113	0xbe5c2c85	-0.21501358
114	0x3dd7c93d	0.1053643
115	0xbdcf99d5	-0.10136763
116	0x3b797fea	0.0038070627
117	0xbd4bf486	-0.049793743
118	0xbe2ed279	-0.17072476
119	0xbe1bb84b	-0.15207021
120	0xbd92e1bc	-0.07171962
121	0xbdac098c	-0.084002584
122	0xbe13e429	-0.14442505
123	0xbdd591c0	-0.1042819
124	0x3dd08660	0.1018188
125	0x3dc3a0e4	0.09552172
126	0xbd47e952	-0.048806496
127	0xbe6ba757	-0.23013054
128	0xbd209784	-0.039206997
129	0xbdb8d3ba	-0.09024759
130	0x3dc286f1	0.09498394
131	0xbdc61c22	-0.09673335
132	0x3cd5a150	0.026077896
133	0xbd750ab0	-0.059824646
134	0xbd9a2340	-0.07526255
135	0xbe80016d	-0.25001088
136	0xbe6dc1ca	-0.23218456
137	0xbcbbf630	-0.02294454
138	0xbe135aff	-0.14390181
139	0x3e299cf4	0.16563779
140	0x3e083988	0.13303196
141	0xbd1f80e3	-0.038941275
142	0xbe19d3c4	-0.15022188
143	0x3bc8e8e1	0.006131277
144	0xbe5f7ba3	-0.21824507
145	0x3e44cdb1	0.1921909
146	0x3e0bd294	0.13654548
147	0xbe667fd3	-0.22509699
148	0x3e080b40	0.13285542
149	0xbe34ba47	-0.17649184
150	0xbbe5ecd9	-0.00701676
151	0xbe616ce7	-0.22014199
152	0xbe4c3ccf	-0.19945072
153	0x3e5c5d11	0.21519877
154	0xbde4e856	-0.11177127
155	0x3d50d263	0.05098189
156	0xbd2a1593	-0.04152448
157	0xbdd52940	-0.104082584
158	0xbd9a9949	-0.07548768
159	0x3e229b90	0.15879655
160	0x3e0bf77a	0.13668624
161	0xbe01fea2	-0.12694791
162	0x3e585c12	0.21128872
163	0xbbb00709	-0.0053719324
164	0xbd82cf99	-0.06387252
165	0x3e83803f	0.25683782
166	0xbcf70494	-0.03015355
167	0x3e06da54	0.13169223
168	0x3cb4f263	0.022088235
169	0x3e425f61	0.18981697
170	0xbe402478	-0.18763912
171	0xbdcf3457	-0.10117405
172	0xbd9323cc	-0.07184562
173	0xbe1586da	-0.14602223
174	0xbe5c31b6	-0.21503338
175	0xbd1f853d	-0.038945425
176	0xbea144da	-0.31497842
177	0x3e2edc35	0.1707619
178	0xbd18119b	-0.037126165
179	0x3e04b20b	0.12958543
180	0x3d348c5c	0.04407917
181	0xbe41a9b1	-0.18912388
182	0xbe14130e	-0.14460394
183	0x3dbd524d	0.09244213
184	0x3cfc5e8d	0.030806804
185	0xbda07460	-0.07834697
186	0x3da1aa73	0.07893839
187	0xbd0dbc86	-0.034603618
188	0xbd74dab6	-0.05977889
189	0xbd832fbc	-0.06405589
190	0xbe725a68	-0.236673
191	0xbe06dd04	-0.13170248
192	0x3d825b59	0.063650794
193	0x3da75f8b	0.0817252
194	0x3e27aae9	0.16373791
195	0xbe828977	-0.25495502
196	0xbd1c68d9	-0.038185928
197	0xbd047fb7	-0.03234836
198	0x3e609c48	0.21934617
199	0xbe324c49	-0.17411913
200	0xbc841bfa	-0.016126622
201	0xbde64c3a	-0.11245008
202	0xbe8848b3	-0.26617965
203	0xbe1a79ef	-0.15085576
204	0xbd9378ce	-0.07200776
205	0x3ca91f5a	0.020644832
206	0xbd507d57	-0.050900783
207	0x3cd139c9	0.02554025
208	0xbe84c663	-0.25932607
209	0x3da41f4a	0.080137804
210	0x3d8139b7	0.06309836
211	0xbdab1fbe	-0.08355664
212	0x3dab99c5	0.083789386
213	0xbe396885	-0.18106277
214	0xbd3b0572	-0.04565949
215	0xbe27cecb	-0.16387479
216	0xbdf9f215	-0.122043766
217	0xbe67e853	-0.22647218
218	0x3d838f60	0.06423831
219	0x3e2d7b55	0.16941579
220	0xbdd9e041	-0.10638476
221	0xbc2035db	-0.009778465
222	0x3e319411	0.17341639
223	0xbc1cfe32	-0.009582089
224	0xbc89eb59	-0.016835855
225	0x3dca6f45	0.09884504
226	0x3d84f063	0.06491163
227	0xbe74d55f	-0.2390952
228	0x3d41e3fc	0.047336563
229	0xbd44369e	-0.04790365
230	0x3e405e66	0.1878601
231	0xbe13715d	-0.14398713
232	0xbe833654	-0.25627387
233	0xbdce8e92	-0.10085787
234	0x3d4487e3	0.047981154
235	0xbe7a1a01	-0.24423982
236	0xbdcaf90f	-0.099107854
237	0xbb50d3c7	-0.003186451
238	0xbe17f757	-0.14840446
239	0x3d32bc9b	0.0436369
240	0x3dd9a06f	0.106263034
241	0x3e3e5d5a	0.18590298
242	0x3e4a2d7a	0.1974391
243	0xbe23acf3	-0.15983944
244	0x3df71e74	0.12066355
245	0x3d5894c9	0.052876268
246	0x3d4e53c8	0.05037287
247	0x3d9d2f6b	0.0767506
248	0x3d0eefaa	0.03489653
249	0xbe7075aa	-0.23482385
250	0x3dd0c236	0.10193293
251	0x3da8c0cb	0.08239897
252	0xbe6badec	-0.23015565
253	0xbda46b16	-0.080282375
254	0x3e477e65	0.1948181
255	0xbe3e9e69	-0.18615116

mlp.2.weight f4 [256, 512]
0	0xbcc13c02	-0.023588184
1	0x3ba883e0	0.005142674
2	0x3d23d14c	0.039994523
3	0xbd7d666f	-0.061865266
4	0xbc8cbc5e	-0.017179664
5	0x3c723b0d	0.014784587
6	0xbd4d43f6	-0.05011364
7	0xbcc4e03d	-0.024032706
8	0xbd2c24a4	-0.04202713
9	0xbd8755fa	-0.066081956
10	0x3bd761af	0.006572924
11	0x3ca6fed6	0.020385187
12	0x3cfb69be	0.03069007
13	0xbc81b36d	-0.015832627
14	0x3c8cde4f	0.017195849
15	0xbaf28e1b	-0.0018505485
16	0x3abce1bb	0.0014410535
17	0xbd32fca5	-0.04369797
18	0xbe5b96a0	-0.21444178
19	0xbccc16fb	-0.024913302
20	0x3cc292b8	0.023751602
21	0xbcc630bc	-0.02419316
22	0x3ce9d4c7	0.028543843
23	0x3c437b7a	0.011931295
24	0xbc0cf5c2	-0.008603515
25	0xbc11a2ef	-0.008888944
26	0x3bd8a345	0.00661126
27	0xbcf536bb	-0.029933324
28	0x3c9f7081	0.019462826
29	0x3c9174fc	0.017755978
30	0xbd91ef70	-0.07125747
31	0xbd93307c	-0.07186982
32	0xbe4f7f1e	-0.20263335
33	0xbcd3e6fa	-0.025866974
34	0x3c3c0cb1	0.011477635
35	0xbd02e7dc	-0.0319594
36	0xbbbc36e7	-0.0057438496
37	0x3cb35ed7	0.02189581
38	0xbcf8b665	-0.03036041
39	0x3cfab4a0	0.030603707
40	0xbd313adf	-0.043269034
41	0x3d01bf90	0.03167683
42	0x3d25c15e	0.040467612
43	0x3c061cc8	0.008185573
44	0xbd04f20a	-0.03245739
45	0x3cd8a9dd	0.026448185
46	0xbcdc9866	-0.026928138
47	0xbca578dd	-0.020199234
48	0xba549608	-0.00081095146
49	0xbd0f2c66	-0.03495445
50	0x3c07b285	0.0082823085
51	0x3d2f0a08	0.042734176
52	0xbd289cab	-0.041165035
53	0xbc8e668b	-0.01738288
54	0xbce7ec33	-0.02831087
55	0x3b0597e0	0.0020384714
56	0xbd0ade33	-0.033903312
57	0xbb9ee366	-0.0048488853
58	0xbd008731	-0.03137893
59	0xbc31aa75	-0.010843863
60	0x3ce3907b	0.027778855
61	0xbdbb302a	-0.09140046
62	0xbcf3c74f	-0.029758124
63	0x3cf76727	0.030200554
64	0x3d31d267	0.043413546
65	0xb9e06852	-0.00042802334
66	0xbd1e7742	-0.038687952
67	0x3cee5f28	0.029098108
68	0x3d15c713	0.036566805
69	0x3c3bc6ef	0.011461004
70	0xbcd74c1a	-0.026281405
71	0xbd0b5a85	-0.034021873
72	0x3b893f40	0.004188448
73	0xbd2c2e8c	-0.042036578
74	0xbb78f310	-0.0037986673
75	0x3d19e5ae	0.037572555
76	0x3d5a6ce4	0.053326502
77	0x3c7b953f	0.015355407
78	0x3d0d6e60	0.03452909
79	0xbc306d56	-0.010768255
80	0xbd26edb4	-0.040754035
81	0xbc4cda21	-0.012503178
82	0xbd1e0bb4	-0.03858538
83	0x3d4b11f5	0.049577672
84	0xbd28e552	-0.041234322
85	0x3b01565a	0.0019735307
86	0x3cb02a78	0.021504626
87	0xbc1d2a2d	-0.009592575
88	0xbc7893fd	-0.015172002
89	0xbdae6e66	-0.085171506
90	0x3d2d246d	0.042271066
91	0xbbdab748	-0.006674681
92	0x3bbe0a89	0.0057995957
93	0x3d548c8e	0.051891856
94	0x3b8e0be1	0.004334912
95	0xbd6e8526	-0.05823245
96	0x3c2c9506	0.010533577
97	0xbd5d5366	-0.054034613
98	0xbc81549b	-0.015787413
99	0xbcba61f6	-0.02275179
100	0x3a1ed1df	0.0006058495
101	0x3c32df9f	0.010917573
102	0x3d229eb2	0.039702125
103	0xbd2d2277	-0.042269196
104	0x3b709b95	0.0036713828
105	0x3cde0bdd	0.027105266
106	0x3a04954f	0.0005057649
107	0xbb29df78	-0.0025920551
108	0xbd420dde	-0.047376506
109	0x3d289fc3	0.041167986
110	0xbd859443	-0.06522419
111	0xbd18febe	-0.037352316
112	0xbcc949cf	-0.024571327
113	0xbcdb0d01	-0.0267396
114	0x3d1e4cb7	0.03864738
115	0x3d02ec27	0.031963494
116	0xbd890a06	-0.06691365
117	0xbcf2277d	-0.029559845
118	0x3ca4e22d	0.02012738
119	0xbe5e8771	-0.21731354
120	0xbc9cde65	-0.019149015
121	0xbb53f037	-0.0032339224
122	0x3cc63fb2	0.024200294
123	0xbcff2c64	-0.031149097
124	0x3ca755b4	0.020426609
125	0x3d148c34	0.03626652
126	0xbcec37ea	-0.028835256
127	0xbd8a3732	-0.06748809
128	0x3d0ecd60	0.03486383
129	0xb988ab40	-0.00026067533
130	0x3d09e47f	0.033665176
131	0xbda6e083	-0.08148291
132	0x3a2da8b3	0.00066245644
133	0xbcca874d	-0.02472272
134	0xbcdf48a2	-0.027256314
135	0xbd099b30	-0.033595264
136	0x3b6f0c06	0.0036475672
137	0x3af2da16	0.001852813
138	0x3ca394f3	0.019968485
139	0x3c2e318e	0.010631932
140	0x3d0121ad	0.031526256
141	0x3d29bc79	0.041439507
142	0xbca187e7	-0.019718124
143	0xb9609b31	-0.00021420118
144	0x3c6bae87	0.014384872
145	0x3d4ea4ef	0.05045026
146	0x3c78b54b	0.015179942
147	0x3c13e833	0.009027529
148	0xbcd409ad	-0.02588352
149	0xbb99acba	-0.00468978
150	0x3d26406b	0.040588778
151	0xbcdbfca8	-0.026853874
152	0x3d0d8b7d	0.034556855
153	0x3a05c105	0.00051023095
154	0xbe28bf6f	-0.16479276
155	0x3b33a345	0.0027410549
156	0xbd4baf23	-0.04972757
157	0xbd2c1163	-0.04200877
158	0xbd16f6c3	-0.036856424
159	0x3c089ece	0.008338643
160	0xbc93e8b5	-0.0180553
161	0x3d07ffd8	0.033202976
162	0xbd45fdad	-0.048337627
163	0x3c1be9f4	0.009516228
164	0xbcd0a3e8	-0.025468782
165	0xbbbd3cdc	-0.0057750773
166	0xbc1ac34a	-0.009445975
167	0xbcb0e0fa	-0.021591652
168	0xbb43b00a	-0.0029859566
169	0x3b1faf1d	0.002436585
170	0xbc1bd949	-0.009512254
171	0x3d31dd7c	0.043424115
172	0x3cd90931	0.02649364
173	0x3d27c48a	0.04095892
174	0xbe1dff13	-0.15429334
175	0xbcad7609	-0.021174448
176	0x3cbb2c77	0.02284835
177	0xbc271ec6	-0.010200208
178	0x3d30b225	0.043138642
179	0x3c8ef6e8	0.017451718
180	0xbdc119a7	-0.09428721
181	0xbcd0d06c	-0.025490008
182	0xbda84518	-0.082163036
183	0xbc552da7	-0.013011373
184	0x3c58a4ba	0.013222868
185	0xbcd0276d	-0.025409425
186	0x3c105135	0.008808424
187	0x3c13b290	0.009014741
188	0x3c984dfe	0.018591877
189	0xbbb538ca	-0.0055304514
190	0x3cf2f46a	0.029657561
191	0xbd1c9863	-0.038231265
192	0x3cccb5a7	0.024988962
193	0x3c9e918c	0.019356512
194	0xbc96d7c2	-0.018413428
195	0x3bd09d4d	0.006366408
196	0x3b99523e	0.0046789935
197	0x3c95ab94	0.018270291
198	0x3d4df0bf	0.05027842
199	0x3d2c6261	0.04208601
200	0xbc468140	-0.012115777
201	0x3c701d47	0.014655418
202	0x3ce51fc7	0.027969254
203	0x3ce45fc4	0.027877696
204	0x3d2e4d85	0.042554397
205	0xbb828431	-0.0039830436
206	0xbbdc547c	-0.0067239385
207	0xbcec5ffe	-0.028854366
208	0xbcee7a27	-0.029110981
209	0x3d45856b	0.04822294
210	0xbe33fd89	-0.17577185
211	0x3c6a9d05	0.014319663
212	0x3ce13145	0.027489314
213	0x3d24c206	0.040224098
214	0x3d1ca002	0.038238533
215	0x3cc6d816	0.02427296
216	0x3c82edae	0.015982475
217	0x3c2c1af0	0.010504469
218	0x3cd2e46e	0.02574369
219	0x3cc32205	0.023819933
220	0x3c18bba9	0.009322085
221	0xba9437f6	-0.0011308182
222	0xbd34c5b8	-0.04413387
223	0xbc6e8b11	-0.014559523
224	0x3c242ccb	0.010020445
225	0xbcc6e127	-0.024277283
226	0xbc60c66f	-0.013719185
227	0xbc38e66f	-0.011285408
228	0x3c9d091e	0.019169386
229	0xbc266e22	-0.010158094
230	0xbca2eb81	-0.019887688
231	0xbcf9c0c8	-0.030487433
232	0xbd11b947	-0.035577085
233	0xbc4185d8	-0.011811696
234	0x3a7a551b	0.0009549425
235	0x3ca29fe2	0.019851629
236	0x3ad8897f	0.0016520469
237	0x3ca778bf	0.020443318
238	0xbd121fa1	-0.035674695
239	0xbab6da10	-0.0013950486
240	0x3cb7af23	0.022422379
241	0xbd137ca1	-0.036007527
242	0x3d0be845	0.034157056
243	0xbc036051	-0.008018569
244	0x3d01437e	0.031558506
245	0xbc48a2d8	-0.012245856
246	0x3bc51ac7	0.006015155
247	0xbd321757	-0.04347929
248	0xbdeb3d56	-0.11486308
249	0xbcb38109	-0.021912115
250	0x3c3ae82f	0.011407896
251	0x3bffa776	0.0078019453
252	0x3c8889e9	0.016667323
253	0xbc054b4c	-0.008135628
254	0x3c80b5e9	0.015711742
255	0x3d1fcd27	0.039014008

mlp.2.bias f4 [256]
0	0x3ba6b00c	0.0050869044
1	0x3ca127be	0.01967227
2	0x3d23cb23	0.03998865
3	0xbccd2313	-0.025041139
4	0x3c7d157e	0.015447019
5	0xbca9bf3a	-0.020721067
6	0x3d79e4d3	0.06100924
7	0xbd077367	-0.03306904
8	0x3cc1b051	0.023643645
9	0x3ba249a3	0.004952626
10	0x3d996111	0.07489217
11	0xbc54c6ab	-0.012986819
12	0xbc838a43	-0.01605714
13	0x3d6f75c3	0.058461916
14	0xbc96eebc	-0.018424384
15	0x3d344cf8	0.044018716
16	0x3c6954d0	0.014241412
17	0xbceadd9e	-0.028670128
18	0xbca0f474	-0.019647814
19	0x3cc007c4	0.023441203
20	0xbc12240b	-0.008919726
21	0xbcb915b5	-0.022593359
22	0xbd33a2cb	-0.043856423
23	0x3c715c41	0.014731468
24	0xbb68f530	-0.0035546534
25	0xbbc205aa	-0.0059210854
26	0x3bbadc56	0.0057025356
27	0x3cb423b3	0.021989679
28	0xbb930570	-0.004486732
29	0xbd262a8e	-0.040567927
30	0xbc464e59	-0.0121036405
31	0xbd7f5516	-0.062337004
32	0x3cf7f605	0.030268678
33	0xbd935365	-0.071936406
34	0x3d9b7dc3	0.075923465
35	0x3c3a63c1	0.011376322
36	0xbd4406dc	-0.047858104
37	0xbd439c8e	-0.047756724
38	0x3dcaced2	0.09902729
39	0x3cbad45f	0.022806345
40	0xbd2ccf49	-0.04218987
41	0x3dd2e569	0.10297663
42	0x3caa6201	0.020798685
43	0xbcb4684a	-0.022022385
44	0xbd383117	-0.04496869
45	0xbc1995f9	-0.009374135
46	0xbc6846f9	-0.014177077
47	0xbb46fbdd	-0.0030362525
48	0x3d09a26f	0.033602174
49	0x3d373e65	0.04473724
50	0xbd0a2d4f	-0.033734616
51	0x3c089c15	0.008337994
52	0xbcdd1d53	-0.026991522
53	0xbcf3e2e5	-0.029771278
54	0xbd2593b5	-0.040424068
55	0x3d991094	0.07473865
56	0xbcf65b3f	-0.030072806
57	0xbd435329	-0.04768673
58	0x3cb6bef1	0.022307845
59	0xbc999e1b	-0.018752148
60	0x3db021b0	0.086001754
61	0xbd29e6b6	-0.04147979
62	0x3b21c1a5	0.0024682072
63	0xbd03abd3	-0.032146286
64	0xbd566aa3	-0.05234779
65	0xbd250cd4	-0.040295437
66	0x3cf71fb3	0.030166483
67	0x3c334371	0.010941372
68	0x3d189da7	0.037259724
69	0xbc81fbf0	-0.015867203
70	0xbd440f3f	-0.047866102
71	0xbc38be02	-0.01127577
72	0x3d9519d2	0.072803155
73	0x3d46f596	0.048574053
74	0x3dabb74a	0.08384569
75	0x3c6e1194	0.014530558
76	0xbb29d0dc	-0.0025911843
77	0x3d3770bb	0.044785243
78	0xbcaddc6d	-0.021223271
79	0xbc3b6efd	-0.011440036
80	0xbd2d9048	-0.042373925
81	0xbd34dd5b	-0.044156414
82	0xbce7aed6	-0.02828161
83	0xbcdaab60	-0.026693046
84	0xbc94538d	-0.018106246
85	0xbd3c1e44	-0.0459273
86	0xbcb85d9e	-0.022505578
87	0x3d391f79	0.04519603
88	0xbd22e6d5	-0.03977092
89	0x3c3a2e1d	0.011363533
90	0x3db66aea	0.08907111
91	0xbd094134	-0.03350945
92	0xbcabc50a	-0.020967979
93	0xbccbe1df	-0.024887977
94	0x3c24d182	0.010059716
95	0xbd0f82dd	-0.03503691
96	0xbd280444	-0.041019693
97	0xbbe40786	-0.0069589047
98	0xbb3cef4a	-0.002882915
99	0x3ce2ac7f	0.027670143
100	0xbcc30006	-0.023803722
101	0xbca2a44f	-0.019853739
102	0xbd04dcef	-0.03243726
103	0xbc99dec0	-0.018782973
104	0xbc5f9f96	-0.013648888
105	0x3c084981	0.008318306
106	0xbca1b2c5	-0.019738564
107	0xbc31c3b0	-0.010849878
108	0xbcae3d5c	-0.021269493
109	0x3cb2e4fe	0.021837708
110	0xbcbed4c4	-0.023294814
111	0xbcab0f12	-0.02088121
112	0xbbc32a7b	-0.005955992
113	0x3cd8619e	0.026413735
114	0xbcbaf59a	-0.02282219
115	0xbc4d8cd3	-0.012545782
116	0x3c97bc3a	0.01852237
117	0xbc83ef44	-0.016105302
118	0x3ac5cd90	0.001509117
119	0x3b5d7888	0.0033793766
120	0xbd44b69d	-0.048025716
121	0xbd7e8f51	-0.062148396
122	0x3c38d380	0.011280894
123	0xbd5711c7	-0.05250719
124	0xb91f9b1f	-0.00015221209
125	0xbb2cbffb	-0.0026359546
126	0x3d7be41e	0.061496846
127	0x3d0c82e1	0.034304503
128	0xbd04ca97	-0.032419767
129	0x3d9afc32	0.07567634
130	0x3d106c9b	0.035259824
131	0xbbd8795f	-0.0066062654
132	0x3cd04e5e	0.025427993
133	0x3d326efb	0.04356287
134	0xbc9160bc	-0.017746322
135	0xbc9d9dec	-0.019240342
136	0x3cb58f68	0.022163108
137	0x3cb2bc8f	0.021818427
138	0x3cfaa33f	0.03059542
139	0x3c09e214	0.008415718
140	0x3d795a48	0.060877115
141	0xbcb04998	-0.021519467
142	0x3c09838e	0.0083931815
143	0x3c5196fc	0.012792345
144	0x3b8de6d5	0.004330496
145	0xbd08fddd	-0.033445228
146	0xbcce6f33	-0.025199508
147	0xbd6bf60e	-0.057607703
148	0xbd04a3ac	-0.032382652
149	0xbceeef7d	-0.029166931
150	0x3b3bc4ad	0.0028651163
151	0x3c5e074f	0.013551547
152	0xbb80a5cd	-0.003926015
153	0x3b03dccb	0.0020120617
154	0xbd128b46	-0.035777353
155	0xbc9b4392	-0.018953118
156	0xbcc25baa	-0.02372535
157	0xbbbd9410	-0.0057854727
158	0xbd06b3b8	-0.032886237
159	0x3ce021c0	0.027359843
160	0xbbb49eaf	-0.0055120806
161	0xbd3acad8	-0.045603603
162	0x3d900221	0.07031656
163	0xbd97309b	-0.07382318
164	0x3ca6c31e	0.020356711
165	0x3d3bf639	0.045889113
166	0x3d024af6	0.03180977
167	0x3dd6ab15	0.1048185
168	0xbbc99770	-0.006152086
169	0x3d291b8b	0.041286033
170	0x3c1713d4	0.009221036
171	0xbd10fe3a	-0.0353987
172	0x3ce16f73	0.027518963
173	0xbc31ca13	-0.010851401
174	0x3c7fed30	0.015620515
175	0xbccc2a71	-0.024922581
176	0x3a809876	0.0009811062
177	0x3ce3367b	0.02773594
178	0x3d7e6560	0.062108397
179	0xbd985435	-0.07437936
180	0x3dce2e40	0.10067415
181	0x3dc881bf	0.09790372
182	0xbd56a181	-0.052400116
183	0x3bda04bc	0.0066533964
184	0xbb643ea1	-0.0034827369
185	0xbbe5a4a4	-0.007008152
186	0x3bce833c	0.0063022655
187	0xbcb9c49a	-0.022676755
188	0xbd0c3f04	-0.034239784
189	0x3cb78c41	0.022405745
190	0xbd0ce010	-0.03439337
191	0xbd5f8525	-0.054570336
192	0x3d2c7189	0.042100463
193	0xbcbcdb7e	-0.02305388
194	0xbcb4e95f	-0.022083936
195	0x3c45f7b1	0.01208298
196	0xbc1d6b48	-0.009608097
197	0x3d05cfbe	0.03266882
198	0xbce7edf1	-0.028311701
199	0xbb14c3c9	-0.0022699705
200	0x3dba9024	0.09109524
201	0xbba8753a	-0.0051409276
202	0x3d8312e8	0.064000905
203	0xbcaa491e	-0.020786818
204	0xbc7233bb	-0.014782841
205	0x3c600b4b	0.013674567
206	0x3c0570af	0.008144542
207	0xbc0886a4	-0.008332882
208	0xbcd9a57c	-0.026568167
209	0xbd4d7469	-0.050159846
210	0xbcda7ea4	-0.026671715
211	0xbd340fe5	-0.04396047
212	0x3c2ffd64	0.010741565
213	0xbd1ec82c	-0.038765118
214	0x3cbd2ca2	0.023092572
215	0x3b5ee42a	0.0034010508
216	0x3aaa1b57	0.0012978119
217	0xbc51e047	-0.01280982
218	0xbd2a5418	-0.041584104
219	0xbd3024ab	-0.04300372
220	0x3d028149	0.031861577
221	0xbbd1d8f1	-0.0064040353
222	0x3c062401	0.008187295
223	0x3c22b078	0.009929769
224	0xbd31e667	-0.04343262
225	0xbbb33154	-0.005468527
226	0xb7cbda58	-2.430116e-05
227	0xbcd9fa1f	-0.026608525
228	0x3cdbfd57	0.0268542
229	0x3d99fa5a	0.07518454
230	0x3d3fbe1e	0.04681217
231	0xbcfece54	-0.031104244
232	0xbcc0f5a1	-0.023554625
233	0xbc6fd0a8	-0.01463715
234	0x3d785ca3	0.06063522
235	0x3da8b40e	0.08237468
236	0xbcfaaf96	-0.030601304
237	0x3ca04182	0.019562487
238	0xbd34f1d2	-0.04417593
239	0xbd8ae265	-0.067814626
240	0xbd8ca754	-0.06867853
241	0xbc1baafe	-0.009501217
242	0x3c0745fb	0.008256431
243	0xbd52bfc8	-0.051452428
244	0xbc013970	-0.007887229
245	0xbd28158c	-0.041036174
246	0xbc7400d1	-0.014892773
247	0xba9ed68c	-0.0012118383
248	0xbae2e40c	-0.0017310395
249	0xbc9e32de	-0.019311365
250	0xbd1af18a	-0.037828006
251	0x3d0ab0a4	0.033859864
252	0x3c24aba7	0.010050691
253	0xbd0f450c	-0.034977958
254	0xbc94c33c	-0.018159501
255	0x3c80c140	0.015717149

mlp.4.weight f4 [1, 256]
0	0x3bc29f7e	0.005939423
1	0x3b0b6647	0.002127068
2	0x3b0cf641	0.0021509083
3	0xba37c500	-0.0007010251
4	0xb8b3c841	-8.572685e-05
5	0xbd1fa6fc	-0.038977608
6	0xbc87841b	-0.016542485
7	0xbd918432	-0.071052924
8	0xbcba8753	-0.022769606
9	0xb7bb1a1c	-2.2304295e-05
10	0xbcf37e31	-0.029723259
11	0x3cfc7084	0.03081537
12	0x3c3d6136	0.011558821
13	0xbc873dba	-0.016508926
14	0xbd504816	-0.050849997
15	0x39c9b908	0.00038475567
16	0x3ad68afb	0.0016368324
17	0x3c806276	0.01567195
18	0x3b816f6d	0.0039500506
19	0x3c37ddf7	0.011222354
20	0x3a2b818c	0.00065424363
21	0xbcf643d0	-0.030061632
22	0x3a55d0ef	0.00081564387
23	0x3c8dabbc	0.017293803
24	0x3b750383	0.0037386126
25	0x3c056332	0.008141326
26	0xbb61cc20	-0.0034453943
27	0xbc652a14	-0.013987083
28	0x3d2a5d8a	0.041593112
29	0x3d1a2d76	0.03764101
30	0xbaed50e5	-0.0018105773
31	0x3cbde8c5	0.023182282
32	0x3c030dbd	0.007998881
33	0x3aaff7d7	0.0013425302
34	0xbd6a92d1	-0.05726892
35	0xbc1a6eee	-0.009425862
36	0x3d243b6b	0.040095728
37	0x3a5ecefb	0.00084994704
38	0xbd5b7297	-0.05357608
39	0x3c27a853	0.010233003
40	0xbd2c6be4	-0.04209508
41	0xbd520caf	-0.051281627
42	0x3c1cb083	0.009563568
43	0x3c8b0419	0.016969727
44	0xbb942883	-0.004521431
45	0x3cbaa947	0.022785796
46	0x3d4df33c	0.050280795
47	0x3c0e20a3	0.008674773
48	0x3c61f37e	0.013790963
49	0xbd671cd1	-0.056423966
50	0x3ccf02c4	0.025269873
51	0x3d59722c	0.0530874
52	0x3ba68415	0.0050816634
53	0x3c7629a6	0.015024578
54	0x3cbb2787	0.022845997
55	0x3d1943bf	0.037418123
56	0xbc397322	-0.011318954
57	0xbc302937	-0.010752014
58	0x3d493767	0.0491251
59	0x3b932fc1	0.0044917767
60	0xbd87da6d	-0.06633458
61	0x3cea8abd	0.028630609
62	0xbc652325	-0.01398543
63	0x39faf464	0.000478658
64	0x3aabd09d	0.0013108436
65	0x3bcf0727	0.0063179913
66	0xbb5ca751	-0.0033669064
67	0xb9926650	-0.0002792352
68	0x393f6dc1	0.00018256066
69	0xbb05f4e0	-0.0020440146
70	0xbcd2b358	-0.025720283
71	0xbc737206	-0.014858728
72	0xbd131461	-0.035908107
73	0xbd246149	-0.04013184
74	0xbd5c8a9d	-0.05384313
75	0xba03d638	-0.00050291745
76	0xbaa6311a	-0.0012679428
77	0xbc89e84d	-0.016834402
78	0x3d098004	0.03356935
79	0xbca93379	-0.020654427
80	0xbb978c51	-0.0046248813
81	0x3ba012c4	0.0048850495
82	0x3d0949b4	0.033517554
83	0x3b11cb9f	0.0022246612
84	0xbcae251a	-0.021257926
85	0xbc9ab0f5	-0.018883208
86	0xbb92de47	-0.004482064
87	0xbd4ace2d	-0.04951303
88	0x3d37dd86	0.044888996
89	0xbc96ee90	-0.018424302
90	0x3d8edfc8	0.06976277
91	0xbcdfc7bc	-0.02731692
92	0x3c632c33	0.013865518
93	0xbd286afc	-0.041117653
94	0x3bd86ada	0.0066045346
95	0xbb07c1fd	-0.0020714991
96	0x3c19ab4f	0.009379222
97	0x3bb1672b	0.00541391
98	0xba0b806b	-0.0005321565
99	0x3c934f55	0.017982164
100	0xbc204a90	-0.009783402
101	0x3cb42e1f	0.021994649
102	0xbc4cdc6f	-0.012503727
103	0x3bbdb1b3	0.0057890057
104	0x3d629022	0.055313237
105	0x3af8061e	0.0018922722
106	0xbca9d215	-0.020730058
107	0x3d336df0	0.043806016
108	0x3c9483ff	0.018129347
109	0x3b980ef3	0.004640454
110	0xb9cf3fc0	-0.00039529614
111	0x3d1ba2de	0.03799712
112	0x3c415f57	0.011802516
113	0x3d373dad	0.044736553
114	0x3b8bdafe	0.0042680493
115	0xba4b1b26	-0.0007747881
116	0x3c0e7ff0	0.008697495
117	0x3cf87334	0.03032837
118	0x3d317ae3	0.043330085
119	0x3b586650	0.0033019967
120	0xbd026906	-0.03183844
121	0x3d2494b4	0.040180877
122	0xbd4fd1af	-0.05073708
123	0xbcc10f27	-0.023566796
124	0x3cf2be00	0.029631615
125	0xbc31741f	-0.010830908
126	0xbd449f68	-0.048003584
127	0xbd8a96a3	-0.06767013
128	0x3c23e930	0.010004327
129	0xbd06ff90	-0.032958567
130	0xbc90f331	-0.017694088
131	0x3d3fd054	0.046829537
132	0xbc5103a8	-0.012757219
133	0xbcc6b4b8	-0.024256095
134	0xbc8a6b6f	-0.016896931
135	0x3d0986c4	0.03357579
136	0x3d450659	0.048101757
137	0xbd1d5842	-0.038414247
138	0xba349bf9	-0.0006889697
139	0x3cc163d4	0.023607172
140	0xbcb3894e	-0.021916058
141	0x3bec6012	0.007213601
142	0xbb141b6a	-0.0022599348
143	0x3d1441c9	0.03619555
144	0xbbc3c38a	-0.005974238
145	0xbceb4e79	-0.028723942
146	0x3995697c	0.00028498087
147	0x3ce799a3	0.028271502
148	0x3c8dbd36	0.017302137
149	0x3cf21310	0.029550105
150	0x3cfa1fff	0.030532835
151	0x3ab14f33	0.0013527632
152	0xbcc87626	-0.0244704
153	0xbafdf529	-0.0019375432
154	0x3bbf2098	0.005832743
155	0x3cb7ebd3	0.022451317
156	0x3a846006	0.0010099418
157	0xbcba2e94	-0.022727288
158	0x3c47f7cc	0.0122050755
159	0x3aeb5408	0.001795412
160	0xbd62618e	-0.055268817
161	0x3d65946e	0.056049757
162	0xbd5395f8	-0.051656693
163	0xbbfef43f	-0.0077805812
164	0x3cc5f34a	0.02416386
165	0xbcbd1baf	-0.02308449
166	0x3b8ded79	0.0043312875
167	0xbd5c2d04	-0.053753868
168	0x3b097040	0.0020971447
169	0xbce219b0	-0.02760014
170	0x3ce49e66	0.027907562
171	0x3d3c7725	0.046012063
172	0x3d62dabf	0.055384394
173	0x3c848012	0.01617435
174	0xbcce05b0	-0.025149196
175	0x3c1ecbd0	0.009692147
176	0xbb926ee8	-0.0044687875
177	0x3c497b30	0.012297437
178	0xbcceb137	-0.025230987
179	0x3cb26b75	0.021779755
180	0xbd5239b4	-0.05132456
181	0xbd808e4b	-0.0627714
182	0x3cb79721	0.022410931
183	0xbd15a9be	-0.036538832
184	0x3c008146	0.007843321
185	0x3bd88824	0.006608026
186	0xbd4c961a	-0.049947836
187	0x3c80da8b	0.01572921
188	0x3d647a4b	0.05578069
189	0x3ba3f06f	0.005003027
190	0x3d035ee0	0.0320729
191	0x3ca927a7	0.02064879
192	0xbcadab3a	-0.021199811
193	0xbb8c0845	-0.0042734467
194	0xbd53cd8f	-0.051709708
195	0x3d0d9d3e	0.034573786
196	0xbce355e7	-0.027750922
197	0x3b07acde	0.0020702402
198	0xbae3cc16	-0.0017379548
199	0x3beb30cd	0.0071774484
200	0xbd170043	-0.036865484
201	0xbbe8cdf2	-0.0071046287
202	0xbd2e1606	-0.042501472
203	0x3bdf5f76	0.0068167998
204	0xb8b16d75	-8.460406e-05
205	0xbbb77d20	-0.005599633
206	0xbb938060	-0.0045013875
207	0xbd184783	-0.037177574
208	0xb9c0767d	-0.00036709374
209	0x3ced33cd	0.028955365
210	0xbd27c790	-0.040961802
211	0x3c07f27c	0.008297559
212	0x3bbdd6a5	0.00579341
213	0x3c4c19a0	0.012457281
214	0xbc550339	-0.013001257
215	0x3c25d5d2	0.0101217795
216	0x3bef6ef7	0.007306929
217	0x3bc77a08	0.0060875453
218	0x3cb0cf5c	0.021583252
219	0x3d4c8aa6	0.049936913
220	0xbae736c4	-0.0017640223
221	0xbbbab1cf	-0.005697466
222	0x3b7975a1	0.0038064497
223	0x3b8eb084	0.0043545384
224	0x3d25f000	0.040512085
225	0x3d16d611	0.036825243
226	0x3b8a519e	0.0042211553
227	0xbb458b6f	-0.0030142923
228	0x3d28e9ae	0.04123848
229	0x3dcdeaf2	0.10054578
230	0xbcb581d5	-0.022156635
231	0x3c7ea78e	0.015542878
232	0x3b0c13c2	0.0021374081
233	0x3c0b1fa2	0.008491429
234	0x3d86f449	0.065895624
235	0x3d22a63d	0.03970932
236	0x3d71fe1a	0.05908022
237	0xbd156fce	-0.03648358
238	0x3b8e27c4	0.0043382365
239	0x3cc59f25	0.024123738
240	0x3c855788	0.01627709
241	0x3953c000	0.00020194054
242	0x3d54e993	0.051980566
243	0xbceff72c	-0.029292665
244	0x3d490712	0.04907901
245	0x3cb7f6fc	0.022456639
246	0x3b71ee00	0.003691554
247	0xbc0491eb	-0.00809143
248	0x3bbfbed0	0.005851604
249	0xbae1ead3	-0.0017236121
250	0xbb7b2e08	-0.0038326997
251	0xb9d11448	-0.00039878697
252	0x3d0da580	0.03458166
253	0x3b5444f3	0.003238973
254	0x3b88b020	0.0041713864
255	0x3c9d2530	0.019182771
