results/TD3/checkpoints/model_0_actor.pth (torch, 554311 bytes, 6 tensors)

mlp.0.weight f4 [512, 10]
00000000: 8f1e 0e3d b94e 23be ca03 063e 7d2f 35be
00000010: 9285 003e 8199 2abe 44ca 9ebe b312 0bbd
00000020: 757f 763e b6a1 3ebe bb9d 333c 0bdb 9dbd
00000030: 5a92 0dbe 60fb 083e 2b22 2abd e1a0 87be
00000040: 7015 353e 05fa 9bbe 6afd 853e 45b7 5fbe
00000050: 0f61 47bc 72e0 873e 0432 b63d da96 f33d
00000060: 6f19 8dbe ae42 cdbd f8da 8abe 333b b23d
00000070: 2db8 b0bd f6e0 0bbd f8fe 923e eab5 50be
00000080: 125a 87be 9dc8 2fbe 3ec7 86be b541 8d3e
00000090: 18b5 0e3e 3ee3 48be 3988 1f3e aa44 773e
000000a0: 438a 2e3e 6265 5d3e eceb f4bd 5834 f63d
000000b0: 2fd8 623e d1c7 9ebd 21c8 743e c933 283e
000000c0: 8fe1 56bc f4bb 673e 9be6 00bd 49e3 ca3d
000000d0: 70cb 4f3d 06c0 3abe ab30 8c3d ee3b b5bd
000000e0: 6f54 9e3d 0967 c53d eb02 6d3e b3db 953e
000000f0: 6bbe 0c3e 5777 8abe 603b 0bbe 6ad1 97be
00000100: 7609 ea3b 4cfd 34be 0653 423e 32ef 79be
00000110: 66ae eb3d 9d82 f3ba 89b6 203d cfa9 7a3d
00000120: d61b 053e def7 883d b3dc 8d3e d502 353d
00000130: bc39 353d 4ce4 9ebd 45f0 27be dafe 9d3e
00000140: 6a38 c2bd eaf4 2abe 7dc7 223e 20be 88be
00000150: 5b24 313e 2c0d 703e b06d f73a b535 8f3e
00000160: b1f5 e23d 3591 de3d d30e 8e3d 8535 59be
00000170: f519 15ba 7d96 d8bd e02f 1fbe 4ba0 77be
00000180: 74ad bbbd 6d2e 043d 1a02 76bd 4b07 783e
00000190: 4423 8d3e 9261 10bd 290c 95bd 7fb4 413e
000001a0: e826 043e bd65 8d3e cb60 2cbe e0de 9b3e
000001b0: 6b50 c4bd 4058 4dbe c1d0 8e3c f55f 1bbe
000001c0: 343f d43d 6d13 deba da37 f13d 4ac2 713e
000001d0: 9c52 a03e 2e51 87be ec47 2e3e 173d 833e
000001e0: 9360 7c3d de78 69bd a77e 8f3e f45f 87be
000001f0: f02b 3ebe 8b87 143e 089d 99be a08d 9dbe
00000200: 19f6 233e 74d0 633e 068a 3ebe 8dac 19bd
00000210: 47b0 46be 9564 5b3c 914b 393e edca 64be
00000220: cdf8 313e 6000 823e 254a 71be 6ab1 733a
00000230: 4236 ec3c e912 aabd 288e 963c 5d84 bebc
00000240: 8b64 89be 7973 51be f934 98bd 49b5 0fbe
00000250: 5692 333e 0ec5 bf3d ddc5 d2bd 84e1 96be
00000260: 52f6 5cbe 3a86 0dbe 6acf f6bc a20f febd
00000270: 14c3 a5bd 2621 e23d f788 393e da91 7dbd
00000280: 370d d03c a38e 8a3d 49b6 073d b068 253e
00000290: c387 f8bc c194 8fbd eddb 5ebe 16fb 863e
000002a0: 3f07 533d 4b81 5fbe 4d34 843e d83d c83d
000002b0: 56f8 1cbe ff54 81be 2081 85bd 0847 313d
000002c0: 5e6e b5bd 525a 71bc f1aa 1cbe 146b 183e
000002d0: 6f9f 2abd f474 643e 401c f6bd d7e9 703e
000002e0: 5526 53be 7c4b 55be 07c5 a73c 50ab 223e
000002f0: 0a7e 30be ee10 9a3e f8fe 873e 7491 8fbd
00000300: 97e1 46be da08 8d3e 0dd4 aebd ad22 693e
00000310: f1ee cd3d 71c1 633e d289 cf3c 5c99 8b3e
00000320: 2c39 203e 984c 85be 949a e53d 9e3d 36be
00000330: 5a92 07bd 98c9 463e cc22 53be e90c 883d
00000340: 19ae 9f3e 7a70 a73d 11af 6cbe 2f06 2fbe
00000350: 9d10 73bc 014d d53d e0a8 a13e b77d a3bd
00000360: 84a2 9dbe 3df4 e03d f8c0 a0be 7825 9dbd
00000370: 4b2f 2a3e 875f e93d 69dd 583e f566 55bd
00000380: 91df b3bd 10be 7b3e 4842 303e e12f 703d
00000390: 2296 b8bd 24d5 6dbe 8cf9 6dbe e445 8d3e
000003a0: bf21 5cbe 7b16 9c3e 3f2a e03d c9c6 89be
000003b0: c081 69be c1ab 683d fb97 2d3e 5971 6e3e
000003c0: 8763 babc 51d8 34be 9953 9abe 4c69 86bd
000003d0: 7297 ed3d efa1 e2bd b260 393e bf67 6fbd
000003e0: 288f 95bd afb3 bcbd 8934 2b3e 1bd0 b93d
000003f0: fa7b 80be 67ac 693e 7d94 b43d eea9 a7bd
0.03469711 -0.15947999 0.13087383 -0.17693897 0.12550953 -0.1666012 -0.3101369 -0.03395338
0.24072058 -0.18616375 0.010962899 -0.07707795 -0.1382536 0.13377142 -0.04153649 -0.26489928
0.17683959 -0.30464187 0.26169902 -0.21847256 -0.012169137 0.26538426 0.088962585 0.11894007
-0.27558467 -0.10022484 -0.27120185 0.087026976 -0.08628879 -0.034150086 0.2871015 -0.20381895
-0.26435906 -0.17166372 -0.26323885 0.27589193 0.1393627 -0.19617936 0.15579309 0.24147287
0.1704493 0.21620706 -0.11959061 0.120217025 0.2215278 -0.07752956 0.23904468 0.16426004
-0.013115301 0.22630292 -0.031469923 0.099066325 0.050731122 -0.18237314 0.0684522 -0.08849321
0.07730948 0.09638793 0.23145644 0.2926918 0.13744514 -0.27044174 -0.13596869 -0.29651958
0.007142241 -0.1767475 0.18976983 -0.24407652 0.11507873 -0.0018578355 0.03923658 0.0611971
0.129989 0.06687902 0.27707443 0.044192154 0.044244513 -0.07758388 -0.1640025 0.308585
-0.094834164 -0.1669499 0.15896411 -0.26707554 0.17299025 0.23442525 0.0018877294 0.27970663
0.11082018 0.1086754 0.06936421 -0.21211822 -0.0005687767 -0.10575578 -0.15545607 -0.2418224
-0.09163943 0.032270838 -0.060060598 0.24221532 0.27565968 -0.0352493 -0.0727771 0.1891651
0.12905467 0.27616683 -0.16833799 0.30443478 -0.09585651 -0.20053196 0.017433526 -0.15173323
0.103636175 -0.0016943045 0.11778231 0.23609272 0.31313026 -0.26429123 0.17019624 0.25632545
0.061615538 -0.057000034 0.28026316 -0.26440394 -0.18571448 0.1450483 -0.30002618 -0.30772114
0.16011848 0.22247487 -0.1860734 -0.037518073 -0.19403182 0.01339068 0.18095233 -0.22343035
0.17380066 0.2539091 -0.2356344 0.0009296151 0.028834466 -0.08304388 0.018378332 -0.023256475
-0.2683452 -0.20454206 -0.07431979 -0.14033999 0.17536291 0.09363757 -0.10291646 -0.2946893
-0.21578339 -0.13820735 -0.0301282 -0.124053255 -0.08093849 0.11041479 0.18118654 -0.061906673
0.025396926 0.06765487 0.033132825 0.16153216 -0.030338174 -0.070107944 -0.21763583 0.26363438
0.051520582 -0.21826665 0.25821152 0.09777421 -0.15329108 -0.2526016 -0.06518769 0.04328063
-0.088589415 -0.014731007 -0.15299584 0.14884597 -0.041655954 0.22310239 -0.12017107 0.23526703
-0.20620091 -0.20829576 0.020479692 0.15885663 -0.1723558 0.3009104 0.26561713 -0.07010165
-0.19421993 0.27545816 -0.08536539 0.22767134 0.1005534 0.22241761 0.025334273 0.2726544
0.1564681 -0.26035 0.11211124 -0.17796943 -0.033098556 0.1941284 -0.20618743 0.066430874
0.31187513 0.0817575 -0.23113658 -0.17092203 -0.014835504 0.10415078 0.31574154 -0.079829626
-0.30788052 0.10984085 -0.31397223 -0.07673162 0.16619603 0.113951735 0.21178211 -0.05210014
-0.08782876 0.24584222 0.17212784 0.05863941 -0.090130106 -0.23225838 -0.23239726 0.27592385
-0.21497248 0.304859 0.10945558 -0.26909474 -0.22803402 0.056804422 0.16952507 0.23285426
-0.022752536 -0.17660643 -0.30141905 -0.065630525 0.116011515 -0.11066043 0.18103293 -0.05844855
-0.073026955 -0.092139594 0.1671926 0.09072896 -0.25094587 0.22819673 0.088173844 -0.081867084

mlp.0.bias f4 [512]
00000000: 71be 5d3d 37ee b43d afe4 72be 67be dabd
00000010: 5812 0e3d 0cfd a0be edce cabd 7a67 29bc
00000020: b7ab 16be 58cb 73be 9d7f 67be cd27 203d
00000030: 11e1 82be d3f2 78be 2099 c0bd 9b67 653e
00000040: 599d 4dbe b040 463e 5a0a 2abe 5514 423e
00000050: d741 00be bf36 51be d5bf fbbd 4d89 613e
00000060: 641e 9bbe e4ad 253d 66c4 993e c4be 58be
00000070: f2cb 5c3e 5a51 453d 326e 293d aaa5 4b3e
00000080: 4796 11be 5e6a 613e 8c97 20bd 232e d9bc
00000090: 35b7 303e fe06 e43d 1e87 593d 9417 783d
000000a0: 4f9f 5b3e 354a 7abe 9d18 c93a 62dd 84be
000000b0: 9b66 e9ba 2bca 193e 8649 2e3c 076a b03d
000000c0: 2d5b 3b3d c9be b13d 94c4 283e 6fbd 403e
000000d0: 7be6 0c3d 8eb2 9fbe 5b1f 97be 1a2c 4cbe
000000e0: dcea 06be 7431 30be 3724 64be 913f c5bd
000000f0: 00ac 4dbd 769e 9bbe f5d6 92be 882e c2bc
00000100: 28aa 643e 9d65 323b 5f02 fe3d c7a3 36bd
00000110: fbb9 4e3e d68d 8dbe 503f 6e3e 7531 a2bd
00000120: 1595 fbbc 9734 c1bd 2915 09be dd13 a43d
00000130: 7eff 91bd ca95 a03d 6c49 2a3d 17a4 61be
00000140: 19d9 1c3e 2cbe 6d3e 8223 813e 4a8f 8ebe
00000150: d89e 9a3d c699 22be 708c 5d3e e15e 68be
00000160: 3554 013e c935 7c3e 93eb 553d a085 023e
00000170: 49f6 3b3d 4279 403e 094b b33c 94e8 6abe
00000180: c387 40be 28f1 da3d 1539 82be d27f 473e
00000190: f2fb 6b3e 989c 8abe 5992 553e b145 60be
000001a0: 97d9 853d 777a 543e d004 5ebe ae41 983d
000001b0: e5ab 13be a06f 80bd 67ac 733e c9ce 4d3e
000001c0: 019f e8bd 6ab1 90be b5be 9f3e 8658 273e
000001d0: 6a8a 373e 1759 36be 9391 89bd 66a5 4b3e
000001e0: 7dd7 5b3e df95 87bd 3ff7 8dbe 9925 dfbd
000001f0: c741 89be 1d28 5dbd a751 6c3e 76c7 50be
00000200: fb4f 4fbe a251 8f3e 1c3b 13be e13c bf3d
00000210: 7c7d ae3d d246 5a3e 5404 be3d 1a55 57bd
00000220: a86c 4b3e 7d8c a8bc 831c 55be 98c4 0a3e
00000230: c073 463e 87da 9d3d c26c 77be 44ea 163e
00000240: d930 96bd f884 77bd 5620 2e3e a800 1bbd
00000250: a214 7bbe f7ff 023e 3e47 4dbd b487 2e3e
00000260: 246d 9cbe c69e 82be 6c7d b7bb 391c 61be
00000270: 3fe0 903e 0895 193e 0285 95be d793 4d3e
00000280: 7a63 efbd f433 bd3d 892d a0be 5372 8f3e
00000290: 7c7a 00be d663 593e 4f18 493e bc0a 8b3e
000002a0: cf56 033e c563 1cbe 9939 6abe 89a4 0abd
000002b0: 324f 5ebc ef42 91be c323 bc3d f65e ca3a
000002c0: a855 4cbe 61d6 0a3d dede 9ebe 543e 403e
000002d0: a1e2 fabd b93f 8bbe 2df0 7b3e 50c7 8f3e
000002e0: 1122 7abe 0ce1 f0bd 93db 5abd b8e0 953e
000002f0: 2408 14be a0cb d03d c577 61be cb71 90be
00000300: ed0f 35be baf9 00be cca3 863d e8fa 1cbe
00000310: c9de 4dbe ad25 793d 4acc 98bd d14a d3bd
00000320: f31d 923c 163e cc3d 8964 67bd 4f8f 1f3e
00000330: 9a21 13be 7da1 22be 4752 99be 9430 b7bd
00000340: c5d9 0a3e 992d 9f3e 59fa 97be 931d 853c
00000350: a924 de3d 8756 e83d 1274 b73d 4dbe 56bc
00000360: 2fc0 f4bd 33a0 2c3b 72d7 793e 9d51 91be
00000370: 32a2 8dbe f718 38be 9c51 77be 1c67 27be
00000380: 90e4 bc3d d3db 90be adf6 8abd 7bfe ba3c
00000390: 5ca1 a13e 9e72 4a3e 6cf9 2f3e c04b 6d3d
000003a0: 3e53 74bd 8ea7 ed3d 2a88 493e 7680 50be
000003b0: 4e55 483e 369b 3b3d d14f 9abe 61a4 533e
000003c0: c887 86be f078 1ebd 4f56 73be 9e5c bebd
000003d0: ab21 0fbd 346c 903d 48b9 b0bc 7b04 67bd
000003e0: eebb 6b3e 92f1 91be b2f2 43bd 5a13 9abe
000003f0: c078 c93c 81a5 903e eb3e 69bc 3c9a 86be
0.054136697 0.088344984 -0.23720048 -0.106808476 0.034685463 -0.3144306 -0.09902749 -0.010339612
-0.14713942 -0.23808038 -0.22607274 0.039100457 -0.25562337 -0.2431138 -0.09404206 0.22402804
-0.20079555 0.19360614 -0.16605511 0.18953069 -0.12525116 -0.2043104 -0.122924484 0.22025032
-0.30296624 0.04044904 0.30032653 -0.21166521 0.21562174 0.048173286 0.041364856 0.19887415
-0.14217483 0.22013232 -0.039207026 -0.026511258 0.17257388 0.11134146 0.053107373 0.06056936
0.2144749 -0.2444237 0.0015342418 -0.25950152 -0.0017807068 0.15018527 0.010637647 0.08613973
0.04574125 0.086789675 0.16481239 0.18822263 0.03439949 -0.31190914 -0.2951611 -0.19938698
-0.13175529 -0.17206365 -0.2227944 -0.09631265 -0.05021286 -0.30394334 -0.28679624 -0.023703828
0.22330534 0.002722121 0.12402796 -0.044589784 0.20188133 -0.27647275 0.2326634 -0.079195894
-0.030710736 -0.09433859 -0.13386978 0.08011601 -0.071288094 0.0784107 0.041573927 -0.22035252
0.15317191 0.23217076 0.25222403 -0.27843696 0.07549828 -0.15878972 0.21635604 -0.22692443
0.12629779 0.24629892 0.052226614 0.12746286 0.045889173 0.18796256 0.021886365 -0.22940284
-0.18801789 0.10690528 -0.25434175 0.19482353 0.23045328 -0.27072597 0.20856608 -0.21901585
0.065356426 0.20749842 -0.21681523 0.074344024 -0.14421041 -0.06271291 0.23796235 0.20098414
-0.113584526 -0.28260356 0.31200185 0.16342363 0.17923895 -0.17807423 -0.06717219 0.19887313
0.21468921 -0.066203825 -0.27727696 -0.10895843 -0.26807997 -0.053993333 0.23078023 -0.20388588
-0.20245354 0.27991968 -0.14378017 0.093377836 0.08520028 0.21316078 0.09278169 -0.052571394
0.19865668 -0.020574803 -0.20811658 0.13551557 0.19380093 0.077076964 -0.24162582 0.14737803
-0.07333536 -0.060429543 0.17004523 -0.037842423 -0.2451959 0.12792955 -0.05011677 0.17043954
-0.30552018 -0.2551176 -0.0055996682 -0.21983422 0.28296086 0.14998257 -0.2920304 0.20075928
-0.116888955 0.09238425 -0.3128474 0.2801691 -0.12546724 0.2122949 0.19638179 0.27156627
0.12826084 -0.15272434 -0.22873534 -0.03384832 -0.013568686 -0.2837138 0.091865085 0.0015439678
-0.1995455 0.033895854 -0.3102941 0.18773776 -0.12250257 -0.27197054 0.24603339 0.2808175
-0.24427058 -0.11761674 -0.05343206 0.2927301 -0.1445623 0.101950884 -0.22018345 -0.28211817
-0.17681856 -0.12595263 0.065742105 -0.15330088 -0.20104517 0.060826946 -0.0746084 -0.103170045
0.017836547 0.099727795 -0.056492362 0.15582012 -0.14368287 -0.15881915 -0.29945585 -0.089448124
0.13559635 0.31089476 -0.29683188 0.016249454 0.10846836 0.11344629 0.089576855 -0.013106895
-0.119507186 0.0026340603 0.24398592 -0.28382578 -0.27662808 -0.17978273 -0.24152225 -0.16347927
0.09223282 -0.28292713 -0.06785331 0.022826424 0.3156842 0.19770285 0.1718499 0.05793357
-0.0596497 0.11604224 0.19680849 -0.20361504 0.19563791 0.045802318 -0.3013902 0.20668174
-0.26275468 -0.038689554 -0.23763393 -0.09295009 -0.034944218 0.07051888 -0.021572724 -0.056400757
0.23020908 -0.28504616 -0.047838874 -0.3009289 0.02459371 0.2825127 -0.014236192 -0.26289546

mlp.3.weight f4 [256, 512]
00000000: 9e25 2cbd c4cb db3c 23f1 ed3c 5948 263d
00000010: dbe8 983b 6a45 2a3d e816 193d 6a5b dfbc
00000020: f975 c23c a15a 2fbc d920 103d 8e4e e13c
00000030: 8b51 773b 5d37 9abb b5a6 853c b429 92bc
00000040: b2fa 2fbd cfed a43c 74ae 1a3d 4523 2b3d
00000050: f0c3 acbb 2f2f 203d 900d a33c 0039 b73c
00000060: 6ed3 e03c 0b5b ef3a b302 0abc 6f7c 083d
00000070: ba5f 82bc a481 273d 3a1b dcbc 8164 493c
00000080: ebcf 90bc b110 593c b6ba 143d 853a d5bb
00000090: 20a6 f63c acc5 b0bc 8df9 af3b 3006 20bd
000000a0: 0d08 ba3c 02a8 f33c 0e76 913b 4c94 d63a
000000b0: aee2 6a3c 0204 983c 051a 8d3b f99b a6ba
000000c0: d6a8 d83b 424a 8f3c 72bd 6a3c 0153 d13c
000000d0: 6212 893c 5b6a 243c 76f2 5d3c 3aa2 bd3c
000000e0: d696 20bd 6a76 c93c 1c9d 0dbd e168 66bc
000000f0: 198e 26bd 95a2 13bd 30da a8bb 678c e4bb
00000100: 3f4b b63c bccb ecbc 1d47 623c 7c38 34bd
00000110: 3925 613c d3c7 e33b dfff b5bc 839d 1ebd
00000120: 3d3c 02bd 8b22 1b3c 14f2 debb 5915 3d3b
00000130: 8aac cd3c 8aef 0c3d b13c d4bc dfdb c73c
00000140: dbc9 b33c 64cd c8bc 3261 17bd d76c bfbc
00000150: 9710 b83c 25e2 2ebd 530c f1bb 59cb 09bc
00000160: 07c1 37bc 5a3f 10bd 9a2d 90bc 05f0 20bb
00000170: 4359 613c 4e64 27bc 9d85 1cbd 0498 1a3c
00000180: 7010 2c3d c92c 79bc 95a8 6b3b b5d4 a039
00000190: 9216 d33c 2f66 cf3c 6f7f f03c 59cf 07bd
000001a0: d8db 633c b0e6 323c cf32 f73c 7db0 9ebc
000001b0: c1b6 f0bc bc23 803c 4884 ec3c 4a9d b03a
000001c0: 595b 2cbd 0bed ee3b 6ee0 f23c f619 9cbb
000001d0: 4582 e8bc 17cb b6ba fa6b 9cbc 1435 febc
000001e0: de8c 70ba 8666 033d 3e29 b3ba 1931 19bd
000001f0: 2d31 0abd 4254 ac3b 1155 323d 1f67 8cbc
00000200: 25ba ccbc 6591 7d3c 52d6 17bc e3ee f5bc
00000210: 6711 cebc 9247 30bd 9568 233d cf36 28bd
00000220: a6c4 003d d50f f4bc 4e9f 813c efb2 d43b
00000230: d8fb 153d 6d41 27bd 286e 2f3d c826 16bd
00000240: d881 c1bc a9a5 5bbc 83da 8a3c 7d61 b8bc
00000250: d5d3 083d f7f6 d5ba fd3c a8bc 697d d93b
00000260: 3a10 a3bb fe44 dabb 0011 9ab9 3885 b43c
00000270: 9e26 1a3d 728a b8bc 0500 133d 4d7e 0c3d
00000280: 9dfd 8a38 6aa5 bebc d6b0 f13c 3625 0b3d
00000290: b559 073d 411c 93bc 04e7 bbbb 1749 d4bc
000002a0: fb81 debc 385f 5a3c a596 7b3b 3345 2e3c
000002b0: f38d abbc c4ff 1fbd 9d22 1abc 1cef c4bc
000002c0: 9c75 bebc 5135 f53c 4003 22bd cd7a d13a
000002d0: 9f6f e63a cec5 fabc 57b0 b03c f33a f7bc
000002e0: 2b95 2b3d 69b6 34bd 2c9f f3bb 54ad 343d
000002f0: 4f92 c73c 9b86 13bd cef6 323d 9d59 9abb
00000300: 61be 15bd 352b 12bd 330c 26bd a147 3f3c
00000310: de21 f13c 8eb5 233c d55a 143d 518b 6dbc
00000320: b63c a2bb aaab dc3c 62cd d0bc 47b0 f0bc
00000330: a1f2 18bd e896 a1bc 4daf cf3c 4f09 c93b
00000340: 48fb 23bd a88f dabc 27a1 f03b f1d6 8239
00000350: 8c0e 0ebc 6b07 253b 5ed7 c2bc 5aaf 33bd
00000360: 2fcb 97bc f099 403b bc38 65bc d595 ef3c
00000370: 4989 023d bc17 93bb 4f8b 98bc 2055 663c
00000380: a4f5 40bc 2c3c f4bc 2cae 973c b1e8 09bb
00000390: 53f4 a93c e0e1 1f3d 1a43 2dbd c5d8 d33c
000003a0: c856 c73c bf14 dbbc 8059 10bd 57a6 0bbd
000003b0: fc7a 29bd f11c a1bc a5b4 0cbd fed2 85bc
000003c0: 6923 723c 6cfc de3b eead 01bd c618 41bc
000003d0: 5da0 de3b 4d6d 0c3d 14e0 18bd caf0 e63c
000003e0: 5899 b5bc 2efc 303d e37b 333b 3aec 1abd
000003f0: 8d52 ab3c 46a8 90bc c5cc 013d fc6e 19bb
-0.042028062 0.026830561 0.029045647 0.04059634 0.0046664304 0.041570105 0.03737536 -0.02726527
0.023737894 -0.01070276 0.035187576 0.027503278 0.0037737812 -0.004706307 0.016314844 -0.017842151
-0.04296369 0.020132927 0.037764028 0.041781683 -0.005272381 0.039107498 0.019903928 0.022366047
0.027444568 0.0018261386 -0.008423495 0.033321794 -0.015914787 0.04089512 -0.026868451 0.012292028
-0.017677268 0.013248608 0.036310874 -0.00650722 0.030108511 -0.021578632 0.005370325 -0.0390684
0.022708917 0.029743198 0.004439122 0.00163711 0.014336271 0.018556599 0.0043060803 -0.0012711278
0.0066119237 0.017491464 0.014327394 0.025552275 0.016732398 0.010035123 0.013546577 0.023148645
-0.03920635 0.024592597 -0.03457366 -0.014063091 -0.04066286 -0.036043722 -0.005152963 -0.006974745
0.022252677 -0.028905742 0.0138109 -0.04399918 0.013741785 0.006951311 -0.022216735 -0.038724434
-0.03179573 0.009468685 -0.0068037603 0.0028851836 0.025106687 0.03440813 -0.025907846 0.024396835
0.021946838 -0.024512 -0.036957927 -0.023367329 0.022468848 -0.042696137 -0.0073562055 -0.008410298
-0.011215455 -0.035216667 -0.01759987 -0.0024557125 0.013754192 -0.010216786 -0.03821336 0.009435657
0.042007864 -0.0152084315 0.0035958637 0.00030676057 0.025767598 0.02531728 0.02935764 -0.033156727
0.013907395 0.010919258 0.030175595 -0.019371266 -0.029384019 0.01564204 0.02887167 0.001347461
-0.042079303 0.0072914413 0.029648032 -0.004763837 -0.02838243 -0.0013946024 -0.019094456 -0.031031169
-0.0009176264 0.032080196 -0.0013668907 -0.03740034 -0.033738304 0.0052590678 0.043538157 -0.017139016
-0.024991104 0.015476559 -0.009267407 -0.030021137 -0.025154782 -0.043037005 0.03989466 -0.041067895
0.03143754 -0.029792706 0.015823033 0.006491057 0.03661713 -0.04083388 0.042829663 -0.03665808
-0.023621485 -0.013406196 0.016949898 -0.022507424 0.033405144 -0.0016324212 -0.020536894 0.0066372645
-0.0049762996 -0.0066610565 -0.00029385835 0.02203618 0.037634484 -0.022526953 0.03588869 0.034300137
6.627592e-05 -0.023272235 0.029503267 0.033971034 0.033044536 -0.017957808 -0.0057343263 -0.025913758
-0.027161589 0.013328366 0.0038389352 0.010636616 -0.02094171 -0.039062276 -0.0094076665 -0.024039797
-0.02324944 0.02993265 -0.03955388 0.0015982032 0.0017580873 -0.030611899 0.02156846 -0.030179476
0.041890305 -0.044119272 -0.0074347463 0.04411061 0.024361758 -0.03601704 0.043692403 -0.0047103898
-0.036558513 -0.035685737 -0.040538978 0.0116747925 0.029435094 0.0099920165 0.036219437 -0.014498548
-0.004951085 0.026937325 -0.02548856 -0.02938093 -0.037340764 -0.019725278 0.025352145 0.006135143
-0.040034562 -0.026679829 0.0073434296 0.00024955676 -0.00867046 0.0025181423 -0.023784336 -0.0438684
-0.018529503 0.002938863 -0.013990577 0.02924625 0.031869207 -0.0044889133 -0.018621115 0.014058381
-0.011777315 -0.029813848 0.018515669 -0.0021043236 0.020746386 0.03903377 -0.04230032 0.0258602
0.024333373 -0.026743291 -0.035241604 -0.03409418 -0.041377053 -0.01966712 -0.034351964 -0.01633596
0.01477895 0.0068049934 -0.031660013 -0.011785692 0.006794019 0.034283925 -0.037323073 0.028190989
-0.022167847 0.043209247 0.0027387075 -0.03782294 0.020913387 -0.017658364 0.031689424 -0.00234121

mlp.3.bias f4 [256]
00000000: bc01 dbbc fffd 23bd b2b9 09bd 3027 6ebb
00000010: f253 f4bc 53cd 30bd 5608 a7bc 4a0a 3f3c
00000020: d33b e2bc 9b89 1a3c 3df4 0f3c 2d86 6f3c
00000030: d92b 7fbc bb4d b23c 53c7 1e3b 9fe9 283d
00000040: b4e6 17bd 6ba1 05bd 703a 583a ea95 27bc
00000050: d400 343d 3bf5 14bd f67f 19bd d844 cc3a
00000060: 7d8f 003c bc7a 153d efa2 003c ea37 a7bc
00000070: 16ce 2e3d 2b6f c43c f653 fa3c 45d4 90bc
00000080: e57f ec3a d55a 913c 1d0d 55bc bcde 03bc
00000090: 6f42 6a3b e8b3 9dbc a240 70bc 9df2 23bd
000000a0: 9a73 b73b a02c e5bc 4419 d93c 0563 2c3d
000000b0: b8a3 6bbb b948 2c3b beac 6eba 814c b03c
000000c0: 97cc 22bd 8dc4 46bc 6ce1 553c 6200 903c
000000d0: 82ea da3c f007 23bd 1e19 193d f4da 0b3d
000000e0: 57ab 20bb badb 9d3c 2984 143d 6963 e03b
000000f0: 33b4 203c c5b8 c73a a169 0d3d 0b38 1f3d
00000100: 3b8e 2a3c 82a5 033d a499 8bbc da4d 323d
00000110: 55e2 bd3c 6768 99bb 97b4 a4bc 42bf e63c
00000120: 4697 10bc 42d2 edbc cab1 233d 156a 063d
00000130: 3681 89bc 2420 763c 9a77 e73c 8c72 71bc
00000140: 6972 473a b16d f4bc a3e7 a13b 9605 a13b
00000150: 40c1 15bc b6cc a13c 0c2d 31bd 6f9e c03c
00000160: 39fe a5bc 98a9 c4bc 3ccb e4bc e6fc c0bc
00000170: 8924 1abb 6ea3 203c 8133 2d3c 0fc9 2bbd
00000180: 0dd2 1a3d ae96 783c b56a 953c 04fe 0dbd
00000190: b052 163d e1c9 dd3c 5ab1 95bc 196f 713c
000001a0: 9d31 23bc e7d3 06bd 3c37 18bd 87a2 563c
000001b0: 9177 1fbd 35ef 8c3c 287d 20bd ffd0 e73b
000001c0: 3d59 26bb 8fe8 053d 3e03 353d d953 22bc
000001d0: da59 273d c511 e93c f985 53bc 401c dd3c
000001e0: 75fd 06bc 1bb9 2abd ec2d 073d cf69 bcbc
000001f0: 5b37 063c 45f7 67bc ddb4 19bd ec13 823c
00000200: b576 a83c dd85 89bc 39b8 243c 6c56 a23c
00000210: 7c42 1ebd 6fba a4bb 751d d03c 48f7 23bd
00000220: e976 6fbc 6a2d 19bd c89e e9bb b606 5c3b
00000230: 671a 60bc 0cd7 22bd 237b 00bc cbca 093c
00000240: 4a8c 253d 6129 3bbc 8714 c8bc ab5a 49ba
00000250: 0471 c8bb f620 0a3d 4191 18bd 54ff 023d
00000260: cec6 d73c 42a8 243d 742b a4bc b78d 02bd
00000270: 09aa 0b3c 1966 59bc a6ad 083d d78e debc
00000280: 2812 693c 117d 2d3d a879 0d3d 149f f4bc
00000290: 7510 14ba b446 47bc b2bf 193d a1f9 353c
000002a0: 9f3c 33bd 4ce1 f93a ef99 92bc 4b8a 2f3c
000002b0: 2764 b3bc 76e4 c23c 8ea9 9dbc 5413 c7bc
000002c0: 1541 34bc 3117 543b 1c58 59ba d4c7 493b
000002d0: c043 a039 6018 f6bc b8af 163d b330 1f3d
000002e0: cd62 8a3b 793e cdbc f7c3 a53c 16c3 063d
000002f0: ae0b 293d 68a7 ea3c a7ff f8bc 8322 183c
00000300: a07b 1dbc be3f 50bc 5090 12bd 2ea6 d7bc
00000310: 019d 0c3d 7887 84bb c466 053d f1a0 443c
00000320: a3b0 dcbb aa28 c5bb 4d92 60bc 108a 20bc
00000330: d330 72bc 1ee9 4bbc a961 583c d76a 63bb
00000340: dc23 533c 72b0 083d 85eb 173d cd2c 333d
00000350: 8de7 8cbb 2a90 e53c a96d 21bd 48a0 61bb
00000360: b361 a7bb 3aec 2abd dbf4 ab3c 0873 1b3d
00000370: b751 f8bc 2e69 2fbd a59a 2a3d 6f4e b738
00000380: 0709 653b 9798 1ebc ea52 fb3c c137 1c3d
00000390: 86fc be3c aee1 803c 0be4 ccbc c987 853c
000003a0: 87e3 21bb 035e 8dbc 496a dd3c 5eb0 a4bc
000003b0: 7fdf 0c3d 1ecd 483c 1ea8 673c 881e 083c
000003c0: 909a 2d3d d05d 303d dff5 1bbd 4729 df3c
000003d0: dcf3 793c d694 7639 04f2 2fbd 4d19 783b
000003e0: 98fd ea3b 52a1 263c 7e22 07bd 6a88 1c3d
000003f0: 3f2f 933c 1baf 013d 7048 08bd a186 2ebd
-0.026734225 -0.04003715 -0.03362436 -0.0036339276 -0.029825184 -0.043164562 -0.020389717 0.011660168
-0.027616417 0.009432222 0.008786258 0.014619392 -0.015574419 0.02176558 0.0024227693 0.041238423
-0.03708525 -0.032624643 0.0008248454 -0.010228613 0.043946102 -0.036366682 -0.03747555 0.0015584482
0.00784671 0.036494 0.007851346 -0.020412404 0.042677008 0.02397879 0.030557614 -0.017679343
0.0018043487 0.017743507 -0.013003615 -0.0080487095 0.0035745164 -0.019250825 -0.014663847 -0.040026296
0.0055984976 -0.02797538 0.026501305 0.04208662 -0.0035955738 0.0026288463 -0.000910472 0.021520855
-0.039745893 -0.012131822 0.013054233 0.017578308 0.02672315 -0.03980249 0.03737747 0.034144357
-0.002451619 0.019269813 0.03625885 0.006847788 0.009808588 0.0015237561 0.034524564 0.038871806
0.010409887 0.032140262 -0.017041035 0.043531276 0.023179213 -0.004681635 -0.020105643 0.02816737
-0.008825129 -0.029030923 0.039964475 0.03281601 -0.016785245 0.015022311 0.028255273 -0.014736783
0.0007608296 -0.029837461 0.0049409433 0.004913996 -0.009140313 0.019750934 -0.04325585 0.023513047
-0.020262824 -0.02400665 -0.027928941 -0.023558091 -0.0023520312 0.00980459 0.0105713615 -0.04193979
0.037797976 0.015172644 0.018239358 -0.034666076 0.03669995 0.027073802 -0.018273044 0.01473596
-0.009960559 -0.03291693 -0.03716205 0.013100273 -0.038932387 0.017203907 -0.03918186 0.007074475
-0.002538278 0.03269249 0.044192545 -0.009907686 0.040857174 0.028450856 -0.01291036 0.02699101
-0.00823914 -0.041680437 0.03300278 -0.022999672 0.008191909 -0.014158075 -0.037526 0.01587864
0.020564416 -0.016787464 0.010053688 0.0198166 -0.038637623 -0.0050271074 0.025404671 -0.040030748
-0.014615753 -0.037396826 -0.007129524 0.0033573336 -0.01367817 -0.039755866 -0.007841858 0.008410166
0.040416993 -0.01142344 -0.02442385 -0.0007681052 -0.006116988 0.03372284 -0.0372479 0.03198178
0.026339915 0.040199526 -0.020040251 -0.03187343 0.008524426 -0.013268971 0.03336873 -0.02716772
0.01422552 0.0423556 0.03453985 -0.02986101 -0.0005648204 -0.012162853 0.03753633 0.011106879
-0.043758985 0.0019064336 -0.017895667 0.010714124 -0.021898342 0.02379058 -0.019245889 -0.024301209
-0.011001845 0.0032362456 -0.00082910224 0.0030789273 0.00030568056 -0.03004092 0.036788672 0.038864803
0.0042232038 -0.025054203 0.020235045 0.032900892 0.041270904 0.028644279 -0.030395342 0.009285572
-0.009611994 -0.01271051 -0.03578216 -0.026324358 0.034329418 -0.0040444694 0.032568708 0.012001262
-0.006734924 -0.0060168104 -0.013706756 -0.009798542 -0.014782148 -0.012445716 0.013206878 -0.0034701133
0.0128869675 0.033371396 0.037089843 0.043743897 -0.004300064 0.028022844 -0.03941122 -0.003442781
-0.005108082 -0.04172919 0.02099078 0.0379515 -0.030312402 -0.042824917 0.041651387 8.7407294e-05
0.0034948008 -0.009679935 0.030679185 0.03813911 0.023313772 0.015732612 -0.025011083 0.016300099
-0.0024702267 -0.017256742 0.02702822 -0.02010363 0.03439283 0.012255935 0.014139203 0.0083080605
0.04238373 0.043058217 -0.038076278 0.027241362 0.0152558945 0.00023515834 -0.042955413 0.0037856877
0.007171344 0.010170298 -0.03299188 0.038216032 0.017966865 0.031661134 -0.033272207 -0.04260886

mlp.5.weight f4 [4, 256]
00000000: 8044 d83b 24a0 e8bc b80f 46bc ec79 633d
00000010: a68b 703d b017 8fbc 940d 403d a089 febb
00000020: f0c9 fd3c fa24 39bd 7659 5f3d 0624 6abd
00000030: 58e9 be3c 3061 e93b 5c87 e73c a4b2 613d
00000040: c00d 443c 985c e1bc 3c47 69bd 1cfd 2c3d
00000050: 247f 433d bc5d 03bd e0d7 2a3d 8029 65bd
00000060: 601e 7abc 6282 32bd 66e4 62bd 64d8 7a3d
00000070: 445e abbc c45c cb3c 24cc eb3c 34f5 f33c
00000080: c006 63bd b832 fc3c 30e3 1abd 2c79 8dbc
00000090: 2c7c 52bd dcb0 433d e067 66bb c07a e83a
000000a0: f043 a93c e088 fa3b 00b0 f7bb e06b 5cbc
000000b0: e06e 4fbb 98a2 fa3c 1009 11bc 8c6b 7f3d
000000c0: b8d8 87bc 5ca5 373d 6c3c 7c3d 10f6 893b
000000d0: c03f b23c 6044 5cbc 9066 40bd 74de 643d
000000e0: 567a 69bd 00a1 9739 b4b0 84bc 14a5 77bd
000000f0: 68bf 7fbc f86c 5d3c a097 8fbb 300b 863b
00000100: d800 d6bc 366b 30bd 2a53 223d 10db 213d
00000110: 08f1 2cbc 7818 c13c 2287 37bd 3c83 ebbc
00000120: e872 c63c c02d 913a 365a 71bd 1c8c 6fbd
00000130: 8041 d13c 18b4 df3c fee8 783d 748b 81bc
00000140: 6e6f 0dbd 4c19 f8bc 3018 843b ea93 16bd
00000150: 005c 07b9 6a24 0d3d 9839 ba3c 14f0 f23c
00000160: 544a 5abd a438 8cbc a8c6 683c 4001 b43a
00000170: 9200 29bd 4494 e33c 6019 273c 083d efbc
00000180: 84af 523d 10d3 a8bb d035 053c 609e aa3b
00000190: 30de debc e0ea 523b 14db ee3c 6cbe 56bd
000001a0: 44e8 ffbc 100d e73c 6845 e53c fc03 2f3d
000001b0: 8c8b e03c 800e d3ba 3875 783d e0aa 63bc
000001c0: ccef 19bd 4cc7 1a3d c075 b83b 5088 24bd
000001d0: 4609 65bd 9c0c aabc facb 1d3d 6cb3 e53c
000001e0: dcb2 aa3c 104c 213d babd 6f3d 104e a2bc
000001f0: 9825 a53c b804 1ebc 8048 463a 70d0 28bd
00000200: f0d2 8bbb 8058 623a d08c ac3b 103e 35bd
00000210: 6864 55bc 10fd 793d 96a4 3ebd 6432 4a3d
00000220: 18db ecbc c8ee 2cbd 009e a13b d843 1fbc
00000230: e00b cabc ba97 103d 30e4 8e3c 5eea 6b3d
00000240: 4056 603b 9c5c a0bc e0ba 1c3c d008 023c
00000250: ceb8 4c3d 5488 b23c d0be abbb bab0 1a3d
00000260: 0c0a c9bc 402e b0bb 988e 113d 347d ac3c
00000270: 60cf 223b 1009 e3bc acb1 7e3d a051 103b
00000280: 58d5 f53c ec54 ccbc f4bd 343d fc59 a23c
00000290: c8fe 3f3d 72a1 263d 8463 ed3c 248a 583d
000002a0: f615 3e3d c48f bf3c 0cf5 73bd 209c 5fbc
000002b0: 9069 8f3c 7017 db3c ae97 393d 66ee 363d
000002c0: c0b3 403c 3265 6abd c47a 943c f8a3 ebbc
000002d0: d417 c33c 62f3 4a3d 803f 9fbc 2843 7a3d
000002e0: e04c 63bb a062 e63b bceb 4abd 2890 e2bc
000002f0: b080 51bc 9434 bcbc c016 b1ba 9ab0 19bd
00000300: ac76 173d 3092 afbc 90fe e5bb 1413 89bc
00000310: 40d2 e83b 762c 3d3d 30ab d3bb b062 6d3c
00000320: 22ec 4f3d f4c4 c5bc b026 5b3d 3831 693c
00000330: b021 51bd 3e43 503d f001 c73c 3074 ac3c
00000340: 8aa5 50bd 5e55 3a3d a2c9 31bd 00a2 973b
00000350: 948f 65bd e2bd 56bd 102e 29bc d8a5 7bbc
00000360: 2867 6c3d aac3 5cbd 888d ebbc 1c39 94bc
00000370: 0c52 3ebd 8069 ea3a 700f 5c3d 9abf 153d
00000380: 803e 443a 7c2d 053d c401 39bd 125b 683d
00000390: 1c32 c9bc b46b 0b3d 38f9 1d3c f253 21bd
000003a0: 60bc 553b b211 703d acdf f43c 6004 6a3b
000003b0: dcd7 3bbd b69f 59bd 1402 b0bc 087b ea3c
000003c0: 0092 6fba ba03 033d e86e 53bd c430 67bd
000003d0: c8a9 86bc 0075 f0bb fcf3 1fbd d40b d03c
000003e0: aa8b 513d a05f 3fbc 16a8 73bd 98da 463d
000003f0: 5c07 7dbd 8ca8 02bd 1a65 103d 107a 063c
0.0065999627 -0.028396674 -0.012088709 0.055536196 0.05872693 -0.01746735 0.04688795 -0.007767871
0.03098008 -0.04520128 0.054528676 -0.05716326 0.023304626 0.0071221814 0.028262787 0.055102006
0.011966169 -0.027509972 -0.0569527 0.04223357 0.047728673 -0.032071814 0.04170978 -0.05594778
-0.015266031 -0.043581374 -0.0553936 0.061241522 -0.020918973 0.024824508 0.028783865 0.029780008
-0.05542636 0.030785903 -0.03781432 -0.017269693 -0.05138795 0.047776088 -0.003515713 0.0017736778
0.020662278 0.0076457113 -0.0075588226 -0.013453454 -0.003165178 0.030595109 -0.008852258 0.062358424
-0.016582832 0.044835433 0.06158106 0.004210241 0.021758914 -0.013444036 -0.04697281 0.05587621
-0.057001434 0.0002892092 -0.01619754 -0.060460165 -0.0156096 0.01351475 -0.004382089 0.004090689
-0.02612345 -0.043070994 0.039630093 0.039515555 -0.010555513 0.023571238 -0.044806607 -0.0287491
0.024224713 0.0011076257 -0.058923922 -0.058483228 0.025543928 0.027307555 0.060769074 -0.015813567
-0.034530096 -0.0302855 0.0040312037 -0.036762156 -0.00012908876 0.034458555 0.022732541 0.029655494
-0.05329354 -0.017116852 0.01420752 0.0013733283 -0.04126031 0.02778066 0.010198921 -0.029203907
0.051436916 -0.0051521137 0.008130506 0.005206868 -0.027205557 0.0032183453 0.029157199 -0.052427694
-0.031238683 0.02820447 0.027987197 0.04272841 0.027410291 -0.0016102344 0.060658664 -0.01389572
-0.037582204 0.03778772 0.0056292713 -0.04016906 -0.055917047 -0.020757966 0.038524605 0.028039657
0.02083724 0.03937918 0.058530547 -0.019812614 0.020159528 -0.00964468 0.0007563904 -0.041214406
-0.004267089 0.00086344033 0.0052658096 -0.04424864 -0.013024427 0.061032355 -0.04654368 0.049364462
-0.028913066 -0.042219907 0.004932165 -0.009720765 -0.024663866 0.035300948 0.017442793 0.057596557
0.0034231097 -0.01957541 0.009566039 0.007936671 0.04998093 0.021793522 -0.0052412525 0.037766196
-0.024540924 -0.005376607 0.03553638 0.021055795 0.0024842843 -0.027714282 0.06218116 0.0022021309
0.030008957 -0.024942838 0.044126466 0.019818299 0.046873838 0.04068131 0.028978117 0.052866116
0.046407662 0.023383982 -0.059559867 -0.013648063 0.01750639 0.026744574 0.04531067 0.04466095
0.011761606 -0.057225414 0.018124945 -0.02876471 0.023815073 0.049548514 -0.019439459 0.0610992
-0.0034683272 0.0070308 -0.04954122 -0.02765663 -0.012787029 -0.02297429 -0.0013510808 -0.037521936
0.03697841 -0.021432012 -0.0070188716 -0.01673273 0.007105142 0.04618498 -0.006459616 0.014488861
0.050762303 -0.024141766 0.053503692 0.014232926 -0.051057518 0.050845377 0.024292916 0.021051496
-0.05093912 0.04549157 -0.043405183 0.004627466 -0.05604513 -0.05242718 -0.010325924 -0.015359364
0.057715565 -0.053897537 -0.02875401 -0.018093638 -0.046464965 0.0017884225 0.05372566 0.03655968
0.000748612 0.03251408 -0.0451677 0.056727476 -0.024560027 0.03403826 0.009641938 -0.039386697
0.00326135 0.058610626 0.029891811 0.0035708174 -0.045860156 -0.053130828 -0.021485366 0.028623119
-0.0009138882 0.031985976 -0.05161944 -0.05644299 -0.01643838 -0.0073381662 -0.03905104 0.025396265
0.051158585 -0.011680514 -0.05948647 0.04854831 -0.061774597 -0.03189902 0.035252668 0.008207813

mlp.5.bias f4 [4]
00000000: 38d7 3d3c bea8 2c3d 54bf 00bd bc89 b53c
0.011586957 0.042153113 -0.031432465 0.022160403
