results/TD3/checkpoints/model_0_critic1.pth (torch, 559447 bytes, 5 tensors)

mlp.0.weight f4 [512, 14]
00000000: f889 82be a404 373e bf13 a53d 35a8 e43d
00000010: afdd 663e 5a23 7e3e 9284 363e 3d38 40be
00000020: 7f44 79bc 4c6c 78be 1222 86be 093c 99bd
00000030: 2aba 803e 62a8 033d 7621 74be 7fe7 c6bd
00000040: 3533 963c ff94 003d dff9 063e e9a2 343d
00000050: 7c9a 49be 9e2a 2ebe 4606 5c3d f515 49be
00000060: dbb3 cebc 0bfd 513e 5603 0bbd dca9 3e3e
00000070: 391f fd3d 4c2d 233e c0c5 303e 6280 0c3d
00000080: 8c6e 4a3e afa9 bd3c f928 343d 03dd d9bc
00000090: 23a4 f7bd 4a81 6abd 09bd 613e f594 2abe
000000a0: acce 5abe ea57 713d b5fa 58bd a883 8b3d
000000b0: 3cf5 4f3c 1c53 43be b9b7 2e3e f711 a1bd
000000c0: 1373 70be 19e1 60be be64 64bd ad4d 103e
000000d0: 8655 64be 31fd 28be 2fec 01be bbba 143e
000000e0: 1f0e 6cbe 2c26 13be ec9d ce3d 4e4c c1bd
000000f0: 77ae 19be fa57 5d3e 7b42 ea3c c21e b73c
00000100: 5c73 a4bd dff4 473e 5319 27be a478 c3bd
00000110: 38e8 d33d 2ee5 193e b642 173e 4b9c 113e
00000120: de45 8a3d 30f7 3cbd 2dba ffbb a6b7 e63d
00000130: 7e3d 7d3e 714c 40be 111d 24be 9ced e93d
00000140: 7d2d 373d 1eea bfbd 77d4 3e3e 40b9 40be
00000150: 283d 4ebe 0e66 513c 0b04 413e c8e7 e3bd
00000160: 3b15 80bd cab5 c7bd 1aff 5ebd 8f82 763e
00000170: 4065 813e ea35 ad3c 7054 783e 833a e4ba
00000180: ef08 e33d 1c2c 513e bd5a 073e 3206 7b3e
00000190: b1a1 3b3e 8f43 0fbe d0af a63d a166 803e
000001a0: 26a8 e73d 0996 3c3d a3d4 82be ac65 e23d
000001b0: 34c8 6a3e af2f 05be 9000 96bd 22bc d13d
000001c0: c981 85bd 3b7e 07ba 54b2 f5bb 29b4 e7bc
000001d0: 8d96 1dbb 0392 713e 8321 b13d 32ad 103e
000001e0: 259a e43d 96e1 703d 5d39 023e ebe2 6c3e
000001f0: ec9e ebbc dce3 703e ce5b 76bd 9bab 00be
00000200: 5420 cfbd 36e1 19be 77ba 063d 0613 7bbd
00000210: 017c 84be b18f 033d 8b99 d3bd e8b8 cbbd
00000220: d765 74be a0ed 743a ecc2 cf3d 3a77 0abd
00000230: 55b4 003d 9647 673c 7d4a 2bbd 444d 7fbd
00000240: 423a 39bd 7a02 083e 717c 3b3e fdac 5a3e
00000250: 2bd5 703e 26fe 76be 7920 0cbd 7f9f 123e
00000260: 4284 5dbe 792c 873e 9d4e 053e 65ce 65be
00000270: f7bc 4e3e f714 653e 5003 433e 0d17 203e
00000280: 9b31 9cbd 7599 413c cc47 48be 3c75 6abe
00000290: fc28 683e 3de1 9f3d c126 47bd ffac 80be
000002a0: d33b 38be 9c51 503d 3d73 dd3d 0e47 46be
000002b0: 381d 14bd 46a8 9d3d addb abbc b9a5 17be
000002c0: 8b5a f33d d71d 853e 3d16 693e 965f 95bd
000002d0: cc27 2c3e a7d2 0d3e 5443 cbbd 0e41 0dbe
000002e0: 926f 083e 2b85 60bd 571b 54be bf61 283e
000002f0: b7af c3bc d987 173e ed2c 7ebd 5073 f8bd
00000300: 6f8d 77be bd59 d43b 262c 073e 17df 6ebe
00000310: a939 123e 0a0a 413e 07cf 4c3e 2ffe 7cbe
00000320: 6837 4abe cb35 18be bca4 9ebd cc2f 833e
00000330: c2c2 6fbe 40dd 1e3e 5bc7 91bd 04a9 26bd
00000340: 62b5 fa3d 734b 833e 865a f73d 1c58 223e
00000350: a7a7 bfbd 2ab1 3f3e b445 203e 25ba f5bd
00000360: 88a8 573e 47fe e2bc 2ba4 aa3d 1081 adbd
00000370: 3a92 243d a7e1 29be a6f3 033e 3ee7 903d
00000380: 149d 543e d352 9a3c 60b6 273e f16d 003b
00000390: c7dc 30be b12d 83bd 7713 c83d 409b 3a3e
000003a0: 382e 00be 2995 d6bd 8210 02be 1416 b9bc
000003b0: 759e 94bd 450f e5bd d8c7 3ebe 45b9 403e
000003c0: 8944 ef3b 4749 5b3e 84c0 283e 60d7 2e3e
000003d0: bf14 70be 0c4c 083e a9df e83d 7f38 1cbe
000003e0: e70f 983d 91a3 c8bd 9649 a5bd e54f 2c3e
000003f0: a719 5cbe 5039 18be 51b7 4d3e c6e2 bcbd
-0.25495887 0.17872864 0.08060407 0.111648954 0.22545503 0.24818173 0.17824009 -0.18771453
-0.015214085 -0.24260062 -0.2619787 -0.07482154 0.25142032 0.032143004 -0.2384089 -0.09712123
0.018334964 0.031392094 0.13181256 0.044100676 -0.19687837 -0.17008445 0.05371692 -0.19637282
-0.025232246 0.20506684 -0.03393873 0.18619484 0.12359471 0.15935248 0.17262936 0.034302123
0.19768733 0.0231522 0.043984387 -0.026594644 -0.120918535 -0.057252206 0.22044767 -0.16658385
-0.21367902 0.058921732 -0.052973468 0.06812221 0.012692746 -0.19074672 0.17062272 -0.07864755
-0.23481397 -0.21960868 -0.055760138 0.14092131 -0.2229825 -0.16502835 -0.12687753 0.14524357
-0.23052262 -0.1437003 0.10088715 -0.09438382 -0.1500796 0.21615592 0.028596153 0.022353534
-0.080298156 0.19527005 -0.16318254 -0.09544495 0.103470266 0.15028831 0.14771542 0.14219777
0.06751607 -0.046134174 -0.0078041763 0.11265497 0.24730489 -0.1877916 -0.16026713 0.114222735
0.044721115 -0.09370826 0.18635736 -0.18820667 -0.20140517 0.012780679 0.18849199 -0.11128193
-0.062540494 -0.097514704 -0.054442503 0.24073242 0.2527256 0.021143872 0.2425096 -0.0017412457
0.11085688 0.20426983 0.13218208 0.24514082 0.18323399 -0.13990615 0.08139002 0.250783
0.11311369 0.046041522 -0.25552854 0.110545486 0.22927934 -0.13006471 -0.07324326 0.102409616
-0.06518895 -0.0005168651 -0.007498065 -0.02828415 -0.0024046034 0.23590855 0.0864897 0.14128569
0.11162213 0.058808886 0.12717195 0.23133437 -0.028762303 0.23524421 -0.060146146 -0.12565462
-0.10113588 -0.15027317 0.03289267 -0.06129744 -0.25875857 0.032119457 -0.1033202 -0.099473774
-0.23866974 0.000934327 0.101446 -0.03380511 0.031421978 0.0141161885 -0.041819084 -0.062329546
-0.045221575 0.13282195 0.1830919 0.21355052 0.23518817 -0.24120387 -0.034210656 0.14318655
-0.21632484 0.26401117 0.1301827 -0.22442015 0.20189272 0.22371279 0.19044232 0.15633793
-0.07626649 0.011816372 -0.19558638 -0.22896284 0.22671884 0.07806633 -0.048620943 -0.25131986
-0.17991571 0.05085908 0.108129956 -0.19363043 -0.036160678 0.07698111 -0.020978773 -0.14809312
0.11882504 0.25999328 0.2276239 -0.07293622 0.16812056 0.13849889 -0.09924951 -0.13794348
0.1332381 -0.0548145 -0.20713554 0.16443537 -0.023887498 0.14797916 -0.062054563 -0.12131369
-0.24175046 0.006480424 0.13200435 -0.2332729 0.14279808 0.18851486 0.2000085 -0.24706338
-0.19747698 -0.1486427 -0.07746264 0.25622404 -0.23414138 0.15514088 -0.07118102 -0.04068853
0.12241627 0.256435 0.12077813 0.15853924 -0.09358149 0.18719926 0.1565159 -0.11998395
0.21060383 -0.02770914 0.08332094 -0.08471882 0.040178515 -0.16589986 0.12885913 0.07075356
0.20763046 0.018838322 0.16378164 0.001959678 -0.1727172 -0.06405199 0.097693376 0.18223286
-0.12517631 -0.10477669 -0.1270161 -0.022593535 -0.07256786 -0.11184553 -0.18630922 0.18820675
0.007301871 0.21414672 0.16479689 0.17074347 -0.23445414 0.1331026 0.11370785 -0.15255927
0.07424908 -0.09796823 -0.08070676 0.16827352 -0.2149416 -0.14865613 0.20089461 -0.09222941

mlp.0.bias f4 [512]
00000000: 371c bc3d 0de7 083e 61d3 a7bd b828 513c
00000010: 5b6b fbbd 2fbc 23be 1954 cabc 6da6 893d
00000020: dcf6 813e 5aaa b23d aa6d 08be e0f7 3a3e
00000030: 5da5 8b3d eb1f 3d3e 7c13 553d 8c23 21be
00000040: fb64 f23b 98ab 163e 631e a4bd 6cd7 35be
00000050: e53e 11be 005f 87be f994 8f3d 6397 9ebb
00000060: 6cb3 87be f5d1 75be 6958 873e 5eb2 a53b
00000070: 1c55 45be 49b1 5bbd ec7e 0fbe 9655 173d
00000080: b7c6 acbd 41db 503e 3f95 203e b862 ccbd
00000090: b947 653e ddd3 153c 22d3 49be 08d4 a1bc
000000a0: ec2c 6fbe 52ae 153e 050c 64be c9b5 91bd
000000b0: 8e5f 953d 8af1 6a3c ec75 ad3c 2c9a 5cbc
000000c0: 8fb9 7a3d 361e 2a3e 5d46 173e cdb2 01bc
000000d0: f1c3 f1bd 31e3 c23c 98f3 1ebe 556c 5bbe
000000e0: 812e 55be a927 143e c6d0 2a3e f2d8 e9bd
000000f0: ded1 83be 59bd 38bc 95c5 0c3e 4156 5abe
00000100: 539f f63c 4da0 76be 2963 e63d a4e0 55bd
00000110: 2ccb 2a3d 872b 46be f936 eabd fd68 433d
00000120: b2c5 a0bd f295 dcbd dfa8 173e 1562 093e
00000130: 875f 92bd 0573 7a3e 0788 153d 2a6e 2abd
00000140: d05b 58be 2d8b 0cbe 24a7 3fbe 7ba1 e6bb
00000150: 312d 18be 6f42 423d 28af 473d 3437 633d
00000160: ef0a 583e 1f4f 0e3e 6c9b 533e ac90 aa3c
00000170: ccbb 63bd 39bb 94bd 0f64 c2bd e031 86be
00000180: 66c8 cd3d 8c8d 6cbe 67b5 b53d 8c53 963c
00000190: 82d1 58be be17 08be f199 bbbd 0790 e7bd
000001a0: aa1e 63be 8468 27be 4860 0a3e 663f 293e
000001b0: 3a25 30be 2f02 d73b 477e a23d 524a 9f3c
000001c0: 470b f03d 4133 49bd 4d5d c4bd ea75 843e
000001d0: a110 edbd 50a5 903c cf4f 75bd f780 163e
000001e0: 8344 653e c8fe 5e3e c9e8 15be 4a46 3b3e
000001f0: 1f52 603e f2ad 833d d606 87be 979c 843a
00000200: 33ba 413d 8038 a73d 4aeb 353e 0c4a 64be
00000210: f360 523e 988a 4e3e 4d51 363c 7f5c a6bd
00000220: 2b25 70bd 9b31 54be dfca 1cbe 0449 e53d
00000230: 7739 8dbd 470d a93d 49cb 88be d1d9 72be
00000240: 9611 c63d db32 303e fc3a ab3d d8b8 0cbe
00000250: 8ae3 83be 816e 2dbd 447a 213e a824 47be
00000260: 646f 903d 4180 c23d f28f 18be 5ba3 24be
00000270: dc2f fdbc 88bd 073e 43c8 293d fc56 733e
00000280: 5fda aabb 352e 853e f4b6 eebd 84c8 b13d
00000290: 120a 323e c6cb 133d 2b7f 593d cb00 c3bc
000002a0: 1ae4 70be 494c bb3d fef2 cdbd 5fa9 683d
000002b0: 7210 30be 42a7 e53c a6f1 0a3e b05e 76be
000002c0: 66cf 45be 1277 2cbe 5b9c 4a3e 7cef 3fbe
000002d0: 2b90 b4bc 937b 46bc 833c 42be 4345 dbbd
000002e0: ed7b ccbd e0f3 753e b462 4a3e c72c 28be
000002f0: a545 383d 70b6 753d 199c b0bd 1fee b8bc
00000300: 0107 5dbe df38 833e d207 043e 42e3 62be
00000310: fb08 a2bd 8318 a6bd 1b98 793e e232 57be
00000320: 3245 7e3e 8034 2abd 1a7f 39be a11b 2f3d
00000330: 18b8 d93d d8e9 17be 257e f43d 56e0 603e
00000340: a279 2e3d c9af 393d eb46 81be d7d7 5ebe
00000350: 32c8 18be 04ae 2bbe 8939 1b3e 00c2 13be
00000360: bb75 27be 147a da3d 8683 72be 821b 4c3d
00000370: 8738 0d3e f236 643e f7ce 113e c710 833d
00000380: 9317 02be d1bb 40be ba0b 3e3e b95c 293c
00000390: 49a6 06be 79b4 853e 948d 573e 30c1 20be
000003a0: df60 4e3d 7af1 543d 7987 9abc 9ce1 9a3d
000003b0: b779 5fbe c159 fd3d 55bf 3abe a2a3 9fbd
000003c0: 9f0f 8ebd d6e9 7b3e b9a7 123d d410 b83c
000003d0: d653 d23d c305 ccbd ff40 3ebe 6d96 6f3e
000003e0: 30e9 483d 48f1 1c3d 494e 253e fad7 a23d
000003f0: 45fd 0fbe 7ef1 b1bd 240b 583e 0e28 8c3d
0.09185069 0.13369389 -0.08194614 0.012766056 -0.12276336 -0.15989755 -0.024698304 0.06721196
0.2538365 0.08723898 -0.13323084 0.1825862 0.0681865 0.18469207 0.052020535 -0.15736216
0.0073972917 0.14713895 -0.08013608 -0.17757958 -0.14184149 -0.26439667 0.07010836 -0.004839824
-0.26504076 -0.24005874 0.2643464 0.0050566634 -0.19270748 -0.05363587 -0.1401326 0.036946855
-0.08436339 0.20396139 0.15681933 -0.099797666 0.22390641 0.00914475 -0.19709447 -0.019754425
-0.2335698 0.14617279 -0.2227021 -0.07114751 0.07293616 0.014339814 0.021174394 -0.013464492
0.06121212 0.16613087 0.14772935 -0.007916165 -0.11804951 0.023789974 -0.15522611 -0.21428044
-0.20818521 0.14468254 0.16681203 -0.11418332 -0.25746053 -0.011275613 0.13747247 -0.21321966
0.030105269 -0.24084587 0.11249382 -0.052216187 0.041697666 -0.19352542 -0.114362665 0.047707547
-0.078502074 -0.10770787 0.14810513 0.13416322 -0.07147127 0.24457939 0.03650668 -0.041608967
-0.21128774 -0.13724966 -0.18716103 -0.007038293 -0.14860989 0.047426637 0.048751026 0.055472568
0.21097921 0.1389737 0.20664757 0.020820938 -0.05559902 -0.072622724 -0.09491741 -0.26209927
0.100479886 -0.23100871 0.088724904 0.018350385 -0.21173671 -0.13290307 -0.09160221 -0.11306768
-0.22179666 -0.16348463 0.13513291 0.16528091 -0.17201701 0.0065615396 0.07934242 0.019444618
0.11720901 -0.049121145 -0.09588108 0.2587121 -0.11575437 0.017656952 -0.059890565 0.14697634
0.22389416 0.21776879 -0.14639582 0.18288532 0.21906327 0.06429662 -0.26372403 0.0010117468
0.047296714 0.081650734 0.17765537 -0.22293872 0.20544796 0.20170057 0.011127782 -0.08123111
-0.058629196 -0.20722048 -0.15311764 0.11195567 -0.06895726 0.082544856 -0.26717594 -0.23715903
0.09671323 0.172069 0.0836086 -0.13742387 -0.25759536 -0.042341713 0.15769297 -0.19447577
0.07052496 0.09497119 -0.14898661 -0.1607794 -0.03090661 0.13255894 0.04145075 0.2376365
-0.00521402 0.26011816 -0.11655989 0.086808234 0.17386654 0.036083005 0.053099792 -0.023804089
-0.23524514 0.091454096 -0.10056113 0.05680215 -0.17193773 0.028033856 0.13568744 -0.24059558
-0.19317397 -0.16842297 0.19786207 -0.187437 -0.0220414 -0.012114423 -0.18968396 -0.1070657
-0.099845745 0.24018812 0.19764215 -0.16423331 0.044988293 0.05998844 -0.08623523 -0.022574482
-0.21584703 0.25629327 0.12893608 -0.22157004 -0.07911869 -0.08110144 0.2437443 -0.21015504
0.24831083 -0.041553974 -0.18114892 0.04275096 0.10630816 -0.14835298 0.11938123 0.21960577
0.042596467 0.045333657 -0.2524942 -0.21762024 -0.14920118 -0.167656 0.15158667 -0.14429474
-0.16353504 0.10667816 -0.23682985 0.04983092 0.13791095 0.22286585 0.14239107 0.063996844
-0.12704305 -0.18821646 0.18559161 0.010337048 -0.1314937 0.26114252 0.21050102 -0.15698695
0.050385352 0.051988102 -0.018863427 0.07562563 -0.21823774 0.12370635 -0.1823705 -0.07794882
-0.06936573 0.2460092 0.035804484 0.022468962 0.10269897 -0.099620365 -0.18579482 0.23397227
0.04905051 0.03831604 0.16143145 0.079513505 -0.14061458 -0.08688639 0.21098 0.06843577

mlp.2.weight f4 [256, 512]
00000000: b44b c63c 4120 31bd a322 2f3b 5473 aa3c
00000010: 4139 f03b 0f76 f5bc 3794 323d ee11 2fbc
00000020: a443 783b 758b d6ba 581f 04bd 021d 8a3c
00000030: 867d 0d3c a60b 3d3c 80fc 94bb 0ee0 23bd
00000040: 691f 72bc b892 36bc a0b4 01bd 327a 2c3d
00000050: 581d 35bc cd28 96bb 2c4a 03bd 04cf 8dbc
00000060: 67b8 56bc 8e16 193d fe4a 90bc d8e5 d4bc
00000070: c65b 203d 1952 2bbd c4c6 10bd 689d c8bc
00000080: 2840 94bc 9b7e 0d3b a953 333d 1db3 103b
00000090: 87b3 3bbb d712 d8b9 c996 0bbd cb4c 7bbc
000000a0: d27f 3bb9 1033 4b3c 9a42 2c3d 73fa a03c
000000b0: e59b ce3b 0971 b1bc 3755 c0bc 553d 023d
000000c0: ea22 a4bc 6579 8ebc 4efd f33b 6c44 333d
000000d0: 6ac1 c8bc cb5e 2e3d 9837 81bc 701a 55bb
000000e0: 5dbb f83b a37c 89bb a84f d73c 2d35 913b
000000f0: de2f 5abb 2f89 493c aa24 c53c e34d bcbc
00000100: 6307 f7ba 0197 fe3b dfef 66bc 408f d13c
00000110: f351 2ebc c331 193d e70a 553c c405 07bd
00000120: 713a f9bc ecf6 c2bc 6405 e1bc 6cfd fabc
00000130: 7b49 f9bc 92a0 17bd 4648 09bd 45bf 423c
00000140: 4c00 c439 59a2 c6bb c089 b1bc 34f7 d83c
00000150: 0258 f7bc 7b5a 433a dc10 20bd c7de 14bc
00000160: 9dbe da3a 7fb5 183d 8665 dfbc fe21 c0bb
00000170: acf3 033d 431d 283d 7997 1d3d a181 08bd
00000180: 851c c73c 1ff5 fb3c 6669 e43b 3f1a c73c
00000190: 725a 41bb 15f7 58bc 733f 083d 891a b1bc
000001a0: 734d 57bc 9423 123d 27a6 563b 8601 a2bc
000001b0: 18af a5bb 5799 123d 975e 973c ac55 003d
000001c0: a52f 02bd 0a13 c33c e370 ed3b 6ad8 0cbc
000001d0: 8e3d aabb 1fac 04bd f9f8 6fbc a14a cdbc
000001e0: 237a c9bc 0c38 96bb e7fc 353c 120a 32bc
000001f0: 56e8 f73c 29e1 d8bc 3cea efbb 8fdf 6bbc
00000200: 4d5a 7ebc ff7b 2fbb c10a 953c 769b 123b
00000210: 6890 f63c de3d 833b b685 2dbd 951c 20bd
00000220: 8fe4 00bd c6c7 edbb 58be 313c 3b70 b33c
00000230: 37fe 343d b969 f23b 68a0 18bd 4eab 92bc
00000240: ca7c 7bbc f7e0 cbb8 bd30 86bc 8737 9abc
00000250: 732b e4bc b633 23bc fcea c33c fc49 31bd
00000260: 71e2 283d eba8 90bc 140b 7bbb 67ef e93c
00000270: fe05 8a3c a88a d3ba 8c81 15bc 2d3c 27bd
00000280: 2c5e 273d 2b7c b2bc 6400 d4bc 30af 8fbc
00000290: 6cdb 463c 60ec 97bb 43ba b63c 26cd f43b
000002a0: 2240 03bd 5226 b03a a857 e4bc 06b8 0fbd
000002b0: 9e8c ce3c cee5 dcba f9ca 503c f8cc 4b3c
000002c0: 95d7 01bd 51cb 8f3b b686 f33c df98 6f3c
000002d0: b97f a83b ed69 d4bb c0b2 a7bb 88f1 ec3c
000002e0: 711e 8abc e695 c1bc f6c5 f33c e598 4939
000002f0: 2214 393b 9faf 05bd bfcb 32bd 1e23 09bd
00000300: 50d1 0dbd 6d1b 34bd af90 bfba cf7d 8d3c
00000310: db23 2dbd e5be bc3c fa97 e9bb f790 2c3d
00000320: 7e4a a8bc 9789 d63c 0a27 063d 1bfc 39bc
00000330: d950 f5bb 893e cabb 2028 813c 8679 3b3c
00000340: 2f50 b8bc cfa0 02bd f053 76bc 8821 37ba
00000350: 7516 3c3c 7ec3 0e3d 93c1 8e3a 5fa4 e53b
00000360: 11e6 3fbc 2bce fa3c 2903 8f3b fc6b 85bc
00000370: b0e4 b6bc 577c af3c e66c 0ebb bc68 8c3c
00000380: 679a 72bc 466a 27bd 9645 293d f8ef 8abc
00000390: 96a5 bfbc 06cf fbbc f71d bbbc e7e9 05bd
000003a0: e951 98bc 9bf7 cd3c c8d2 e4bc 0db1 403c
000003b0: bc0b 233d 3635 fc3c 2886 8cbc 2e22 133d
000003c0: 24d1 fabb 218b 0ebc cd8b f1bc 53a3 f33b
000003d0: 8ffc b13c f649 27bd 383d 233d 8cc1 173d
000003e0: 54e4 1cbd 85e3 a7bc 5b28 94bc e800 353d
000003f0: 0ed0 9a3c 11e9 fbbb d374 a53c e744 453c
0.02420602 -0.04324365 0.0026723526 0.020806946 0.007331044 -0.029963521 0.04359838 -0.010685427
0.0037882114 -0.0016368466 -0.032256454 0.016859535 0.008635884 0.011538422 -0.004546702 -0.040008597
-0.014777997 -0.011143379 -0.031666398 0.042108722 -0.011054359 -0.0045825006 -0.032053158 -0.017310627
-0.013105488 0.037375025 -0.017613884 -0.025988504 0.039150022 -0.04182634 -0.035345808 -0.02448912
-0.018096998 0.0021590355 0.043780956 0.0022079416 -0.0028640942 -0.00041212767 -0.034079347 -0.015338133
-0.00017881326 0.012402311 0.042055704 0.019650673 0.006305205 -0.021660345 -0.023478134 0.031796772
-0.02003618 -0.01739187 0.0074459678 0.043766424 -0.02450629 0.04257087 -0.01577358 -0.0032516979
0.007590695 -0.004195766 0.0262831 0.004431388 -0.0033292691 0.0123007735 0.024065334 -0.022986358
-0.0018846806 0.007769466 -0.014095276 0.025581002 -0.010639655 0.037400972 0.013003088 -0.032964483
-0.030423375 -0.023799382 -0.02746839 -0.03063842 -0.030430546 -0.037018366 -0.03351619 0.0118864225
0.00037384254 -0.006061834 -0.02167213 0.026485063 -0.030193333 0.00074521423 -0.03907858 -0.009086317
0.0016688887 0.037282463 -0.02727009 -0.005863427 0.032214805 0.04104353 0.038474534 -0.03332675
0.024305591 0.030756531 0.0069705723 0.024304507 -0.0029503372 -0.013242503 0.033263635 -0.021619098
-0.013141024 0.03567846 0.0032752843 -0.019776117 -0.005056273 0.035790768 0.018477721 0.031331703
-0.03178372 0.02381279 0.007246123 -0.008596519 -0.005195326 -0.03239071 -0.014646762 -0.02506
-0.024594372 -0.004584318 0.01110766 -0.010866659 0.030262154 -0.026474552 -0.007321624 -0.014396562
-0.015524459 -0.0026776788 0.018193604 0.0022370494 0.030098155 0.004005178 -0.042363845 -0.039089758
-0.03146797 -0.007256481 0.010848604 0.021904102 0.04418775 0.007397857 -0.03726235 -0.01790395
-0.015349576 -9.721697e-05 -0.016380662 -0.018825306 -0.02785275 -0.009961059 0.02391576 -0.043283448
0.041231576 -0.017658671 -0.0038306164 0.028556539 0.01684856 -0.0016139345 -0.009125125 -0.040828872
0.040861294 -0.021787724 -0.025879093 -0.01753959 0.012137275 -0.0046363324 0.022305613 0.0074707447
-0.032043584 0.0013439155 -0.027873829 -0.035087608 0.025213536 -0.0016853155 0.012743705 0.012439005
-0.031699736 0.004388251 0.029727321 0.01462385 0.005142179 -0.006482354 -0.005117744 0.028923765
-0.016860219 -0.023631047 0.029757481 0.00019225811 0.002824076 -0.03263819 -0.04365134 -0.033480756
-0.034623444 -0.043971468 -0.0014615263 0.017271904 -0.042270523 0.023040244 -0.0071287127 0.042130437
-0.020543333 0.026188655 0.032752074 -0.0113516105 -0.0074864444 -0.0061720056 0.015766203 0.011442548
-0.022499172 -0.03189164 -0.015034661 -0.00069858925 0.011479964 0.034854405 0.001089143 0.00700812
-0.011712567 0.030615887 0.0043643904 -0.016286843 -0.022325844 0.021421595 -0.002173239 0.017139785
-0.01480732 -0.040872835 0.041326128 -0.01696013 -0.023394387 -0.030738365 -0.022841437 -0.03269377
-0.018593745 0.025142482 -0.02793254 0.011760962 0.039806113 0.030787092 -0.017153814 0.03592127
-0.007654326 -0.008700163 -0.029485608 0.0074352412 0.021726875 -0.04084202 0.039853305 0.037049815
-0.03830369 -0.020494232 -0.01808565 0.044190317 0.018898036 -0.007687696 0.020197308 0.012040353

mlp.2.bias f4 [256]
00000000: 8c77 93bc eff7 febc 9262 a13c 559e d13b
00000010: e385 f0bc 861d 283d 3717 2f3d 2e87 aabb
00000020: 8c64 123c c62c 34bc 4f2b 573c 1d32 283d
00000030: 82f0 8a3c 4405 0cbd 981a 0b3d c515 673c
00000040: aeee eabc 5481 1c3d 1d3c 6abc 3caf 32bd
00000050: 20c9 46bc af47 143d 20a2 8fbc 6d9f a3bc
00000060: b609 ff3c def1 05bd a2bd 0c3c 590e e6bc
00000070: 4b94 0bbd bc8f 32bc 1880 31b9 17cc 233d
00000080: 9104 fabc 694c 243d ed96 13bc d114 223d
00000090: 474b 2a3d 0341 31bd fe93 e43c 5ff9 8a39
000000a0: 62b8 113d 040f 103d 6052 db3c 738a 7a3c
000000b0: 079d 9d3c 3623 ec3c 7a23 ecbc cf16 38bb
000000c0: 255c 933c 5264 b7bc e200 dbbc 7d85 1bbd
000000d0: 4008 27bb b85e 1ebd e9dc 0e3c 6e2b f0bc
000000e0: 50f4 babc 4d90 26bd e1ec ecbb da87 2ebd
000000f0: 3e19 c23c f548 14bd b64a 0cbd 0511 0c3d
00000100: dfef 9a3c 871f cd3c 4635 42bc d981 9b3c
00000110: 1dfa 7d3a 4f81 92bc df01 603c df5d 95bc
00000120: 6b29 963b ff31 193d 3043 ac3c 4ebf 1dbd
00000130: 582f 2bbd 8cc4 b6bb c499 153d 8221 0abd
00000140: 9bea acbc 18ce ed3b 86ee 013d 2841 ed3b
00000150: c248 50bc 1ceb 573c 4f39 c6bc 173b bbbc
00000160: 42ef c33c 3a14 eabc 1752 a43c be86 60bc
00000170: eb3c 4b3b 3401 a4bc b94d 813c a241 dcbc
00000180: e64f e63c fd75 fe3c 19f8 5cbc 4b3d 983b
00000190: 3c04 5cbb 6211 003d d18d f0bc 7e03 ca3a
000001a0: 4639 9cbc 1579 48bc 9a15 a23c f68c b03c
000001b0: 7585 143d d3ba 36bb b334 163d f32f 1abd
000001c0: 2005 a23c ac76 91bc 5a00 35ba 8ca0 d0bc
000001d0: c71b 0f3d 5b20 e63c 3f1a f9bc bb51 f1bc
000001e0: 5b2e e0bc 7f2b 2a3d 7764 97bc 62ea ffbc
000001f0: 53ba e73b 5e45 b4bc 97a5 f53c 2c05 803c
00000200: 7e4d 0bbc f79c 18bd 77aa 133d c570 09bd
00000210: b5a5 0bbd ce81 e63c 732f 2b3d dc97 553a
00000220: bb23 23bd d34b dd3c 3b4f 803c 114e 08bd
00000230: 19db 4d3c 5bd2 9d3c 4652 c93b c4ea 62bb
00000240: 6f4b 4bbc 0644 96b9 db49 4dbc cfee 5abc
00000250: c435 31bd 49a7 ee3c d3e9 8c3c 3d3e a63c
00000260: bc0b b9bb 19e4 d03b e297 eeb8 b757 8d3c
00000270: 09d0 083c 3939 99bc 93fe 4b3b 822d f43c
00000280: aa90 07bd 49c6 26bd ccae c8bb 1a82 ed3c
00000290: 9ca6 cfbc 01ae 91bb 8ec5 d33c 0986 cfbb
000002a0: f946 a53c 0008 21bd 40b8 1f3c 0544 8ebc
000002b0: e777 cbbc 4012 33bd 2f83 c53c 3ab8 083d
000002c0: 2368 063d 3233 083d 39e2 bf3b c49c eebc
000002d0: 50d9 c8bc 323a aebc bc36 4a3c c546 c5bc
000002e0: 8dbd 91bc f4e5 5dbc 99cb 333d 7cbb 80bc
000002f0: c612 2e3c 2382 9a39 7fab a43c b7a2 05bd
00000300: 3012 783c 8488 32bd b241 283c 6a5c 8a3c
00000310: cced ddbc a597 7abb 7ca2 da3c 3556 e0bc
00000320: f3aa 103d 975c 053d e962 34bd 360b ad3c
00000330: 0062 9cbc 63d4 bbbc 5af2 cc3c c837 bcbc
00000340: c57e 0bbd 04b7 103d fc26 283d d25c d0bc
00000350: 099b e1bc 7981 c93b 288a 0abc 558f 1bbd
00000360: 8fea 1e3d 6f46 093d b6a5 0ebd fb31 1a3d
00000370: b5c9 0cbd 4f7c 193d aa72 bf3c ef49 cfbb
00000380: af07 f53c dc6d 303d c59c 19bd b57e 173c
00000390: a2d6 f33c b60c 283d a40a f8bc ae9f 81bc
000003a0: 5231 74bc bd64 30bd a0f5 19bd 772f fcbc
000003b0: bab9 0dbd f4cd abbb e63b 0c3d 00bc 9e3c
000003c0: be37 1dbd a048 2fbd eb94 293d a339 cfbc
000003d0: eb20 34bd 6ce6 0cbc 7b6f 2b3d d6e9 6b3c
000003e0: d03b 8cba 5ff9 3c3c dc34 fc3b 8e8e be3c
000003f0: fda6 22bd 7c7b 49bc b8aa fbbc f699 f6bc
-0.01800134 -0.031124083 0.019700322 0.0063970485 -0.029360717 0.04104378 0.04274675 -0.005204103
0.008935105 -0.010997003 0.013132884 0.041063417 0.016960386 -0.03418471 0.03396091 0.014104311
-0.028678264 0.038209274 -0.014296559 -0.043624148 -0.012132913 0.036201175 -0.017533362 -0.019973481
0.03113256 -0.032701366 0.008590134 -0.028083013 -0.03407697 -0.010898527 -0.00016927754 0.039989557
-0.030519756 0.040111933 -0.0090081515 0.039570633 0.041575696 -0.04327489 0.0279026 0.00026507207
0.03557623 0.03517057 0.026772678 0.015291798 0.019239916 0.028825384 -0.02882551 -0.0028089767
0.017988274 -0.022386704 -0.02673382 -0.0379691 -0.0025487095 -0.03866455 0.008719661 -0.029317584
-0.022821575 -0.04066496 -0.0072303866 -0.042610027 0.023693677 -0.03620239 -0.034250937 0.03419592
0.018913208 0.025039447 -0.011853522 0.018982815 0.0009688454 -0.017883925 0.013672321 -0.018233238
0.004582574 0.037401196 0.021028131 -0.03851252 -0.041793197 -0.0055776294 0.036523595 -0.03372336
-0.021107962 0.0072572343 0.031721614 0.0072404332 -0.012712659 0.013178613 -0.024197249 -0.022855325
0.023917798 -0.028574098 0.020058675 -0.013704 0.0031011652 -0.020020105 0.015784131 -0.026886765
0.02811427 0.03106212 -0.0134868855 0.0046459786 -0.003357186 0.031266578 -0.029364498 0.0015412418
-0.019070279 -0.012235899 0.019785691 0.02155159 0.036260087 -0.0027882352 0.03667135 -0.037643384
0.019777834 -0.017756782 -0.00069046544 -0.02546718 0.0349386 0.0280916 -0.030408023 -0.029457917
-0.027365854 0.041545387 -0.018480523 -0.031239692 0.007071772 -0.022005733 0.029986186 0.015627466
-0.008502362 -0.03725907 0.03605124 -0.03355481 -0.034093577 0.028138068 0.041793298 0.0008147934
-0.039828997 0.027013695 0.01566278 -0.033277575 0.012564444 0.019265344 0.006143841 -0.0034624794
-0.0124081215 -0.0002866091 -0.012529816 -0.0133626005 -0.043264166 0.029132502 0.01720134 0.02029335
-0.005647151 0.0063748476 -0.00011377015 0.01725374 0.008350381 -0.018704044 0.003112708 0.029806856
-0.033096947 -0.040716443 -0.006124353 0.028992701 -0.025348 -0.0044457917 0.025851037 -0.006333117
0.020175444 -0.03931427 0.0097485185 -0.017366419 -0.024837447 -0.043718576 0.024110405 0.033378817
0.032814156 0.03325195 0.0058558253 -0.029127486 -0.024517685 -0.021267984 0.012342151 -0.024081597
-0.01779058 -0.013543595 0.043895338 -0.0157144 0.010624593 0.00029470128 0.020101307 -0.03262588
0.015141055 -0.043587223 0.010269569 0.01688977 -0.02709093 -0.003823736 0.026688807 -0.027384857
0.03531928 0.032559004 -0.04403964 0.02112351 -0.019089699 -0.022928422 0.025017906 -0.022975817
-0.034056444 0.035330787 0.041052803 -0.025434885 -0.027539747 0.0061494675 -0.008455791 -0.03797849
0.03879791 0.033514436 -0.034826003 0.03764532 -0.03437205 0.037472066 0.023370106 -0.0063259522
0.02991089 0.04307352 -0.037503023 0.009246518 0.02976543 0.041027747 -0.030278511 -0.015823212
-0.014904337 -0.04306482 -0.037587762 -0.030784352 -0.03460095 -0.0052430574 0.03423681 0.019376755
-0.038383238 -0.04279387 0.041401785 -0.025296038 -0.043976706 -0.008599859 0.041854363 0.014399013
-0.0010698978 0.011534064 0.007696731 0.023261335 -0.039710034 -0.012297507 -0.030721053 -0.030102711

mlp.4.weight f4 [1, 256]
00000000: a009 12bd 0098 a239 642b 3dbd 0851 703d
00000010: c80a 4c3d 34a2 26bd a4f5 48bd 109e 903b
00000020: e2d8 75bd cc0c eabc 2421 2fbd 045a 2cbd
00000030: 90ca a53c 8018 0f3a d6e9 443d 9646 43bd
00000040: 9018 09bc 9028 3abc b652 3d3d 2e8e 46bd
00000050: 544a 4d3d 4425 9abc e843 11bc daba 7d3d
00000060: c8f5 b83c 8087 123b f0c8 6e3d 0c70 e53c
00000070: 006e c7b9 fc50 99bc 40c3 fcbc 9050 f93b
00000080: f628 023d b2c1 56bd f0b0 813c 4644 28bd
00000090: 34de 653d 18b5 493c 2493 5abd b4f6 97bc
000000a0: 02c9 3e3d 7ac2 433d 7476 60bd 6878 c23c
000000b0: 18b7 863c dc10 583d 4475 5bbd 6ef2 0bbd
000000c0: f828 ecbc 18d4 adbc 1cdf 9b3c d80d c13c
000000d0: 0e72 27bd d047 e2bb e018 71bb 94a7 8f3c
000000e0: 4ce7 2e3d 20d5 153c 8050 f33a 4862 1c3c
000000f0: 606f c93b 9cd9 32bd 941f 603d 101c aa3c
00000100: 00a4 da39 e6d2 1c3d d07e c2bc 30e4 9d3b
00000110: 5e3d 043d 8246 60bd 1452 96bc a08d f2bc
00000120: 38bc ebbc 90f1 f9bb 5808 5a3c aa82 20bd
00000130: 0012 783a 7891 d83c f0fc 0f3d defc 633d
00000140: 6089 963c 247f acbc 809f 633c 50b5 e83b
00000150: 0093 a5bb e44e 9dbc d4bc e43c f607 723d
00000160: 04eb 60bd 30a1 b6bb 82a6 61bd 886d de3c
00000170: d4a2 f7bc 60e5 fcbc 8c01 133d 00c9 4c3b
00000180: 9862 a13c 5481 dbbc f893 35bd 860f 613d
00000190: d8c2 00bd d026 ecbb 5025 8abb bca5 723d
000001a0: 08d9 bb3c 88a6 20bc 609f babc b813 4e3d
000001b0: 08f3 f0bc 5076 72bc e086 93bc 3652 67bd
000001c0: 80e6 cebb 2055 7b3c 50f9 3fbc 305a d4bc
000001d0: e8bd f8bc be45 443d 408e cdbc 4a71 423d
000001e0: 306d 6c3d ac32 d3bc 6498 43bd b8fa 0c3d
000001f0: 1667 38bd fcff bcbc c837 603c 50ca 7fbc
00000200: 20f0 7b3c f079 ce3c 3c1f 47bd acd6 59bd
00000210: 4cd6 3d3d 2838 7dbd c0bd 053b e690 3f3d
00000220: ccaf 753d 5035 edbb 7c68 4cbd fcd6 b03c
00000230: 6e33 11bd 6c0e 283d f05e d0bb d8ff 1d3c
00000240: d240 543d b8d0 1abd 3c12 d1bc 48b4 50bd
00000250: d6db 463d 504a a53b cca6 df3c fea4 44bd
00000260: 1013 5e3d 002c 3cbc 9036 1cbc 049d 8c3c
00000270: 869d 233d a050 ce3b 80e1 0e3b b8f2 4fbd
00000280: ea7d 053d a8bf 12bd d051 eabc c038 6cbb
00000290: d42f d63c 00e3 523c 242e f33c 2ed4 40bd
000002a0: bedf 3bbd a060 cabb 7821 6abd 9c46 f43c
000002b0: e06e 0b3b 9c25 3f3d c297 0e3d b07e 093d
000002c0: 68d0 433d 7230 2a3d fc2b babc 7058 e13c
000002d0: 8663 61bd 482f 4d3c e4b9 b9bc 7425 bf3c
000002e0: 6209 16bd 787e 7dbc 8ca3 e03c 3033 5abc
000002f0: c051 37bd 283b 043c 1c9d dd3c c0ba ff3a
00000300: 3cbb 8f3c 4e61 4d3d 4051 8f3b 08e0 be3c
00000310: bc55 afbc 36b5 13bd 34ee 903c 481a aebc
00000320: 2cb1 9abc a8e8 52bc 948f 373d a803 2fbd
00000330: 7212 2dbd c0d5 9a3a 307a 3f3d 3c20 833c
00000340: 8869 50bd 80be ce3a 204a 333c 6e5f 4f3d
00000350: a858 f73c 60b9 40bb 807f a1bc a2b0 41bd
00000360: b02d 173d 7818 293d 44a4 76bd c0ab 79bb
00000370: 8289 62bd f039 b0bc 403b 813b 02db 333d
00000380: 004e 833b 96d1 78bd a68d 263d 846d 0d3d
00000390: a06f 403d d0ea b0bc 1004 a0bc 9a48 503d
000003a0: 5886 2dbd e8b8 f13c 6496 86bc 1477 713d
000003b0: 40e6 c93c a862 1dbd 0c65 793d e0d7 ffbc
000003c0: 0078 2bbc ccc8 dc3c 5a78 4dbd 184d acbc
000003d0: e6b2 35bd eeb4 1e3d 4091 be3b 7079 63bd
000003e0: a8bc 74bc 8cb6 d03c fa83 643d f811 a4bc
000003f0: 80b9 82bc 3e5a 5cbd 68ae 40bd 4465 4e3d
-0.03565371 0.00031012297 -0.04618396 0.058671027 0.04981497 -0.040682033 -0.049062386 0.004413374
-0.06002129 -0.028570555 -0.042756215 -0.042078033 0.02023819 0.0005458668 0.048074566 -0.047674738
-0.008367673 -0.01136221 0.046221457 -0.048475437 0.050119713 -0.018816598 -0.008866288 0.061945774
0.022578135 0.0022358596 0.058297098 0.02800753 -0.00038038194 -0.018715374 -0.030854821 0.0076084808
0.031777345 -0.052430816 0.01583144 -0.041080736 0.056120113 0.0123112425 -0.05336298 -0.018550254
0.046578415 0.04779289 -0.054800466 0.023739055 0.016444728 0.052750453 -0.05357863 -0.034166746
-0.02882813 -0.021219298 0.019027285 0.023566172 -0.040880255 -0.0069055334 -0.0036788508 0.017535962
0.04270105 0.009145051 0.001856342 0.009544916 0.00614731 -0.04366456 0.054717615 0.020765334
0.0004170239 0.038287066 -0.02374211 0.004818462 0.032285087 -0.05475474 -0.018349685 -0.029608548
-0.028776273 -0.0076276734 0.013307653 -0.03918711 0.00094631314 0.026436552 0.03515333 0.055661075
0.018376052 -0.02105672 0.013893008 0.0071016923 -0.005052924 -0.019202657 0.027922072 0.059089623
-0.05491163 -0.0055734143 -0.055090435 0.027151838 -0.03022901 -0.030871093 0.035890147 0.0031247735
0.019700333 -0.026795067 -0.044330567 0.054946445 -0.031435817 -0.0072067752 -0.004215874 0.059240088
0.022930637 -0.009805329 -0.022781074 0.050311774 -0.029412761 -0.014798716 -0.01800865 -0.056474887
-0.006314099 0.01534012 -0.011717156 -0.025921911 -0.030363992 0.047918074 -0.025092244 0.047471322
0.057721317 -0.025780998 -0.047752753 0.03441879 -0.045020185 -0.023071282 0.013685174 -0.0156122
0.0153770745 0.025204629 -0.04861377 -0.053183243 0.046346948 -0.061821133 0.002040729 0.046769045
0.059982106 -0.0072390214 -0.04990433 0.021586888 -0.035449438 0.04102938 -0.0063589737 0.009643517
0.05181963 -0.037796706 -0.02552139 -0.05095318 0.048549496 0.005044259 0.027301215 -0.04800891
0.0542174 -0.0114851 -0.009534493 0.017164715 0.039945148 0.0062962323 0.002180189 -0.050768584
0.032590784 -0.03582731 -0.028603464 -0.0036044568 0.026145853 0.012871504 0.029685088 -0.04707735
-0.045867674 -0.0061760694 -0.057160825 0.029818825 0.0021275803 0.046666726 0.034812696 0.033568084
0.047806174 0.041550107 -0.022726052 0.02750799 -0.055026554 0.01252348 -0.022671647 0.023333289
-0.036630042 -0.015472047 0.027421735 -0.013317868 -0.044755697 0.008070745 0.027052455 0.0019510612
0.017545335 0.050141625 0.0043736994 0.023300186 -0.021403186 -0.036061488 0.01769171 -0.021252766
-0.01888331 -0.012872852 0.04481466 -0.042728096 -0.04225392 0.001181297 0.046747386 0.016006581
-0.050881892 0.0015773326 0.010942966 0.05062812 0.030193642 -0.0029407367 -0.019714117 -0.04728759
0.036908805 0.0412831 -0.06021525 -0.0038096756 -0.05530692 -0.021512002 0.0039438307 0.043910034
0.004007101 -0.06074675 0.04066243 0.03452827 0.046981454 -0.021596342 -0.019533187 0.05085049
-0.04236445 0.029507115 -0.016429134 0.058951452 0.024645925 -0.038424164 0.06088738 -0.031230867
-0.010465622 0.026951216 -0.050163604 -0.021032855 -0.044360064 0.038746767 0.005815655 -0.055535734
-0.014937557 0.02547767 0.055789925 -0.0200281 -0.015957594 -0.053797 -0.047041327 0.050389543
