results/TD3/checkpoints/model_1000_critic2.pth (torch, 559471 bytes, 5 tensors)

mlp.0.weight f4 [512, 14]
-0.19658533 0.013435956 0.19478115 0.21541049 -0.29067397 0.27421337 0.07085487 -0.18338253
0.1808395 0.068306915 0.046965923 -0.115507305 0.17007521 -0.2968915 0.1476225 -0.058946267
0.04588337 -0.20391567 -0.0032205067 0.22915459 -0.18598577 -0.15020907 0.029716194 0.15391257
-0.06829422 0.11530744 -0.16359057 -0.022854246 -0.123166814 0.018601777 0.0040596263 0.07306509
0.074183464 0.27659494 -0.3002797 0.053236626 0.28260562 -0.073933624 0.00898505 -0.13615535
-0.028946139 -0.2520016 -0.10718407 0.594874 0.22521676 -0.027514271 -0.03678582 0.14918832
0.07676174 -0.2688635 -0.24625418 0.24076457 -0.29107127 0.50224656 0.39010772 0.06257258
0.17219366 0.058275923 -0.31643796 0.0039395476 -0.107258625 0.12447036 -0.10275002 0.19568697
-0.13940714 0.063550554 -0.28754255 0.07885081 0.117244884 -0.07111214 0.1603462 -0.09261441
-0.18092614 0.16751191 -0.072120324 -0.057116438 -0.052146655 -0.3072799 -0.11481953 -0.10921311
0.07015046 0.057811126 -0.25102314 -0.22661385 -0.37264538 -0.10505804 -0.26728538 -0.059586834
0.22323579 0.19892856 -0.078215115 0.08529604 0.016772946 -0.3170843 0.25065017 0.06718328
0.016444147 0.24934444 -0.03328762 -0.14762306 0.02273495 -0.24876928 -0.08349612 -0.07350211
-0.18195494 0.12258331 0.05365245 0.007890089 -0.16654229 -0.13181818 0.10901374 -0.021019317
0.022261044 -0.10877174 -0.20549768 -0.24400848 -0.1399562 -0.19394773 -0.18297163 0.26548663
0.124055184 -0.011098215 0.112737134 -0.1173511 -0.0021389227 0.15794858 0.023997853 0.5792861
0.20329715 0.01245822 -0.08322721 0.06773331 0.20614658 0.23563254 0.06337834 -0.038312353
0.27109525 0.43636078 -0.18541914 0.009209522 0.0473284 0.28331366 0.009005135 -0.21719325
-0.30325288 0.21929106 0.09308728 0.008345896 -0.060002815 -0.02335573 -0.1449217 0.15818068
-0.15366562 0.0172354 -0.080492966 -0.22391027 0.20722376 0.20888656 -0.2145167 0.14307241
-0.014233232 -0.08789299 0.11983755 -0.076996155 -0.23527646 -0.09694451 0.104770645 -0.03366384
-0.036640987 -0.10933751 0.005170789 0.070817366 -0.123666555 0.051411267 -0.31512254 -0.053482313
0.12900656 -0.019181555 -0.20271951 0.14099845 -0.018902268 -0.078033485 0.15612045 -0.06383213
0.11186643 -0.22619121 -0.24606998 0.046862047 -0.02100388 0.12389553 0.19990672 -0.2039808
0.052466735 0.0042281435 -0.077357985 -0.20195195 0.033328373 0.01740367 -0.12488863 0.17549354
-0.31024247 0.009959395 0.16478933 -0.19601667 -0.092883594 0.040410012 0.33923408 0.0558719
-0.3394089 0.20051453 0.035092585 0.1140462 -0.07938224 -0.32867658 -0.21456483 0.13725218
-0.35564977 0.1657799 -0.10396513 0.027331105 0.14543012 0.056906655 -0.26167 -0.4697704
0.15878831 -0.26505664 -0.23677601 -0.025036784 -0.23510861 -0.15023941 0.05507059 -0.12161519
0.12180583 -0.19006868 -0.1890145 -0.120156504 -0.036673754 -0.14243838 -0.22996561 0.21850525
-0.21746472 0.09069383 -0.1530891 -0.17525272 0.14787595 -0.24717005 0.10850139 -0.18224292
0.10315391 -0.088920794 -0.028789125 0.22159404 0.35694933 -0.5829286 0.11400055 0.058341403
00000000: aa4d 49be 7c22 5c3c b674 473e 9194 5c3e
00000010: 38d3 94be b265 8c3e 5c1c 913d a1c8 3bbe
00000020: fd2d 393e 7fe4 8b3d 575f 403d 188f ecbd
00000030: 3228 2e3e 2a02 98be 5a2a 173e a471 71bd
00000040: 33f0 3b3d 45cf 50be 230f 53bb 80a7 6a3e
00000050: 0e73 3ebe 68d0 19be 606f f33c 429b 1d3e
00000060: d7dd 8bbd 4f26 ec3d 4984 27be d438 bbbc
00000070: e23e fcbd c162 983c 9d06 853b 26a3 953d
00000080: 80ed 973d da9d 8d3e 43be 99be a60e 5a3d
00000090: afb1 903e 836a 97bd 0836 133c 4f6c 0bbe
000000a0: 7420 edbc 5b06 81be 5283 dbbd aa49 183f
000000b0: 399f 663e 9c65 e1bc baac 16bd d3c4 183e
000000c0: 4235 9d3d 7aa8 89be 0e2a 7cbe fd8a 763e
000000d0: 4b07 95be 3b93 003f 33bc c73e 0e26 803d
000000e0: 8953 303e bcb2 6e3d 2804 a2be 5217 813b
000000f0: 69aa dbbd 51ea fe3d 9a6e d2bd 2a62 483e
00000100: bfc0 0ebe cb26 823d c738 93be 897c a13d
00000110: 161e f03d 3ea3 91bd cb31 243e a0ac bdbd
00000120: b444 39be 3e88 2b3e d2b3 93bd edf2 69bd
00000130: bb97 55bd cb53 9dbe 8026 ebbd 1fab dfbd
00000140: 0bab 8f3d 5ccb 6c3d 1b86 80be 760d 68be
00000150: 60cb bebe ab28 d7bd a1d9 88be 5311 74bd
00000160: ec97 643e eeb3 4b3e 3f2f a0bd b1af ae3d
00000170: 6b67 893c e058 a2be 3855 803e 6397 893d
00000180: e0b5 863c 2654 7f3e 9958 08bd 802a 17be
00000190: a53e ba3c 60bd 7ebe 0400 abbd 4688 96bd
000001a0: 6552 3abe f50c fb3d acc2 5b3d 6f45 013c
000001b0: 108a 2abe 58fb 06be 9942 df3d b430 acbc
000001c0: cb5c b63c b8c3 debd fc6d 52be 5cdd 79be
000001d0: ae50 0fbe 3c9a 46be ea5c 3bbe dded 873e
000001e0: a510 fe3d 4ad5 35bc bae2 e63d c655 f0bd
000001f0: 2b2d 0cbb 46bd 213e 2597 c43c 184c 143f
00000200: 212d 503e 901d 4c3c 0773 aabd c3b7 8a3d
00000210: 1718 533e a849 713e 81cc 813d 6aed 1cbd
00000220: ffcc 8a3e ae6a df3e 84de 3dbe 89e3 163c
00000230: 6ddb 413d 7d0e 913e 468a 133c e867 5ebe
00000240: f643 9bbe d68d 603e 8ba4 be3d 3abd 083c
00000250: 83c5 75bd 8454 bfbc 5b66 14be 1efa 213e
00000260: 855a 1dbe 4131 8d3c 7fd9 a4bd bc48 65be
00000270: 7732 543e 5ce6 553e 44aa 5bbe 9381 123e
00000280: 8032 69bc 3d01 b4bd 646d f53d 29b0 9dbd
00000290: 50ec 70be d88a c6bd fe91 d63d 18e3 09bd
000002a0: dc14 16bd 58ec dfbd b96f a93b b208 913d
000002b0: e444 fdbd 9f94 523d be57 a1be 4510 5bbd
000002c0: 4c1a 043e a322 9dbc b495 4fbe e661 103e
000002d0: eed8 9abc 05d0 9fbd 0ade 1f3e 6bba 82bd
000002e0: 3a1a e53d ab9e 67be c5f9 7bbe 6bf2 3f3d
000002f0: 5410 acbc f1bc fd3d 59b4 4c3e 58e0 50be
00000300: 5ce7 563d 3d8c 8a3b dd6d 9ebd 7ecc 4ebe
00000310: 5583 083d 2492 8e3c 9cc5 ffbd 94b4 333e
00000320: 1ad8 9ebe bb2c 233c 89be 283e 98b8 48be
00000330: c139 bebd f884 253d 17b0 ad3e efd9 643d
00000340: 01c7 adbe ae53 4d3e 3ebd 0f3d 0e91 e93d
00000350: 2893 a2bd 4c48 a8be e2b6 5bbe d68b 0c3e
00000360: ba17 b6be 35c2 293e aceb d4bd 7be5 df3c
00000370: a2eb 143e f416 693d 9cf9 85be bf85 f0be
00000380: 6799 223e 81b5 87be 6975 72be f119 cdbc
00000390: 50c0 70be 5cd8 19be b391 613d 6211 f9bd
000003a0: 5675 f93d 5da1 42be 048d 41be 9d14 f6bd
000003b0: 3837 16bd 5edb 11be 1b7c 6bbe d7bf 5f3e
000003c0: 12af 5ebe b0bd b93d 64c3 1cbe 7375 33be
000003d0: cb6c 173e 251a 7dbe fa35 de3d e39d 3abe
000003e0: 5b42 d33d 1b1c b6bd 2cd7 ebbc 8ce9 623e
000003f0: 10c2 b63e cf3a 15bf 1f79 e93d 65f7 6e3d

mlp.0.bias f4 [512]
0.04749979 -0.21154979 0.0107088685 0.11940906 -0.14620751 0.1290141 -0.01613644 -0.07205642
-0.20380738 -0.19654986 -0.061768282 -0.14055102 0.06038837 -0.16694196 0.025850626 0.0072786794
-0.016152266 0.10681247 0.04193759 0.037186127 0.095018715 -0.104421124 -0.22055161 0.052594323
-0.09156032 -0.02965378 -0.2655908 -0.19793294 0.15202552 0.104013704 -0.16942483 -0.28294203
-0.041249003 0.07400545 -0.0074865636 0.03995208 0.12952659 -0.08147038 -0.010239098 0.064916655
0.15312727 -0.09403409 -0.008701866 0.08502756 -0.17060678 -0.08272245 0.032834783 0.054348014
0.12243871 -0.14009655 -0.25860187 0.116279766 -0.26227057 -0.07448576 -0.22903176 -0.14777678
-0.0039197844 -0.11956205 0.27569896 -0.23075682 0.005311799 -0.19152036 -0.18998817 -0.0021361646
0.09768491 -0.110387065 -0.07890743 0.27212232 0.07482126 -0.23644912 -0.053202607 0.028773554
-0.22733824 0.22345881 -0.09662366 -0.036147244 0.17193648 0.12377457 -0.12796438 0.18771239
-0.08326657 0.10543868 -0.012299471 0.025814882 -0.2571008 0.078704 -0.023329329 -0.14524873
-0.016592283 -0.09079203 -0.035979256 0.1260425 -0.22090991 -0.055642925 -0.12614366 -0.16255587
-0.033970304 -0.1867868 -0.16763648 -0.20411642 0.16019285 0.10906813 -0.18408604 -0.26332358
0.1002009 0.09852347 0.12126321 0.043088876 0.017747339 -0.25023293 -0.21649092 -0.16106439
-0.21748744 -0.21501358 0.07732063 -0.10136763 0.0025943404 -0.049793743 -0.17072476 -0.1840228
-0.07171962 -0.084002584 -0.14442505 -0.1042819 0.09368386 0.042503014 -0.048806496 -0.22727251
-0.039206997 -0.09024759 0.106565915 -0.100569144 0.002182928 -0.059824646 -0.07526255 -0.25001088
-0.23218456 -0.03719076 -0.14390181 0.15207236 0.13303196 -0.038941275 -0.15022188 0.006131277
-0.21824507 0.21976925 0.13368814 -0.22509699 0.10127919 -0.17649184 -0.00701676 -0.22014199
-0.19945072 0.20606454 -0.13212156 0.036586326 -0.0537124 -0.104082584 -0.10142369 0.15879655
0.10396001 -0.12694791 0.20254532 -0.079975486 -0.06387252 0.26464957 -0.032784577 0.10887019
0.022088235 0.1368729 -0.18763912 -0.10117405 -0.07184562 -0.14602223 -0.22284855 -0.038945425
-0.34325203 0.1771402 -0.037126165 0.13193238 0.04407917 -0.18912388 -0.15198582 0.07522661
0.030806804 -0.07834697 0.07893839 -0.018055206 -0.05977889 -0.06405589 -0.236673 -0.10386494
0.05868425 0.07731324 0.13522938 -0.25495502 -0.058533873 -0.040096913 0.2425303 -0.17411913
-0.035999287 -0.11245008 -0.26617965 -0.15085576 -0.07200776 -0.030818105 -0.078416444 -0.001292826
-0.25932607 0.077475995 0.0071495753 -0.08355664 0.06839042 -0.18106277 -0.04565949 -0.16387479
-0.122043766 -0.22647218 0.048656423 0.1705898 -0.11766692 -0.024986444 0.13564987 -0.02747654
-0.025086349 0.087307066 0.06491163 -0.2390952 0.0017182003 -0.04790365 0.19609188 -0.14398713
-0.25627387 -0.10085787 0.047981154 -0.24423982 -0.09694587 -0.003186451 -0.15054126 0.020073297
0.08218171 0.18802594 0.1974391 -0.15983944 0.1210211 0.052876268 0.012916014 0.0767506
0.03489653 -0.23482385 0.05381574 0.08239897 -0.23015565 -0.080282375 0.1948181 -0.18615116
00000000: 248f 423d 82a0 58be 4074 2f3c bd8c f43d
00000010: 6cb7 15be 461c 043e 9130 84bc 5192 93bd
00000020: e2b2 50be 5e44 49be bd00 7dbd 9bec 0fbe
00000030: cc59 773d d5f2 2abe b1c4 d33c fd81 ee3b
00000040: c251 84bc 7fc0 da3d c0c6 2b3d 7b50 183d
00000050: 2c99 c23d beda d5bd 48d8 61be 256d 573d
00000060: fa83 bbbd 7cec f2bc 84fb 87be efae 4abe
00000070: 94ac 1b3e 2305 d53d b47d 2dbe c7dd 90be
00000080: b7f4 28bd 2b90 973d d951 f5bb cba4 233d
00000090: 9ea2 043e f1d9 a6bd e4c1 27bc 06f3 843d
000000a0: 65cd 1c3e f294 c0bd 4592 0ebc ee22 ae3d
000000b0: 8bb3 2ebe 636a a9bd c47d 063d 069c 5e3d
000000c0: 25c1 fa3d 7875 0fbe 7767 84be 1624 ee3d
000000d0: 5448 86be fd8b 98bd 4d87 6abe cc52 17be
000000e0: 8971 80bb f3dc f4bd 6a28 8d3e 844b 6cbe
000000f0: 990e ae3b ea1d 44be 428c 42be e5fe 0bbb
00000100: 070f c83d 9d12 e2bd 389a a1bd 9e53 8b3e
00000110: e43b 993d b81f 72be faea 59bd 84b6 eb3c
00000120: 5bcb 68be 63d2 643e a0e2 c5bd 220f 14bd
00000130: 1e10 303e 867d fd3d 1809 03be ad37 403e
00000140: aa87 aabd 3cf0 d73d b883 49bc bb79 d33c
00000150: b7a2 83be 902f a13d 261d bfbc 15bc 14be
00000160: 8aec 87bc 2cf1 b9bd fc5e 13bd 4911 013e
00000170: 3536 62be d6e9 63bd ce2b 01be 0c75 26be
00000180: 7224 0bbd 0a45 3fbe e6a8 2bbe e503 51be
00000190: 9809 243e 1d5f df3d 0d81 3cbe 59d2 86be
000001a0: 2136 cd3d acc6 c93d d958 f83d f67d 303d
000001b0: de62 913c 881e 80be ccaf 5dbe 10ee 24be
000001c0: 07b5 5ebe 852c 5cbe 475a 9e3d d599 cfbd
000001d0: cf05 2a3b 86f4 4bbd 79d2 2ebe 7970 3cbe
000001e0: bce1 92bd 8c09 acbd 29e4 13be c091 d5bd
000001f0: 53dd bf3d a417 2e3d 52e9 47bd 20ba 68be
00000200: 8497 20bd bad3 b8bd 3b3f da3d 32f7 cdbd
00000210: 740f 0f3b b00a 75bd 4023 9abd 6d01 80be
00000220: cac1 6dbe 5755 18bd ff5a 13be dbb8 1b3e
00000230: 8839 083e e380 1fbd c4d3 19be e1e8 c83b
00000240: a37b 5fbe 310b 613e 8be5 083e d37f 66be
00000250: 776b cf3d 47ba 34be d9ec e5bb e76c 61be
00000260: cf3c 4cbe 9502 533e e04a 07be 8bdb 153d
00000270: 8901 5cbd 4029 d5bd 39b7 cfbd 909b 223e
00000280: fce8 d43d a2fe 01be 0a68 4f3e 30ca a3bd
00000290: 99cf 82bd 2680 873e 1f49 06bd 56f7 de3d
000002a0: 63f2 b43c 6928 0c3e 7824 40be 5734 cfbd
000002b0: cc23 93bd da86 15be 6932 64be 3d85 1fbd
000002c0: bbbe afbe 3e64 353e 9b11 18bd 4819 073e
000002d0: 5c8c 343d b1a9 41be 2ca2 1bbe 6910 9a3d
000002e0: 8d5e fc3c 6074 a0bd 73aa a13d 83e8 93bc
000002f0: b6da 74bd bc2f 83bd 685a 72be 24b7 d4bd
00000300: e55e 703d 6756 9e3d 9279 0a3e 7789 82be
00000310: 37c1 6fbd a93c 24bd dd59 783e 494c 32be
00000320: fd73 13bd 3a4c e6bd b348 88be ef79 1abe
00000330: ce78 93bd 4076 fcbc cd98 a0bd 0b74 a9ba
00000340: 63c6 84be bcab 9e3d fc46 ea3b be1f abbd
00000350: 4710 8c3d 8568 39be 7205 3bbd cbce 27be
00000360: 15f2 f9bd 53e8 67be f54b 473d 18af 2e3e
00000370: 5bfb f0bd 5fb0 ccbc cde7 0a3e 7b16 e1bc
00000380: e381 cdbc 0cce b23d 63f0 843d 5fd5 74be
00000390: 3c35 e13a 9e36 44bd 4fcc 483e 5d71 13be
000003a0: 5436 83be 928e cebd e387 443d 011a 7abe
000003b0: 8e8b c6bd c7d3 50bb 7d27 1abe c170 a43c
000003c0: e24e a83d df89 403e 7a2d 4a3e f3ac 23be
000003d0: e9d9 f73d c994 583d b09d 533c 6b2f 9d3d
000003e0: aaef 0e3d aa75 70be e56d 5c3d cbc0 a83d
000003f0: ecad 6bbe 166b a4bd 657e 473e 699e 3ebe

mlp.2.weight f4 [256, 512]
-0.023588184 0.005142674 0.039994523 -0.061865266 -0.017179664 0.014784587 -0.05011364 -0.024032706
-0.04202713 -0.066081956 0.006572924 0.020385187 0.03069007 -0.015832627 0.017195849 -0.0018505485
0.0014410535 -0.04369797 -0.21444178 -0.024913302 0.023751602 -0.02419316 0.028543843 0.011931295
-0.008603515 -0.008888944 0.00661126 -0.029933324 0.019462826 0.017755978 -0.07125747 -0.07186982
-0.20263335 -0.025866974 0.011477635 -0.0319594 -0.0057438496 0.02189581 -0.03036041 0.030603707
-0.043269034 0.03167683 0.040467612 0.008185573 -0.03245739 0.026448185 -0.026928138 -0.020199234
-0.00081095146 -0.03495445 0.0082823085 0.042734176 -0.041165035 -0.01738288 -0.02831087 0.0020384714
-0.033903312 -0.0048488853 -0.03137893 -0.010843863 0.027778855 -0.09140046 -0.029758124 0.030200554
0.043413546 -0.00042802334 -0.038687952 0.029098108 0.036566805 0.011461004 -0.026281405 -0.034021873
0.004188448 -0.042036578 -0.0037986673 0.037572555 0.053326502 0.015355407 0.03452909 -0.010768255
-0.040754035 -0.012503178 -0.03858538 0.049577672 -0.041234322 0.0019735307 0.021504626 -0.009592575
-0.015172002 -0.085171506 0.042271066 -0.006674681 0.0057995957 0.051891856 0.004334912 -0.05823245
0.010533577 -0.054034613 -0.015787413 -0.02275179 0.0006058495 0.010917573 0.039702125 -0.042269196
0.0036713828 0.027105266 0.0005057649 -0.0025920551 -0.047376506 0.041167986 -0.06522419 -0.037352316
-0.024571327 -0.0267396 0.03864738 0.031963494 -0.06691365 -0.029559845 0.02012738 -0.21731354
-0.019149015 -0.0032339224 0.024200294 -0.031149097 0.020426609 0.03626652 -0.028835256 -0.06748809
0.03486383 -0.00026067533 0.033665176 -0.08148291 0.00066245644 -0.02472272 -0.027256314 -0.033595264
0.0036475672 0.001852813 0.019968485 0.010631932 0.031526256 0.041439507 -0.019718124 -0.00021420118
0.014384872 0.05045026 0.015179942 0.009027529 -0.02588352 -0.00468978 0.040588778 -0.026853874
0.034556855 0.00051023095 -0.16479276 0.0027410549 -0.04972757 -0.04200877 -0.036856424 0.008338643
-0.0180553 0.033202976 -0.048337627 0.009516228 -0.025468782 -0.0057750773 -0.009445975 -0.021591652
-0.0029859566 0.002436585 -0.009512254 0.043424115 0.02649364 0.04095892 -0.15429334 -0.021174448
0.02284835 -0.010200208 0.043138642 0.017451718 -0.09428721 -0.025490008 -0.082163036 -0.013011373
0.013222868 -0.025409425 0.008808424 0.009014741 0.018591877 -0.0055304514 0.029657561 -0.038231265
0.024988962 0.019356512 -0.018413428 0.006366408 0.0046789935 0.018270291 0.05027842 0.04208601
-0.012115777 0.014655418 0.027969254 0.027877696 0.042554397 -0.0039830436 -0.0067239385 -0.028854366
-0.029110981 0.04822294 -0.17577185 0.014319663 0.027489314 0.040224098 0.038238533 0.02427296
0.015982475 0.010504469 0.02574369 0.023819933 0.009322085 -0.0011308182 -0.04413387 -0.014559523
0.010020445 -0.024277283 -0.013719185 -0.011285408 0.019169386 -0.010158094 -0.019887688 -0.030487433
-0.035577085 -0.011811696 0.0009549425 0.019851629 0.0016520469 0.020443318 -0.035674695 -0.0013950486
0.022422379 -0.036007527 0.034157056 -0.008018569 0.031558506 -0.012245856 0.006015155 -0.04347929
-0.11486308 -0.021912115 0.011407896 0.0078019453 0.016667323 -0.008135628 0.015711742 0.039014008
00000000: 023c c1bc e083 a83b 4cd1 233d 6f66 7dbd
00000010: 5ebc 8cbc 0d3b 723c f643 4dbd 3de0 c4bc
00000020: a424 2cbd fa55 87bd af61 d73b d6fe a63c
00000030: be69 fb3c 6db3 81bc 4fde 8c3c 1b8e f2ba
00000040: bbe1 bc3a a5fc 32bd a096 5bbe fb16 ccbc
00000050: b892 c23c bc30 c6bc c7d4 e93c 7a7b 433c
00000060: c2f5 0cbc efa2 11bc 45a3 d83b bb36 f5bc
00000070: 8170 9f3c fc74 913c 70ef 91bd 7c30 93bd
00000080: 1e7f 4fbe fae6 d3bc b10c 3c3c dce7 02bd
00000090: e736 bcbb d75e b33c 65b6 f8bc a0b4 fa3c
000000a0: df3a 31bd 90bf 013d 5ec1 253d c81c 063c
000000b0: 0af2 04bd dda9 d83c 6698 dcbc dd78 a5bc
000000c0: 0896 54ba 662c 0fbd 85b2 073c 080a 2f3d
000000d0: ab9c 28bd 8b66 8ebc 33ec e7bc e097 053b
000000e0: 33de 0abd 66e3 9ebb 3187 00bd 75aa 31bc
000000f0: 7b90 e33c 2a30 bbbd 4fc7 f3bc 2767 f73c
00000100: 67d2 313d 5268 e0b9 4277 1ebd 285f ee3c
00000110: 13c7 153d efc6 3b3c 1a4c d7bc 855a 0bbd
00000120: 403f 893b 8c2e 2cbd 10f3 78bb aee5 193d
00000130: e46c 5a3d 3f95 7b3c 606e 0d3d 566d 30bc
00000140: b4ed 26bd 21da 4cbc b40b 1ebd f511 4b3d
00000150: 52e5 28bd 5a56 013b 782a b03c 2d2a 1dbc
00000160: fd93 78bc 666e aebd 6d24 2d3d 48b7 dabb
00000170: 890a be3b 8e8c 543d e10b 8e3b 2685 6ebd
00000180: 0695 2c3c 6653 5dbd 9b54 81bc f661 babc
00000190: dfd1 1e3a 9fdf 323c b29e 223d 7722 2dbd
000001a0: 959b 703b dd0b de3c 4f95 043a 78df 29bb
000001b0: de0d 42bd c39f 283d 4394 85bd befe 18bd
000001c0: cf49 c9bc 010d dbbc b74c 1e3d 27ec 023d
000001d0: 060a 89bd 7d27 f2bc 2de2 a43c 7187 5ebe
000001e0: 65de 9cbc 37f0 53bb b23f c63c 642c ffbc
000001f0: b455 a73c 348c 143d ea37 ecbc 3237 8abd
00000200: 60cd 0e3d 40ab 88b9 7fe4 093d 83e0 a6bd
00000210: b3a8 2d3a 4d87 cabc a248 dfbc 309b 09bd
00000220: 060c 6f3b 16da f23a f394 a33c 8e31 2e3c
00000230: ad21 013d 79bc 293d e787 a1bc 319b 60b9
00000240: 87ae 6b3c efa4 4e3d 4bb5 783c 33e8 133c
00000250: ad09 d4bc baac 99bb 6b40 263d a8fc dbbc
00000260: 7d8b 0d3d 05c1 053a 6fbf 28be 45a3 333b
00000270: 23af 4bbd 6311 2cbd c3f6 16bd ce9e 083c
00000280: b5e8 93bc d8ff 073d adfd 45bd f4e9 1b3c
00000290: e8a3 d0bc dc3c bdbb 4ac3 1abc fae0 b0bc
000002a0: 0ab0 43bb 1daf 1f3b 49d9 1bbc 7cdd 313d
000002b0: 3109 d93c 8ac4 273d 13ff 1dbe 0976 adbc
000002c0: 772c bb3c c61e 27bc 25b2 303d e8f6 8e3c
000002d0: a719 c1bd 6cd0 d0bc 1845 a8bd a72d 55bc
000002e0: baa4 583c 6d27 d0bc 3551 103c 90b2 133c
000002f0: fe4d 983c ca38 b5bb 6af4 f23c 6398 1cbd
00000300: a7b5 cc3c 8c91 9e3c c2d7 96bc 4d9d d03b
00000310: 3e52 993b 94ab 953c bff0 4d3d 6162 2c3d
00000320: 4081 46bc 471d 703c c71f e53c c45f e43c
00000330: 854d 2e3d 3184 82bb 7c54 dcbb fe5f ecbc
00000340: 277a eebc 6b85 453d 89fd 33be 059d 6a3c
00000350: 4531 e13c 06c2 243d 02a0 1c3d 16d8 c63c
00000360: aeed 823c f01a 2c3c 6ee4 d23c 0522 c33c
00000370: a9bb 183c f637 94ba b8c5 34bd 118b 6ebc
00000380: cb2c 243c 27e1 c6bc 6fc6 60bc 6fe6 38bc
00000390: 1e09 9d3c 226e 26bc 81eb a2bc c8c0 f9bc
000003a0: 47b9 11bd d885 41bc 1b55 7a3a e29f a23c
000003b0: 7f89 d83a bf78 a73c a11f 12bd 10da b6ba
000003c0: 23af b73c a17c 13bd 45e8 0b3d 5160 03bc
000003d0: 7e43 013d d8a2 48bc c71a c53b 5717 32bd
000003e0: 563d ebbd 0981 b3bc 2fe8 3a3c 76a7 ff3b
000003f0: e989 883c 4c4b 05bc e9b5 803c 27cd 1f3d

mlp.2.bias f4 [256]
0.0050869044 -0.0071015866 -6.145595e-05 -0.025041139 -0.0021231386 -0.020721067 0.041508272 -0.03306904
0.023643645 0.0020170358 0.06454484 -0.012986819 -0.01605714 0.032955315 -0.018424384 -0.018082876
0.0040662205 -0.028670128 -0.025145318 0.023441203 -0.009562936 -0.022593359 -0.043856423 0.014731468
-0.0035546534 -0.0059210854 0.0057025356 0.0012826232 -0.004486732 -0.040567927 -0.06018116 -0.062337004
0.0058815074 -0.071936406 0.1289803 0.011376322 -0.047858104 -0.047756724 0.15008004 -0.007962281
-0.04218987 0.1516961 0.016358541 -0.022022385 -0.04496869 -0.009374135 -0.014177077 -0.0030362525
0.033602174 0.09742884 -0.033734616 0.008337994 -0.049970727 -0.029771278 -0.040424068 0.036660932
-0.04511733 -0.04768673 0.022307845 -0.018752148 0.14585704 -0.04147979 -0.011957295 -0.04433803
-0.05234779 -0.07134826 0.008686758 0.004192682 0.010092729 -0.015867203 -0.047866102 -0.01127577
0.08830813 0.075820856 0.13603611 0.014530558 -0.0025911843 0.02649089 -0.021223271 -0.029668668
-0.042373925 -0.044156414 -0.02828161 -0.026693046 -0.018106246 -0.0459273 -0.043851394 0.09502189
-0.03977092 -0.0140949255 0.09989174 -0.03350945 -0.020967979 -0.024887977 0.010059716 -0.048532225
-0.041019693 -0.0069589047 -0.002882915 0.027670143 -0.023803722 -0.019853739 -0.03243726 -0.04416861
-0.013648888 0.008318306 -0.019738564 -0.024466261 -0.021269493 0.021837708 -0.023294814 -0.02088121
-0.005955992 0.026413735 -0.052588757 -0.012545782 0.01852237 -0.04752051 -0.029320726 -0.026931314
-0.048025716 -0.062148396 0.011280894 -0.05250719 -0.030339552 -0.0026359546 0.10419449 0.09569713
-0.032419767 0.08348548 0.004347226 -0.03807498 0.025427993 0.01806902 -0.017746322 -0.019240342
0.022163108 0.045046397 0.021482034 0.008415718 0.032452505 -0.051476482 -0.0005236231 0.012792345
-0.03557734 -0.060898643 -0.053018507 -0.057607703 -0.06392327 -0.029166931 -0.023433547 0.012293065
-0.003926015 0.0020120617 -0.035777353 -0.018953118 -0.02372535 -0.027834894 -0.032886237 0.011897562
-0.0055120806 -0.045603603 0.11999466 -0.07382318 0.020356711 0.026236238 0.02910386 0.15662412
-0.006152086 0.030096935 0.009221036 -0.0353987 0.027518963 -0.010851401 0.015620515 -0.024922581
-0.012944255 0.017095905 0.034281157 -0.07437936 0.15149508 0.15612528 -0.052400116 -0.022308042
-0.0034827369 -0.03439856 0.0063022655 -0.022676755 -0.034239784 0.015423286 -0.03439337 -0.054570336
0.021946348 -0.02305388 -0.022083936 -0.016731339 -0.009608097 0.009171803 -0.03459006 -0.018075317
0.118088976 -0.035131585 0.10371394 -0.022050515 -0.014782841 0.013674567 0.008144542 -0.008332882
-0.026568167 -0.050159846 -0.026671715 -0.04396047 0.010741565 -0.038765118 -0.0059481007 0.0034010508
0.0012978119 -0.044109233 -0.041584104 -0.04300372 0.008802068 -0.0064040353 -0.006748753 -0.008468467
-0.04343262 -0.005468527 -0.0056754183 -0.031738356 0.010130983 0.09623163 0.026300414 -0.031104244
-0.023554625 -0.01463715 0.06877435 0.052703056 -0.030601304 0.019562487 -0.04417593 -0.067814626
-0.10009322 -0.020883946 -0.023241194 -0.051452428 -0.007887229 -0.041036174 -0.014892773 -0.0012118383
-0.0017310395 -0.03589689 -0.037828006 0.024349676 0.010050691 -0.034977958 -0.018159501 -0.014595357
00000000: 0cb0 a63b 6db4 e8bb e9e1 80b8 1323 cdbc
00000010: 5b24 0bbb 3abf a9bc 9404 2a3d 6773 07bd
00000020: 51b0 c13c 3f30 043b 1630 843d abc6 54bc
00000030: 438a 83bc 27fc 063d bcee 96bc 8a22 94bc
00000040: ee3d 853b 9edd eabc 8efd cdbc c407 c03c
00000050: dcad 1cbc b515 b9bc cba2 33bd 415c 713c
00000060: 30f5 68bb aa05 c2bb 56dc ba3b b11d a83a
00000070: 7005 93bb 8e2a 26bd 8580 76bd 1655 7fbd
00000080: a9b9 c03b 6553 93bd 6913 043e c163 3a3c
00000090: dc06 44bd 8e9c 43bd 95ae 193e 3a74 02bc
000000a0: 49cf 2cbd 3956 1b3e 5902 863c 4a68 b4bc
000000b0: 1731 38bd f995 19bc f946 68bc ddfb 46bb
000000c0: 6fa2 093d c688 c73d 4f2d 0abd 159c 083c
000000d0: 1bae 4cbd e5e2 f3bc b593 25bd c629 163d
000000e0: f3cc 38bd 2953 43bd f1be b63c 1b9e 99bc
000000f0: 8c5b 153e b6e6 29bd 88e8 43bc cb9b 35bd
00000100: a36a 56bd 091f 92bd e752 0e3c c462 893b
00000110: f95b 253c f0fb 81bc 3f0f 44bd 02be 38bc
00000120: e5da b43d f747 9b3d 0d4d 0b3e 9411 6e3c
00000130: dcd0 29bb 6c03 d93c 6ddc adbc b50b f3bc
00000140: 4890 2dbd 5bdd 34bd d6ae e7bc 60ab dabc
00000150: 8d53 94bc 441e 3cbd 859d 33bd d69a c23d
00000160: d5e6 22bd 67ee 66bc 0a94 cc3d 3441 09bd
00000170: 0ac5 abbc dfe1 cbbc 82d1 243c bac9 46bd
00000180: 4404 28bd 8607 e4bb 4aef 3cbb 7fac e23c
00000190: 0600 c3bc 4fa4 a2bc efdc 04bd 25ea 34bd
000001a0: 969f 5fbc 8149 083c c5b2 a1bc 786d c8bc
000001b0: 5c3d aebc fee4 b23c c4d4 bebc 120f abbc
000001c0: 7b2a c3bb 9e61 d83c 4f67 57bd d38c 4dbc
000001d0: 3abc 973c dea4 42bd 0532 f0bc 0f9f dcbc
000001e0: 9db6 44bd 518f 7ebd 80d3 383c c711 57bd
000001f0: a78a f8bc fbbf 2cbb ec63 d53d dbfc c33d
00000200: 97ca 04bd 6ffa aa3d 2d73 8e3b 83f4 1bbd
00000210: 5e4e d03c 7b05 943c bc60 91bc ec9d 9dbc
00000220: 688f b53c 9282 383d 17fb af3c 14e2 093c
00000230: ebec 043d 01d9 52bd c043 09ba fc96 513c
00000240: 8bb9 11bd db70 79bd ef29 59bd 0ef6 6bbd
00000250: 34ea 82bd 7def eebc b6f7 bfbc da68 493c
00000260: cda5 80bb cbdc 033b 468b 12bd 9243 9bbc
00000270: aa5b c2bc 0106 e4bc b8b3 06bd feed 423c
00000280: af9e b4bb d8ca 3abd c3bf f53d 9b30 97bd
00000290: 1ec3 a63c 61ed d63c 386b ee3c 1362 203e
000002a0: 7097 c9bb d98d f63c d413 173c 3afe 10bd
000002b0: 736f e13c 13ca 31bc 30ed 7f3c 712a ccbc
000002c0: 2414 54bc b60c 8c3c 666a 0c3d 3554 98bd
000002d0: 8721 1b3e 4edf 1f3e 81a1 56bd 5bbf b6bc
000002e0: a13e 64bb 81e5 0cbd 3c83 ce3b 9ac4 b9bc
000002f0: 043f 0cbd f3b1 7c3c 10e0 0cbd 2585 5fbd
00000300: d4c8 b33c 7edb bcbc 5fe9 b4bc 2910 89bc
00000310: 486b 1dbc 5445 163c 4fae 0dbd b012 94bc
00000320: a2d8 f13d 23e6 0fbd f967 d43d 48a3 b4bc
00000330: bb33 72bc 4b0b 603c af70 053c a486 08bc
00000340: 7ca5 d9bc 6974 4dbd a47e dabc e50f 34bd
00000350: 64fd 2f3c 2cc8 1ebd 49e8 c2bb 2ae4 5e3b
00000360: 571b aa3a e2ab 34bd 1854 2abd ab24 30bd
00000370: 8d36 103c f1d8 d1bb a524 ddbb 53bf 0abc
00000380: 67e6 31bd 5431 b3bb dcf8 b9bb 1400 02bd
00000390: 6cfc 253c 1715 c53d f773 d73c 54ce febc
000003a0: a1f5 c0bc a8d0 6fbc 91d9 8c3d 29df 573d
000003b0: 96af fabc 8241 a03c d2f1 34bd 65e2 8abd
000003c0: adfd ccbd cf14 abbc 5164 bebc c8bf 52bd
000003d0: 7039 01bc 8c15 28bd d100 74bc 8cd6 9eba
000003e0: 0ce4 e2ba 9e08 13bd 8af1 1abd f978 c73c
000003f0: a7ab 243c 0c45 0fbd 3cc3 94bc 5d21 6fbc

mlp.4.weight f4 [1, 256]
0.005939423 -0.04021986 0.015189032 -0.0007010251 0.006804203 -0.038977608 -0.0009125882 -0.071052924
-0.022769606 0.000441104 -0.0019324081 0.03081537 0.011558821 0.0037898119 -0.050849997 0.004971946
-0.0019263991 0.01567195 0.0039101494 0.011222354 0.0006143032 -0.030061632 0.00081564387 0.017293803
0.0037386126 0.008141326 -0.0034453943 0.0018982661 0.041593112 0.03764101 0.029906824 0.023182282
-0.010781069 0.0013425302 -0.05859594 -0.009425862 0.040095728 0.00084994704 -0.05759817 0.0075821527
-0.04209508 -0.052496716 -0.013111345 0.016969727 -0.004521431 0.022785796 0.050280795 0.008674773
0.013790963 -0.059276257 0.025269873 0.0530874 0.005022186 0.015024578 0.022845997 0.0056785233
0.0046757166 -0.010752014 0.0491251 0.0044917767 -0.07632791 0.028630609 0.008335836 0.00025546277
0.0013108436 0.0048028543 -0.0020752386 -0.00024271956 0.026025856 -0.0020440146 -0.025720283 -0.014858728
-0.017494543 -0.027312934 -0.058696497 -0.00050291745 -0.0012679428 0.0013955965 0.03356935 0.00034505923
-0.0046248813 0.0048850495 0.033517554 0.0022246612 -0.021257926 -0.018883208 -0.0019352722 -0.048350025
0.044888996 -0.018204207 0.063846424 -0.02731692 0.013865518 -0.041117653 0.0066045346 0.012731673
0.009379222 0.00541391 -0.0005321565 0.017982164 -0.009783402 0.021994649 -0.012503727 -0.020137686
0.055313237 0.0018922722 -0.020730058 0.024885697 0.018129347 0.004640454 -0.00039529614 0.03799712
0.011802516 0.044736553 -0.006142106 -0.0007747881 0.008697495 0.028785849 0.033475243 -0.029494671
-0.03183844 0.040180877 -0.05073708 -0.023566796 0.029619329 -0.010830908 -0.042728756 -0.07297622
0.010004327 -0.012244112 -0.0022676846 0.044839952 -0.012757219 0.0016901187 -0.016896931 0.03357579
0.048101757 -0.021808095 -0.0005713425 0.023607172 -0.00018935146 -0.028451368 0.008243181 0.03619555
0.00892166 0.002220752 0.02832995 0.028271502 -0.001261699 0.029550105 0.029223599 0.0013257655
-0.0244704 -0.0019375432 0.005832743 0.022451317 0.0010099418 -0.002374439 0.0122050755 0.0016743591
-0.055268817 0.056049757 -0.053828128 -0.0077805812 0.02416386 0.0027761557 0.0043050493 -0.06041514
0.0020971447 0.0025048759 0.027907562 0.046012063 0.055384394 0.01617435 -0.025149196 0.009692147
-0.0007585799 -0.013900476 0.0010731422 0.021779755 -0.056785464 -0.07096108 0.022410931 -0.026585212
0.007843321 0.005685732 -0.049947836 0.01572921 0.05578069 0.004975929 0.0320729 0.02064879
0.0012046099 -0.0042734467 -0.051709708 0.026269821 -0.027750922 -0.019437809 -0.0014963475 0.006906682
-0.02841263 -0.004119414 -0.03814666 0.0066531785 -8.460406e-05 -0.005599633 -0.0045013875 -0.037177574
-0.00036709374 0.028955365 -0.040961802 0.008297559 0.00579341 0.012457281 -0.011929511 0.0101217795
0.007306929 0.005520035 0.021583252 0.049936913 0.022765938 -0.005697466 -0.0011227295 0.0019297332
0.040512085 0.036825243 0.00031153418 0.010024941 0.040393982 0.11062096 -0.00022221461 0.015542878
0.0021374081 0.008491429 0.060069494 0.04126338 0.05908022 -0.03648358 0.0043382365 0.024123738
0.015186291 -0.01564725 0.041969765 -0.029292665 0.04907901 0.022456639 0.003691554 -0.00809143
0.005851604 0.021752829 -0.0038326997 3.1003307e-05 0.03458166 0.003238973 0.0041713864 0.015476253
00000000: 7e9f c23b 94bd 24bd 6bdb 783c 00c5 37ba
00000010: cbf5 de3b fca6 1fbd c23a 6fba 3284 91bd
00000020: 5387 babc fa43 e739 db48 fdba 8470 fc3c
00000030: 3661 3d3c 7e5e 783b 1648 50bd b5eb a23b
00000040: 3a7f fcba 7662 803c b620 803b f7dd 373c
00000050: 3109 213a d043 f6bc efd0 553a bcab 8d3c
00000060: 8303 753b 3263 053c 20cc 61bb 3ecf f83a
00000070: 8a5d 2a3d 762d 1a3d 28ff f43c c5e8 bd3c
00000080: 15a3 30bc d7f7 af3a 4c02 70bd ee6e 1abc
00000090: 6b3b 243d fbce 5e3a 0fec 6bbd b573 f83b
000000a0: e46b 2cbd cc06 57bd f7d0 56bc 1904 8b3c
000000b0: 8328 94bb 47a9 ba3c 3cf3 4d3d a320 0e3c
000000c0: 7ef3 613c a9cb 72bd c402 cf3c 2c72 593d
000000d0: 2691 a43b a629 763c 8727 bb3c e812 ba3b
000000e0: c136 993b 3729 30bc 6737 493d c12f 933b
000000f0: cf51 9cbd bd8a ea3c 0893 083c a2ef 8539
00000100: 9dd0 ab3a 4361 9d3b ba00 08bb 8982 7eb9
00000110: 2d34 d53c e0f4 05bb 58b3 d2bc 0672 73bc
00000120: b750 8fbc 60bf dfbc bd6b 70bd 38d6 03ba
00000130: 1a31 a6ba 73ec b63a 0480 093d 11e9 b439
00000140: 518c 97bb c412 a03b b449 093d 9fcb 113b
00000150: 1a25 aebc f5b0 9abc f6a8 fdba ad0a 46bd
00000160: 86dd 373d fd20 95bc eac1 823d bcc7 dfbc
00000170: 332c 633c fc6a 28bd da6a d83b 8298 503c
00000180: 4fab 193c 2b67 b13b 6b80 0bba 554f 933c
00000190: 904a 20bc 1f2e b43c 6fdc 4cbc caf7 a4bc
000001a0: 2290 623d 1e06 f83a 15d2 a9bc 17dd cb3c
000001b0: ff83 943c f30e 983b c03f cfb9 dea2 1b3d
000001c0: 575f 413c ad3d 373d b843 c9bb 261b 4bba
000001d0: f07f 0e3c 4dd0 eb3c 561d 093d cf9e f1bc
000001e0: 0669 02bd b494 243d afd1 4fbd 270f c1bc
000001f0: 3ca4 f23c 1f74 31bc 5904 2fbd 8e74 95bd
00000200: 30e9 233c 879b 48bc 6f9d 14bb 19aa 373d
00000210: a803 51bc f986 dd3a 6f6b 8abc c486 093d
00000220: 5906 453d e4a6 b2bc 25c6 15ba d463 c13c
00000230: a58c 46b9 d812 e9bc 680e 073c c941 143d
00000240: 272c 123c 098a 113b 3614 e83c a399 e73c
00000250: 985f a5ba 1013 f23c 5466 ef3c 4fc5 ad3a
00000260: 2676 c8bc 29f5 fdba 9820 bf3b d3eb b73c
00000270: 0660 843a 7a9c 1bbb ccf7 473c 2b76 db3a
00000280: 8e61 62bd 6e94 653d e27a 5cbd 3ff4 febb
00000290: 4af3 c53c 2af0 353b 5f11 8d3b de75 77bd
000002a0: 4070 093b d828 243b 669e e43c 2577 3c3d
000002b0: bfda 623d 1280 843c b005 cebc d0cb 1e3c
000002c0: 6fdb 46ba d2be 63bc ada8 8c3a 756b b23c
000002d0: e097 68bd 0b54 91bd 2197 b73c 3bc9 d9bc
000002e0: 4681 003c 604f ba3b 1a96 4cbd 8bda 803c
000002f0: 4b7a 643d 1e0d a33b e05e 033d a727 a93c
00000300: 00e4 9d3a 4508 8cbb 8fcd 53bd cf33 d73c
00000310: e755 e3bc 0a3c 9fbc 1721 c4ba 7351 e23b
00000320: 9bc1 e8bc 26fc 86bb ac3f 1cbd e802 da3b
00000330: 756d b1b8 207d b7bb 6080 93bb 8347 18bd
00000340: 7d76 c0b9 cd33 ed3c 90c7 27bd 7cf2 073c
00000350: a5d6 bd3b a019 4c3c ff73 43bc d2d5 253c
00000360: f76e ef3b 69e1 b43b 5ccf b03c a68a 4c3d
00000370: a27f ba3c cfb1 babb 8d28 93ba 1aef fc3a
00000380: 00f0 253d 11d6 163d 6955 a339 a63f 243c
00000390: 2974 253d 3e8d e23d 4802 69b9 8ea7 7e3c
000003a0: c213 0c3b a21f 0b3c 6e0b 763d ca03 293d
000003b0: 1afe 713d ce6f 15bd c427 8e3b 259f c53c
000003c0: eccf 783c a92e 80bc 7de8 2b3d 2cf7 efbc
000003d0: 1207 493d fcf6 b73c 00ee 713b eb91 04bc
000003e0: d0be bf3b fd32 b23c 082e 7bbb 8c09 0238
000003f0: 80a5 0d3d f344 543b 20b0 883b 1c90 7d3c
