results/TD3/checkpoints/model_500_actor.pth (torch, 554327 bytes, 6 tensors)

mlp.0.weight f4 [512, 10]
0.07216381 -0.24802287 0.20068899 -0.14978847 0.14704178 -0.18796873 -0.28901914 -0.012392483
0.21917187 -0.24564761 0.010962899 -0.07707795 -0.1382536 0.13377142 -0.04153649 -0.26489928
0.17683959 -0.30464187 0.26169902 -0.21847256 -0.012169137 0.26538426 0.088962585 0.11894007
-0.27558467 -0.10022484 -0.27120185 0.087026976 -0.08628879 -0.034150086 0.2871015 -0.20381895
-0.26435906 -0.17166372 -0.26323885 0.27589193 0.1393627 -0.19617936 0.15579309 0.24147287
0.1306096 0.2860646 -0.11703704 0.09523075 0.18903302 -0.04521004 0.20608144 0.13182814
0.019311145 0.2261466 -0.031469923 0.099066325 0.050731122 -0.18237314 0.0684522 -0.08849321
0.07730948 0.09638793 0.23145644 0.2926918 0.13744514 -0.27044174 -0.13596869 -0.29651958
0.007142241 -0.1767475 0.18976983 -0.24407652 0.11507873 -0.0018578355 0.015825054 0.05903147
0.15647997 0.08624394 0.27571014 0.045476805 0.04147887 -0.078801595 -0.16278015 0.2814133
-0.1163719 -0.19079709 0.21114591 -0.2323391 0.19760272 0.20975953 0.02610471 0.304424
0.086105645 0.12518992 0.06936421 -0.21211822 -0.0005687767 -0.10575578 -0.15545607 -0.2418224
-0.09163943 0.032270838 -0.060060598 0.24221532 0.29066253 -0.07476902 -0.07035615 0.15658465
0.109088466 0.29610497 -0.18882142 0.28431422 -0.07574327 -0.3463441 0.015549339 -0.14968619
0.101603895 -0.003692191 0.11578806 0.23706216 0.31143188 -0.26635545 0.1721452 0.25712785
0.061615538 -0.057000034 0.28026316 -0.26440394 -0.18571448 0.1450483 -0.30002618 -0.30772114
0.16011848 0.22247487 -0.20027694 -0.068611436 -0.14768653 0.03283324 0.21318313 -0.25537694
0.20492339 0.28593397 -0.26766852 -0.13375756 0.028834466 -0.08304388 0.018378332 -0.023256475
-0.2683452 -0.20454206 -0.07431979 -0.14033999 0.17536291 0.09363757 -0.102742985 -0.28703955
-0.2000391 -0.14167614 -0.018884702 -0.13531432 -0.07051801 0.12156568 0.1700318 -0.19105855
-0.01102216 0.20367657 0.0485288 0.19056964 -0.017560575 -0.082399465 -0.20441402 0.27635038
0.03882166 -0.22908588 0.27473158 0.12977245 -0.15100409 -0.30851498 -0.08358777 0.061318018
-0.10608416 -0.0332349 -0.13451383 0.14618164 -0.0606414 0.28359637 -0.08915892 0.26187247
-0.18328032 -0.23046026 0.04917499 0.18189712 -0.19535832 0.36018816 0.22945137 -0.04553334
-0.18735315 0.27037004 -0.09221015 0.2343866 0.092886135 0.21556242 0.032183453 0.1837749
0.24887155 -0.40324426 0.19262452 -0.095676094 0.03289065 0.12909034 -0.14082618 0.13250174
0.24589232 0.034237873 -0.26066083 -0.1812414 0.03740907 0.16371115 0.34782627 -0.11249328
-0.2765525 0.14201516 -0.34618667 -0.08785335 0.17088225 0.121232726 0.250611 -0.041704983
-0.095118605 0.25296417 0.16496554 0.05140113 -0.08290173 -0.20441078 -0.28817576 0.37882742
-0.23077491 0.30336896 0.087311275 -0.24722569 -0.25108093 0.034745958 0.19157365 0.21965165
-0.022752536 -0.17660643 -0.30141905 -0.065630525 0.116011515 -0.11066043 0.18103293 -0.05844855
-0.073026955 -0.092139594 0.1671926 0.09072896 -0.25094587 0.22819673 0.088173844 -0.081867084
00000000: 9fca 933d b5f9 7dbe 6a81 4d3e 2662 19be
00000010: 1f92 163e e07a 40be 51fa 93be d709 4bbc
00000020: 976e 603e 0c8b 7bbe bb9d 333c 0bdb 9dbd
00000030: 5a92 0dbe 60fb 083e 2b22 2abd e1a0 87be
00000040: 7015 353e 05fa 9bbe 6afd 853e 45b7 5fbe
00000050: 0f61 47bc 72e0 873e 0432 b63d da96 f33d
00000060: 6f19 8dbe ae42 cdbd f8da 8abe 333b b23d
00000070: 2db8 b0bd f6e0 0bbd f8fe 923e eab5 50be
00000080: 125a 87be 9dc8 2fbe 3ec7 86be b541 8d3e
00000090: 18b5 0e3e 3ee3 48be 3988 1f3e aa44 773e
000000a0: 86be 053e 0f77 923e 1eb1 efbd 5708 c33d
000000b0: df91 413e 2a2e 39bd 0307 533e f5fd 063e
000000c0: 6832 9e3c f992 673e 9be6 00bd 49e3 ca3d
000000d0: 70cb 4f3d 06c0 3abe ab30 8c3d ee3b b5bd
000000e0: 6f54 9e3d 0967 c53d eb02 6d3e b3db 953e
000000f0: 6bbe 0c3e 5777 8abe 603b 0bbe 6ad1 97be
00000100: 7609 ea3b 4cfd 34be 0653 423e 32ef 79be
00000110: 66ae eb3d 9d82 f3ba 8ba3 813c fcca 713d
00000120: 493c 203e aaa0 b03d e129 8d3e e345 3a3d
00000130: bfe5 293d bb62 a1bd d7af 26be 6715 903e
00000140: 6454 eebd 5060 43be a236 583e 4dea 6dbe
00000150: 5e58 4a3e 34cb 563e 8bd9 d53c 76dd 9b3e
00000160: 2858 b03d c931 003e d30e 8e3d 8535 59be
00000170: f519 15ba 7d96 d8bd e02f 1fbe 4ba0 77be
00000180: 74ad bbbd 6d2e 043d 1a02 76bd 4b07 783e
00000190: b8d1 943e 8020 99bd e316 90bd ba57 203e
000001a0: c669 df3d 129b 973e 675a 41be a291 913e
000001b0: 4a1f 9bbd 0454 b1be a8c2 7e3c 5647 19be
000001c0: b415 d03d b0f8 71bb 4a22 ed3d 6cc0 723e
000001d0: 0074 9f3e be5f 88be d546 303e 43a6 833e
000001e0: 9360 7c3d de78 69bd a77e 8f3e f45f 87be
000001f0: f02b 3ebe 8b87 143e 089d 99be a08d 9dbe
00000200: 19f6 233e 74d0 633e 6615 4dbe 2784 8cbd
00000210: 233b 17be 267c 063d ae4c 5a3e c4c0 82be
00000220: 70d7 513e f065 923e d90b 89be bef7 08be
00000230: 4236 ec3c e912 aabd 288e 963c 5d84 bebc
00000240: 8b64 89be 7973 51be f934 98bd 49b5 0fbe
00000250: 5692 333e 0ec5 bf3d ea6a d2bd d9f6 92be
00000260: 0dd7 4cbe 8d13 11be 17b4 9abc d68f 0abe
00000270: bf6b 90bd 6df7 f83d d11c 2e3e daa4 43be
00000280: 4a96 34bc 9790 503e 23c6 463d b024 433e
00000290: 32db 8fbc 0dc1 a8bd e951 51be cc7d 8d3e
000002a0: 7603 1f3d 7d95 6abe 9ea9 8c3e 12e3 043e
000002b0: d1a0 1abe adf5 9dbe 1130 abbd 9a28 7b3d
000002c0: a742 d9bd 5221 08bd febd 09be a4b0 153e
000002d0: 1e63 78bd 8b33 913e f498 b6bd 2614 863e
000002e0: d6ad 3bbe c6fd 6bbe b76b 493d 3d43 3a3e
000002f0: 030c 48be 956a b83e 4df5 6a3e 2b81 3abd
00000300: 81d9 3fbe f16d 8a3e add8 bcbd 0a03 703e
00000310: 163b be3d 65bc 5c3e ccd2 033d 7d2f 3c3e
00000320: 2fd8 7e3e 0876 cebe 5d3f 453e d4f1 c3bd
00000330: 59b8 063d 4230 043e bd34 10be 89ae 073e
00000340: 32cb 7b3e 033d 0c3d 5675 85be 5897 39be
00000350: 413a 193d e5a3 273e 4916 b23e e062 e6bd
00000360: 4a98 8dbe 6c6c 113e 613f b1be 75ec b3bd
00000370: c2fb 2e3e dd48 f83d 1650 803e d8d2 2abd
00000380: 8bcd c2bd 8584 813e baec 283e fe89 523d
00000390: 62c8 a9bd 0f51 51be c68b 93be abf5 c13e
000003a0: 4250 6cbe 2d53 9b3e 41d0 b23d bb28 7dbe
000003b0: ae8d 80be c751 0e3d e22b 443e 5dec 603e
000003c0: 8763 babc 51d8 34be 9953 9abe 4c69 86bd
000003d0: 7297 ed3d efa1 e2bd b260 393e bf67 6fbd
000003e0: 288f 95bd afb3 bcbd 8934 2b3e 1bd0 b93d
000003f0: fa7b 80be 67ac 693e 7d94 b43d eea9 a7bd

mlp.0.bias f4 [512]
0.075698696 0.088344984 -0.23720048 -0.106808476 0.0022529797 -0.3144306 -0.09902749 -0.011557643
-0.122422546 -0.23808038 -0.24619359 0.03702092 -0.25562337 -0.21108818 -0.09404206 0.23517773
-0.18807542 0.17509939 -0.14300781 0.182674 -0.059169527 -0.17214128 -0.13016365 0.1981903
-0.30296624 0.04044904 0.28481993 -0.17497227 0.2168907 0.027061619 0.041364856 0.18055174
-0.14217483 0.21780261 -0.039207026 -0.026511258 0.17982471 0.12069377 0.037592325 0.06320729
0.22355045 -0.21600702 -0.020759916 -0.25950152 -0.0017807068 0.16059688 -0.0046802848 0.08150366
0.074474804 0.086789675 0.16739678 0.19678168 0.03439949 -0.31190914 -0.2951611 -0.19938698
-0.099432915 -0.17206365 -0.2227944 -0.09631265 -0.05021286 -0.30394334 -0.28679624 -0.008771408
0.22167613 0.002722121 0.12531646 -0.0361973 0.22279048 -0.27647275 0.24488927 -0.097346224
-0.03723068 -0.09433859 -0.1601115 0.08051712 -0.09067249 0.08864426 0.013637386 -0.22035252
0.12230482 0.2389395 0.21383782 -0.27843696 0.08250283 -0.15878972 0.19315518 -0.21164227
0.12484067 0.25059196 0.035467986 0.13467999 0.06438146 0.2188589 0.018902933 -0.22722632
-0.18408044 0.061354917 -0.25434175 0.19579144 0.21886845 -0.23135293 0.1864111 -0.21901585
0.065356426 0.23075393 -0.21681523 0.11976667 -0.13748485 -0.06271291 0.269494 0.21366219
-0.09885968 -0.31265664 0.30327103 0.18880202 0.18322167 -0.14537068 -0.071620435 0.21391803
0.21468173 -0.066203825 -0.27727696 -0.10895843 -0.19513191 -0.053993333 0.23195417 -0.20388588
-0.20245354 0.2853122 -0.14378017 0.093377836 0.07621664 0.21316078 0.09278169 -0.052571394
0.2648479 -0.055209782 -0.20811658 0.10198836 0.18428446 0.077076964 -0.24162582 0.10826951
-0.07333536 -0.06754886 0.17907506 -0.037842423 -0.2451959 0.15236607 -0.031002842 0.15500079
-0.30552018 -0.2551176 0.030513184 -0.17763728 0.26730177 0.3649228 -0.2920304 0.24487364
-0.060190123 0.09238425 -0.3128474 0.24549367 -0.1564911 0.20873033 0.18393055 0.28318554
0.13705456 -0.12223868 -0.22873534 -0.03384832 -0.03260018 -0.2837138 0.0696747 -0.0329523
-0.18524173 0.004475673 -0.3102941 0.19967087 -0.081241146 -0.19770119 0.2258191 0.26646423
-0.24427058 -0.105454214 -0.04477251 0.28615373 -0.1445623 0.12178371 -0.18131265 -0.28211817
-0.17681856 -0.12595263 0.05834112 -0.15330088 -0.20104517 0.060094856 -0.087613635 -0.088408805
0.009895756 0.09471802 -0.06626686 0.19851008 -0.12603055 -0.15881915 -0.29945585 0.099502295
0.14950633 0.3134827 -0.29683188 0.016249454 0.08037113 0.12688471 0.089512445 -0.016175222
-0.09419425 -0.027267545 0.23953663 -0.28382578 -0.27662808 -0.17978273 -0.24152225 -0.16347927
0.058632724 -0.28292713 0.004235738 0.027079338 0.32182783 0.16970454 0.14012536 0.029269941
-0.0596497 0.11326452 0.1900039 -0.16282982 0.17545299 0.025536625 -0.3013902 0.18551983
-0.26275468 -0.015915522 -0.23763393 -0.08469336 -0.029017473 0.097615264 -0.021572724 -0.049883265
0.22036907 -0.28504616 -0.009602831 -0.2816734 0.027200477 0.27929455 0.019203303 -0.26289546
00000000: eb07 9b3d 37ee b43d afe4 72be 67be dabd
00000010: baa6 133b 0cfd a0be edce cabd 455c 3dbc
00000020: acb8 fabd 58cb 73be 2c1a 7cbe 40a3 173d
00000030: 11e1 82be 8027 58be 2099 c0bd 6ed2 703e
00000040: d896 40be 414d 333e a470 12be e50e 3b3e
00000050: bf5b 72bd ce45 30be 9f49 05be 66f2 4a3e
00000060: 641e 9bbe e4ad 253d ebd3 913e ee2b 33be
00000070: 9818 5e3e 54b0 dd3c 326e 293d 8ee2 383e
00000080: 4796 11be a607 5f3e 8c97 20bd 232e d9bc
00000090: f823 383e 4c2e f73d 69fa 193d d372 813d
000000a0: 69ea 643e f230 5dbe b310 aabc 62dd 84be
000000b0: 9b66 e9ba 8273 243e 135d 99bb 64eb a63d
000000c0: 3f86 983d c9be b13d 106a 2b3e 2381 493e
000000d0: 7be6 0c3d 8eb2 9fbe 5b1f 97be 1a2c 4cbe
000000e0: 7ca3 cbbd 7431 30be 3724 64be 913f c5bd
000000f0: 00ac 4dbd 769e 9bbe f5d6 92be f4b5 0fbc
00000100: 11ff 623e 9d65 323b f552 003e 9f43 14bd
00000110: 3023 643e d68d 8dbe 41c4 7a3e 755d c7bd
00000120: 337f 18bd 9734 c1bd 45f4 23be 29e6 a43d
00000130: 80b2 b9bd 1f8b b53d 586f 5f3c 17a4 61be
00000140: f37a fa3d 8eac 743e 4df8 5a3e 4a8f 8ebe
00000150: 3ef7 a83d c699 22be 79ca 453e c0b8 58be
00000160: 77ac ff3d 974d 803e e146 113d 8de9 093e
00000170: 6dda 833d 8c1c 603e 53da 9a3c 04ae 68be
00000180: 957f 3cbe 4b4f 7b3d 1539 82be 8d7d 483e
00000190: 0d1f 603e c8e7 6cbe 8de2 3e3e b145 60be
000001a0: 97d9 853d c24a 6c3e d004 5ebe 3a48 f53d
000001b0: d4c8 0cbe a06f 80bd 1efb 893e 43ca 5a3e
000001c0: f276 cabd 8814 a0be 5746 9b3e 5155 413e
000001d0: 769e 3b3e 0ddc 14be bcad 92bd 540d 5b3e
000001e0: 87d5 5b3e df95 87bd 3ff7 8dbe 9925 dfbd
000001f0: a9d0 47be 1d28 5dbd 6585 6d3e 76c7 50be
00000200: fb4f 4fbe 7114 923e 1c3b 13be e13c bf3d
00000210: 7817 9c3d d246 5a3e 5404 be3d 1a55 57bd
00000220: 259a 873e a723 62bd 831c 55be 46df d03d
00000230: 11b5 3c3e 87da 9d3d c26c 77be 68bc dd3d
00000240: d930 96bd 0f57 8abd 745f 373e a800 1bbd
00000250: a214 7bbe da05 1c3e acf9 fdbc 87b8 1e3e
00000260: 246d 9cbe c69e 82be c9f6 f93c 8ce6 35be
00000270: c7db 883e 29d7 ba3e 0285 95be 28c0 7a3e
00000280: eb89 76bd f433 bd3d 892d a0be b162 7b3e
00000290: 343f 20be 67bd 553e 4a58 3c3e b2fd 903e
000002a0: 0858 0c3e 4658 fabd 9939 6abe 89a4 0abd
000002b0: c487 05bd ef42 91be 9cb1 8e3d fef8 06bd
000002c0: 02b0 3dbe aba8 923b dede 9ebe 8576 4c3e
000002d0: c261 a6bd 2e72 4abe 1f3d 673e 006e 883e
000002e0: 1122 7abe 61f8 d7bd 6163 37bd be82 923e
000002f0: 2408 14be bd69 f93d 06aa 39be cb71 90be
00000300: ed0f 35be baf9 00be 19f7 6e3d e8fa 1cbe
00000310: c9de 4dbe 0626 763d c76e b3bd ad0f b5bd
00000320: cf21 223c 85fb c13d ebb6 87bd 3a46 4b3e
00000330: 270e 01be 7da1 22be 4752 99be dcc7 cb3d
00000340: 3018 193e ce80 a03e 59fa 97be 931d 853c
00000350: 9e99 a43d 11ee 013e 4d52 b73d e681 84bc
00000360: eae8 c0bd 3060 dfbc 1749 753e 9d51 91be
00000370: 32a2 8dbe f718 38be 9c51 77be 1c67 27be
00000380: de28 703d d3db 90be f2cb 8a3b 7dd5 dd3c
00000390: 9ec6 a43e 07c7 2d3e 067d 0f3e 84c7 ef3c
000003a0: 3e53 74bd 3bf7 e73d 6290 423e dcbc 26be
000003b0: f3a9 333e 2f32 d13c d14f 9abe e9f8 3d3e
000003c0: c887 86be 4561 82bc 4f56 73be b673 adbd
000003d0: 0db6 edbc 83ea c73d 48b9 b0bc 6552 4cbd
000003e0: 6ea8 613e 92f1 91be 3155 1dbc 7f37 90be
000003f0: 89d3 de3c b2ff 8e3e 3f50 9d3c 3c9a 86be

mlp.3.weight f4 [256, 512]
-0.04220853 0.026830561 0.029045647 0.04059634 0.0018087704 0.041570105 0.03737536 -0.030369472
0.018245753 -0.01070276 0.033491235 0.027503278 0.0037737812 -0.002532449 0.016314844 -0.022010408
-0.039967846 0.017270412 0.03550469 0.03883178 -0.004926468 0.039187938 0.020033792 0.020048756
0.027444568 0.0018261386 -0.0077336878 0.03286463 -0.01905021 0.038809508 -0.026868451 0.007770267
-0.017677268 0.013248608 0.036310874 -0.00650722 0.020127589 -0.024264194 0.0011583937 -0.04097869
0.020803072 0.022364747 0.002284062 0.00163711 0.014336271 0.015269859 0.0028702775 -0.0027130526
0.0066135987 0.017491464 0.011998258 0.022404637 0.016732398 0.010035123 0.013546577 0.023148645
-0.036793277 0.024592597 -0.03457366 -0.014063091 -0.04066286 -0.036043722 -0.005152963 -0.007528725
0.021156352 -0.028905742 0.010789335 -0.048069037 0.012611342 0.006951311 -0.02475502 -0.041492395
-0.034761526 0.009468685 -0.0089092655 0.004728597 0.020528724 0.031183915 -0.026715754 0.024396835
0.019185394 -0.027161969 -0.040077016 -0.023367329 0.017362498 -0.042696137 -0.011093533 -0.014975898
-0.019288925 -0.041474216 -0.02052507 -0.010792522 0.010041111 -0.013874094 -0.03821336 0.008645543
0.04043222 -0.019162692 0.0035958637 -0.0029316267 0.022710087 0.025318416 0.02704507 -0.033156727
0.013907395 0.008607922 0.030175595 -0.018968845 -0.033560693 0.01564204 0.02887167 -0.00014008571
-0.04578281 0.005554275 0.026416961 -0.007316684 -0.03474268 -0.0013914336 -0.016173083 -0.03601135
-0.0029600593 0.032080196 -0.0013668907 -0.03740034 -0.033738304 0.0052590678 0.041108094 -0.017139016
-0.024991104 0.012306268 -0.009267407 -0.030021137 -0.025154782 -0.043037005 0.03989466 -0.041067895
0.03143754 -0.031686004 0.015823033 0.002973488 0.03356975 -0.04083388 0.042829663 -0.039194126
-0.023621485 -0.015743902 0.014763212 -0.022507424 0.033405144 -0.0056147035 -0.021999355 0.005929441
-0.0049762996 -0.0066610565 0.00435203 0.028960992 0.033762038 -0.022526953 0.03588869 0.035474565
-0.000637971 -0.023272235 0.029503267 0.031837467 0.029571636 -0.02058666 -0.0073728915 -0.026952418
-0.030541148 0.013328366 0.0038389352 0.010636616 -0.027692407 -0.039062276 -0.010679172 -0.02634559
-0.028153617 0.027677331 -0.03955388 0.00010002045 0.0020557758 -0.03865196 0.019847639 -0.03326448
0.041890305 -0.052170563 -0.009481751 0.040999193 0.024361758 -0.03398668 0.04751375 -0.0047103898
-0.036558513 -0.035685737 -0.045150597 0.0116747925 0.029435094 0.007310271 0.032885145 -0.01717062
-0.0049506202 0.024866743 -0.034974467 -0.03144147 -0.034269467 -0.019725278 0.025352145 0.006156362
-0.04251312 -0.030339371 0.0073434296 0.00024955676 -0.010626011 0.0018462903 -0.027674282 -0.0438684
-0.018527377 -0.0017209231 -0.022382295 0.02924625 0.031869207 -0.0044889133 -0.018621115 0.014058381
-0.013912319 -0.029813848 0.01816448 -0.0069948114 0.017947864 0.036939833 -0.04529899 0.024046019
0.024333373 -0.030190613 -0.03900878 -0.03409356 -0.043779146 -0.022942012 -0.034351964 -0.01730543
0.01477895 0.0039768177 -0.031660013 -0.013905593 0.00809778 0.032412827 -0.037323073 0.027321395
-0.025556289 0.043209247 0.0057823467 -0.03782294 0.0190024 -0.019751929 0.033053905 -0.00234121
00000000: dae2 2cbd c4cb db3c 23f1 ed3c 5948 263d
00000010: 4314 ed3a 6a45 2a3d e816 193d 66c9 f8bc
00000020: 1e78 953c a15a 2fbc 1b2e 093d 8e4e e13c
00000030: 8b51 773b 72f7 25bb b5a6 853c 2c4f b4bc
00000040: 53b5 23bd ae7a 8d3c 5e6d 113d 130e 1f3d
00000050: 356e a1bb 8883 203d e81d a43c 4a3d a43c
00000060: 6ed3 e03c 0b5b ef3a e06a fdbb 109d 063d
00000070: 300f 9cbc b8f6 1e3d 3a1b dcbc b99d fe3b
00000080: ebcf 90bc b110 593c b6ba 143d 853a d5bb
00000090: 9de2 a43c b4c5 c6bc 3ed5 973a 45d9 27bd
000000a0: 346b aa3c 4636 b73c 34b0 153b 4c94 d63a
000000b0: aee2 6a3c 6e2e 7a3c 441b 3c3b 78cd 31bb
000000c0: e3b6 d83b 424a 8f3c 5794 443c ee89 b73c
000000d0: 6212 893c 5b6a 243c 76f2 5d3c 3aa2 bd3c
000000e0: 8cb4 16bd 6a76 c93c 1c9d 0dbd e168 66bc
000000f0: 198e 26bd 95a2 13bd 30da a8bb 86b3 f6bb
00000100: 1650 ad3c bccb ecbc c0c5 303c 0ae4 44bd
00000110: cd9f 4e3c d3c7 e33b 0acb cabc eef3 29bd
00000120: 1a62 0ebd 8b22 1b3c 2bf8 11bc 59f2 9a3b
00000130: db2b a83c 6975 ff3c ffda dabc dfdb c73c
00000140: b02a 9d3c c782 debc cc27 24bd d76c bfbc
00000150: cc3b 8e3c 25e2 2ebd a6c1 35bc 785d 75bc
00000160: cf03 9ebc dee0 29bd 3124 a8bc 1ed3 30bc
00000170: 7983 243c 2b50 63bc 9d85 1cbd 09a6 0d3c
00000180: 419c 253d 14fb 9cbc 95a8 6b3b 8920 40bb
00000190: 810a ba3c 9168 cf3c 9f8d dd3c 59cf 07bd
000001a0: d8db 633c 3e08 0d3c cf32 f73c 8d64 9bbc
000001b0: f076 09bd bc23 803c 4884 ec3c f9e3 12b9
000001c0: c186 3bbd a300 b63b 6268 d83c cbc0 efbb
000001d0: 574e 0ebd c460 b6ba 6a7d 84bc a380 13bd
000001e0: 8efd 41bb 8666 033d 3e29 b3ba 1931 19bd
000001f0: 2d31 0abd 4254 ac3b f660 283d 1f67 8cbc
00000200: 25ba ccbc 3ba0 493c 52d6 17bc e3ee f5bc
00000210: 6711 cebc 9247 30bd 9568 233d cf36 28bd
00000220: a6c4 003d 2fc9 01bd 4e9f 813c dade 423b
00000230: 6f80 093d 6d41 27bd 286e 2f3d 058a 20bd
00000240: d881 c1bc 5bf9 80bc 66e1 713c 7d61 b8bc
00000250: d5d3 083d 8cfb b7bb fe37 b4bc c24b c23b
00000260: 3a10 a3bb fe44 dabb 799b 8e3b 9a3f ed3c
00000270: 104a 0a3d 728a b8bc 0500 133d c74d 113d
00000280: 823d 27ba 6aa5 bebc d6b0 f13c 0168 023d
00000290: 3740 f23c 5ba5 a8bc 4c98 f1bb 51cb dcbc
000002a0: 6e31 fabc 385f 5a3c a596 7b3b 3345 2e3c
000002b0: 30db e2bc c4ff 1fbd b2f7 2ebc b5d2 d7bc
000002c0: 6aa2 e6bc 92bb e23c 4003 22bd 12c2 d138
000002d0: 32ba 063b 8551 1ebd 8497 a23c 5640 08bd
000002e0: 2b95 2b3d cdb0 55bd 5959 1bbc c5ee 273d
000002f0: 4f92 c73c 9e35 0bbd c79d 423d 9d59 9abb
00000300: 61be 15bd 352b 12bd d5ef 38bd a147 3f3c
00000310: de21 f13c ff8a ef3b 93b2 063d 66a9 8cbc
00000320: d038 a2bb 57b5 cb3c 6341 0fbd c5c8 00bd
00000330: 245e 0cbd e896 a1bc 4daf cf3c 4fbb c93b
00000340: 3d22 2ebd 468a f8bc 27a1 f03b f1d6 8239
00000350: b818 2ebc 39ff f13a 2db5 e2bc 5aaf 33bd
00000360: bac6 97bc 9990 e1ba 135b b7bc d595 ef3c
00000370: 4989 023d bc17 93bb 4f8b 98bc 2055 663c
00000380: 7ff0 63bc 2c3c f4bc adcd 943c bb34 e5bb
00000390: 6607 933c 394e 173d 6f8b 39bd 28fc c43c
000003a0: c856 c73c 4e52 f7bc acc7 1fbd b0a5 0bbd
000003b0: c351 33bd e3f0 bbbc a5b4 0cbd 1ec4 8dbc
000003c0: 6923 723c f74f 823b eead 01bd 49d4 63bc
000003d0: 8dac 043c 50c3 043d 14e0 18bd 1ed1 df3c
000003e0: 6c5b d1bc 2efc 303d d779 bd3b 3aec 1abd
000003f0: ecaa 9b3c ccce a1bc 8863 073d fc6e 19bb

mlp.3.bias f4 [256]
-0.02933218 -0.045919944 -0.046220526 0.020259196 -0.013685386 -0.046733823 0.009557077 0.017955378
-0.0028778312 0.0042358567 0.0052644257 0.00035289748 -0.019351052 0.019720616 0.011952032 0.047920883
-0.038876723 -0.04716898 -0.001344263 0.005325489 0.055996943 -0.038317807 -0.02828417 0.00086249376
-0.002511528 0.040387 0.009240555 -0.02080163 0.05574959 0.029066324 0.022439077 -0.025124438
0.00848091 0.03800953 -0.020269629 -0.019122593 0.0035322933 8.148512e-05 -0.033656467 -0.048750322
-0.00022477728 -0.008765689 0.01421352 0.037402082 -0.0071199033 0.020274095 -0.0030913905 0.03236323
-0.043177422 -0.013956832 0.035279676 0.031706065 0.06321439 -0.049114857 0.028826399 0.043198816
-0.0060913973 0.0278124 0.037427608 -0.016102199 0.015278629 0.020443762 0.015419126 0.03972714
0.021642186 0.026698953 0.001609356 0.035477076 0.042256575 0.011405564 -0.028372584 0.04826086
0.010115848 -0.03679207 0.049116835 0.03744991 -0.021670774 0.031644702 0.028967751 -0.019900821
-0.0010798089 -0.03386286 0.03670209 0.0008905833 -0.01952298 0.059879705 -0.046287708 0.024242735
-0.029177612 -0.028084071 -0.014455632 0.023562351 -0.006980565 0.010257707 0.02087804 -0.045592897
0.056559727 0.054858644 0.028600005 -0.03366743 0.044349 0.0028849225 -0.002292067 0.027827006
-0.00065843354 -0.03291693 0.0018949943 0.0020423254 0.16749729 0.018576505 -0.04237136 0.004240033
-0.007090043 0.043553535 0.047683258 -0.01845661 0.021419605 0.035979126 -0.014287296 0.064862944
0.008453199 -0.04213113 0.06376497 -0.026201395 0.0058386372 -0.032362502 -0.042100113 0.021954363
0.011460847 -0.034061573 0.0423099 0.018527675 -0.047676537 0.015503386 0.010327118 -0.010029298
-0.018255185 -0.039407235 0.0018379458 0.0048968378 0.0012200312 -0.04871914 -0.0020728938 0.03175356
0.048395164 -0.026312025 -0.028835747 -0.010815397 -0.009770461 0.039249603 -0.03996371 0.03391556
0.037978537 0.050489705 -0.022095887 -0.012359064 0.0027999529 -0.022603586 0.023027597 -0.02385842
0.039257895 0.024516229 0.030334044 0.021547096 0.0163576 -0.0027167548 0.048212327 0.06518744
-0.009609813 0.023543224 -0.021177914 0.006834968 -0.024839323 0.032413475 -0.0145200705 -0.014456842
-0.0150912 0.013537436 -0.0042046797 -0.0018715158 0.015058721 -0.031383492 0.042626336 0.04634355
-0.014932166 -0.017794829 0.020445757 0.039048973 0.03755986 0.034646437 -0.027944252 0.016075231
-0.013649841 -0.0045775217 -0.040151108 -0.028118517 0.0659932 0.010638346 0.037657533 0.037319347
-0.008812244 -0.018779995 -0.00016340309 -0.018307585 -0.022467103 -0.00024573182 0.016166922 -0.007984941
0.004238974 0.09167283 0.048701797 0.050499406 -0.008704005 0.022307727 -0.046630446 0.0056401296
0.015261505 -0.031659443 0.017334558 0.028112564 -0.035104524 -0.043962497 0.045773845 0.0023389796
-0.0041401586 -0.014896542 0.018276334 0.03656972 0.019664368 0.014224536 -0.012722293 0.012830374
-0.0048000603 0.0023863637 0.021740679 -0.022306748 0.046484802 0.0074605956 0.012653927 0.020121122
0.034213606 0.03715972 -0.02768238 0.02403589 0.0067386986 -0.007173666 -0.026060358 0.03377298
0.027761308 0.017926812 -0.035191126 0.04510644 0.013584418 0.025801612 -0.033672094 -0.045004502
00000000: 0a4a f0bc 8d16 3cbd bc51 3dbd 9df6 a53c
00000010: ab38 60bc f76b 3fbd 4995 1c3c 2817 933c
00000020: ff99 3cbb f1cc 8a3b 3481 ac3b 1905 b939
00000030: 1986 9ebc 218d a13c 75d2 433c b048 443d
00000040: 333d 1fbd 4334 41bd fb31 b0ba 7181 ae3b
00000050: 0d5d 653d 22f3 1cbd 34b4 e7bc fa18 623a
00000060: 7398 24bb d76c 253d b265 173c 2e68 aabc
00000070: af59 643d 801c ee3c 28d2 b73c c4d1 cdbc
00000080: 84f3 0a3c e2af 1b3d 7e0c a6bc fca6 9cbc
00000090: 0c7e 673b fee2 aa38 5ddb 09bd 6bae 47bd
000000a0: 31b2 6bb9 f79d 0fbc d3df 683c ed32 193d
000000b0: 144e e9bb dc15 a63c ed98 4abb 4e8f 043d
000000c0: cfda 30bd 32ab 64bc 6c81 103d 38de 013d
000000d0: 8c76 813d a92c 49bd 5725 ec3c 3ef1 303d
000000e0: 589a c7bb d5d6 e33c b14d 193d c2e8 83bc
000000f0: 3753 7a3c ad79 a73c 80a0 7c3c edb8 223d
00000100: f44a b13c c3b7 da3c 07f1 d23a 6950 113d
00000110: 3b15 2d3d 67de 3a3c 9f6d e8bc 2ead 453d
00000120: f1bc 253c 48b3 16bd bc2e 493d 1465 193d
00000130: e886 b1bc e09d 013d c74d ed3c 0c07 a3bc
00000140: 6088 8dba c8b3 0abd ee54 163d 0976 693a
00000150: a8ee 9fbc 6c44 753d 2e98 3dbd b398 c63c
00000160: e305 efbc 9110 e6bc 51d7 6cbc d505 c13c
00000170: 39bd e4bb f10f 283c 6c08 ab3c 9ebf 3abd
00000180: 2cab 673d 75b3 603d 8f4a ea3c dce6 09bd
00000190: 4ca7 353d f810 3d3b 8136 16bb 76f5 e33c
000001a0: ba9a 2cba e7d3 06bd 7561 f83a 89d8 053b
000001b0: 6984 2b3e c12d 983c 978d 2dbd faef 8a3b
000001c0: 9753 e8bb 3165 323d 854f 433d 5132 97bc
000001d0: 2b78 af3c d95e 133d 4315 6abc ddd6 843d
000001e0: 497f 0a3c b191 2cbd 3597 823d 4fa4 d6bc
000001f0: 0a52 bf3b 8b8e 04bd 2b71 2cbd a3d9 b33c
00000200: 47c6 3b3c 2684 0bbd 254d 2d3d 5ac7 973c
00000210: 7948 43bd ea01 7e3c 1333 293c ed51 24bc
00000220: e68b 95bc 7b69 21bd 3ae7 f03a a775 a03b
00000230: 74e9 9f3a b98d 47bd 63d9 07bb 0510 023d
00000240: 023a 463d 518c d7bc f238 ecbc 1033 31bc
00000250: 4914 20bc 31c4 203d fdb0 23bd 0beb 0a3d
00000260: 628f 1b3d 4bce 4e3d 6f02 b5bc ac7d 4abc
00000270: 6a7f 373b 282b b9bc 5fa4 bc3c bc72 c3bc
00000280: e3cc 203d 42d6 c83c 1a7f f83c 8983 b03c
00000290: 6000 863c 950b 32bb 4a7a 453d fe80 853d
000002a0: 7a72 1dbc b8dd c03c 4e7d adbc def7 df3b
000002b0: d67b cbbc fec3 043d 97e5 6dbc 64dc 6cbc
000002c0: 1541 77bc 1fcc 5d3c 69c7 89bb a64d f5ba
000002d0: dbb8 763c fa8b 00bd f498 2e3d bcd2 3d3d
000002e0: 0ba6 74bc 76c6 91bc dc7d a73c d1f1 1f3d
000002f0: 5ed8 193d 6ce9 0d3d 58eb e4bc 34b0 833c
00000300: 95a3 5fbc 09ff 95bb 7d75 24bd ce58 e6bc
00000310: 7127 873d 754c 2e3c c93e 1a3d 2cdc 183d
00000320: 3b61 10bc 81d8 99bc 2f57 2bb9 caf9 95bc
00000330: ee0c b8bc 91d5 80b9 7e70 843c 45d3 02bc
00000340: 17e7 8a3b f7be bb3d 897b 473d 77d8 4e3d
00000350: 3e9b 0ebc b2be b63c 91ff 3ebd d6d0 b83b
00000360: 640b 7a3c 55ad 01bd 3401 8e3c 524c e63c
00000370: c3c9 0fbd 0512 34bd 5b7d 3b3d 9149 193b
00000380: 2baa 87bb a010 74bc 40b8 953c 21ca 153d
00000390: 2b17 a13c 070e 693c 2a71 50bc 7d36 523c
000003a0: d349 9dbb 8a64 1c3b 8219 b23c a4bc b6bc
000003b0: d966 3e3d 0378 f43b 6b52 4f3c 0dd5 a43c
000003c0: 9123 0c3d ca34 183d 29c6 e2bc eae6 c43c
000003d0: 4dd0 dc3b 1211 ebbb 887c d5bc 8955 0a3d
000003e0: af6b e33c 40db 923c 9224 10bd 88c1 383d
000003f0: 2e91 5e3c e75d d33c c0eb 09bd a456 38bd

mlp.5.weight f4 [4, 256]
0.0064561185 -0.03269762 -0.02438446 0.059417766 0.06344743 -0.017729916 0.052049607 -0.0077933674
0.058092386 -0.037860937 0.051779997 -0.062433604 0.024825199 0.0067443037 0.037333835 0.0665655
0.01751353 -0.03778713 -0.04926338 0.12091549 0.062003132 -0.028291726 0.06392192 -0.042616423
-0.011385836 -0.08181359 -0.045848843 0.062483545 -0.017569996 0.03117123 0.03223169 0.029813563
-0.0493872 0.033764467 -0.05158123 -0.014689609 -0.042789742 0.04630012 -0.065835156 0.0023334136
0.023948496 0.03866164 -0.026343634 -0.01136221 0.00093914644 0.03552404 -0.010173361 0.064086944
-0.019149471 0.044386517 0.08776816 0.022505768 0.034632985 -0.0607741 -0.058134746 0.064352416
-0.12980793 -0.0027517069 -0.019944137 -0.07066254 -0.015784906 0.02279511 -0.06607262 0.022840109
-0.026497582 -0.04134885 0.042406738 0.037266295 0.0013747561 0.05655152 -0.04077814 -0.020277463
0.032870647 -0.0047222106 -0.046564315 -0.051562283 0.025449714 0.02335423 0.06760809 -0.03254047
-0.04872305 -0.02450839 0.019729763 -0.044686574 -0.004770537 0.07218825 0.019727286 0.032565277
-0.06291476 -0.020219974 0.014370361 0.123310335 -0.024173139 0.021097653 0.024530848 -0.027694242
0.08975055 0.009218512 -0.014156214 -0.00413928 0.014164695 -0.0013801901 0.01812434 -0.021247063
0.030511469 0.02820447 0.027224453 0.045735568 0.3922939 0.011766994 0.061367773 -0.009794103
-0.03930939 0.06621649 0.012848463 -0.051881313 -0.11278138 -0.022368154 0.037928797 0.04173739
0.04196559 0.054748915 0.08688558 -0.018627258 0.022463825 -0.07068542 -0.00066187646 -0.031608313
-0.015813656 -0.061002646 0.018421222 -0.042043544 -0.05199029 0.061734572 -0.06724283 0.09260802
-0.028074747 -0.044100244 0.012044529 -0.016171731 -0.019379932 0.03647608 0.016718127 0.062841654
0.00028653568 -0.07155486 0.007796338 -0.014868784 0.04650401 0.06059584 -0.0015733184 0.03708088
-0.034342512 0.012185761 0.03930217 0.051393643 0.024254186 -0.024484182 0.06307747 0.019554213
0.06227417 -0.04719183 0.04373878 0.08396487 0.19940671 0.047366437 0.038051847 0.082328394
0.05334102 0.055940803 -0.060150478 -0.04265113 0.016994702 0.03235446 0.05313096 0.049323175
0.014640409 -0.047708638 0.033335283 -0.023461951 0.03820136 0.050497554 -0.013336903 0.084372275
-0.064716265 0.026295302 -0.040562145 -0.05122327 -0.010805504 -0.013320109 0.018553335 -0.0673449
0.034484413 0.021008598 -0.005478637 -0.020117536 0.018650008 0.074550234 0.012395645 0.016117895
0.044365194 -0.025659654 0.061403446 0.011878304 -0.071010314 0.054367777 0.041358337 0.020331183
-0.06249935 0.08473759 -0.0455516 0.00780755 -0.04487305 -0.045640927 -0.008254931 -0.006426185
0.107415825 -0.043675452 -0.02404112 -0.03892991 -0.051900614 0.0047715935 0.05943266 0.0325643
-0.0031068334 0.030142738 -0.047533005 0.05995716 -0.021688793 0.042879056 0.0014236434 -0.08039166
0.002753328 0.06757556 0.04799085 0.013473536 -0.050310187 -0.05317242 -0.017387379 0.026628641
0.014906094 0.02342482 -0.04183763 -0.1094293 -0.013187856 -0.018095324 -0.031705763 0.030484771
0.07480865 -0.013367538 -0.0596828 0.049633853 -0.057582993 -0.029704846 0.033161905 0.0081392685
00000000: d98d d33b f1ed 05bd ebc1 c7bc 0b60 733d
00000010: baf0 813d 543e 91bc f831 553d 815f ffbb
00000020: 48f2 6d3d 1214 1bbd 4317 543d 61ba 7fbd
00000030: 375e cb3c 52ff dc3b 5deb 183d 7e53 883d
00000040: 8978 8f3c adc6 1abd 66c8 49bd 8aa2 f73d
00000050: fff6 7d3d 0dc4 e7bc 7fe9 823d 8f8e 2ebd
00000060: a88b 3abc e28d a7bd ffcb 3bbd bfee 7f3d
00000070: f4ee 8fbc cf5a ff3c 6005 043d 933b f43c
00000080: 3c4a 4abd 9c4c 0a3d d746 53bd b0ac 70bc
00000090: 4c44 2fbd 32a5 3d3d 95d4 86bd 2fec 183b
000000a0: a32f c43c ab5b 1e3d 9bce d7bc 9028 3abc
000000b0: 0d31 763a a881 113d 2bae 26bc 0440 833d
000000c0: 5adf 9cbc a3ce 353d cbbf b33d 045e b83c
000000d0: 51db 0d3d 43ee 78bd b31e 6ebd 33cb 833d
000000e0: 5fec 04be fb55 34bb e361 a3bc 86b7 90bd
000000f0: 594f 81bc cfbc ba3c 1551 87bd 2e1b bb3c
00000100: 7511 d9bc 695d 29bd b0b2 2d3d 8ba4 183d
00000110: 2931 b43a 91a2 673d fb06 27bd ec1c a6bc
00000120: 5fa3 063d c6bc 9abb 39ba 3ebd f932 53bd
00000130: eb7b d03c 5f51 bf3c 1c76 8a3d 2849 05bd
00000140: d291 47bd d2c5 c8bc 50a0 a13c 4509 37bd
00000150: 2a52 9cbb 6fd7 933d 1e9b a13c 2b63 053d
00000160: 74d9 80bd 5ca4 a5bc aa71 6b3c 218a fc3d
00000170: bf06 c6bc fcd4 ac3c ebf4 c83c 09df e2bc
00000180: 23cf b73d 3e09 173c 77ef 67bc cca2 87bb
00000190: 0913 683c 7fe7 b4ba 7f79 943c 520e aebc
000001a0: 30f3 f93c 100d e73c d105 df3c 3855 3b3d
000001b0: bfda c83e 5aca 403c c65c 7b3d 7277 20bc
000001c0: e202 21bd 839c 873d 5c82 523c 8081 54bd
000001d0: edf9 e6bd 6b3d b7bc 3a5b 1b3d d3f4 2a3d
000001e0: 1ce4 2b3d 6640 603d 11f1 b13d 3198 98bc
000001f0: 0e06 b83c 84c3 90bd c781 2dba b877 01bd
00000200: a48b 81bc e9dd 79bd 1ae8 963c da35 2cbd
00000210: c5f3 54bd 64dd 7c3d 9cb6 89bd 46a9 bd3d
00000220: 03fd e5bc 75a2 34bd 6b56 453c 947a 84bc
00000230: aac2 9ebc f167 153d 74f4 883c 20b3 803d
00000240: 2b3a 9639 5b8b 92bd 6c78 ff3b 339c 73bc
00000250: fd7a 3e3d 5833 783d ce37 ceba 1fe2 173d
00000260: bcaa 0cbd c9a6 473c 50fb 203d 2482 523d
00000270: b7b0 c63c 0d93 c8bc c32e 813d 2830 a03c
00000280: 3313 7f3d 384c 41bd 6f27 333d c6f5 ab3d
00000290: 4631 4c3e 4f03 423d 41dc 1b3d ca9b a83d
000002a0: 1d7c 5a3d 2f22 653d 5960 76bd f4b2 2ebd
000002b0: 7938 8b3c 1c86 043d d99f 593d 1907 4a3d
000002c0: 53de 6f3c 226a 43bd 948a 083d 4733 c0bc
000002d0: 0779 1c3d 86d6 4e3d 0783 5abc 5fcb ac3d
000002e0: f689 84bd 3f69 d73c 7e24 26bd 7ecf 51bd
000002f0: 9209 31bc 963c 5abc 2afd 973c 1fec 89bd
00000300: 873f 0d3d 391a ac3c 2386 b3bb 88cd a4bc
00000310: e7c7 983c cbad 983d 1a17 4b3c ad09 843c
00000320: 47b8 353d 3234 d2bc 2e82 7b3d 389d 423c
00000330: db6d 91bd bfb0 5e3d 5c67 293d 958d a63c
00000340: 52ff 7fbd e78a ad3d 5194 3abd 7ad6 ff3b
00000350: cecc 37bd fbf1 3abd b13f 07bc bf92 d2bb
00000360: d4fc db3d 08e5 32bd e2f1 c4bc f874 1fbd
00000370: bd95 54bd 075b 9c3b a96f 733d 2562 053d
00000380: 049c 4bbb e7ed f63c f8b1 42bd a495 753d
00000390: b2ac b1bc f3a1 2f3d 8c99 ba3a 62a4 a4bd
000003a0: 2e71 343b 0e65 8a3d 0e92 443d 1bc0 5c3c
000003b0: 0e12 4ebd 53cb 59bd fa6f 8ebc 4f24 da3c
000003c0: b138 743c 68e5 bf3c ef5d 2bbd 781c e0bd
000003d0: e111 58bc a53c 94bc e7dd 01bd 33bb f93c
000003e0: 4735 993d 8503 5bbc f475 74bd de4c 4b3d
000003f0: 25dc 6bbd 9457 f3bc c7d4 073d 915a 053c

mlp.5.bias f4 [4]
0.02032096 0.030731753 -0.027416022 0.0376418
00000000: 2478 a63c 28c1 fb3c 9197 e0bc 4a2e 1a3d
