results/TD3/checkpoints/model_500_critic1.pth (torch, 559463 bytes, 5 tensors)

mlp.0.weight f4 [512, 14]
000000 fe 85 b2 be b7 05 a7 3e 8c 3e 49 3e 27 b8 e8 3d
       -0.34867853 0.32621548 0.19652766 0.11363249
000010 6b 26 5d 3e 97 4e 84 3e 43 4b 36 3e cc d0 48 be
       0.21596687 0.2584121 0.17802148 -0.196109
000020 dd 74 df bb 5b cf 88 be ea 33 26 bf 0a 07 0a bc
       -0.006819351 -0.267207 -0.64922965 -0.00842453
000030 19 e9 72 3f f1 4e b0 3c 79 c0 9f be 8b 2b 03 bd
       0.9488693 0.021522017 -0.31201532 -0.032023948
000040 fb 30 c5 bc ce b4 eb bc 2d ca a6 3d 46 3d c1 3d
       -0.024071207 -0.028772738 0.08144031 0.09435515
000050 82 1b 7d be 80 ad 61 be 90 06 d5 3d dc 4d 19 be
       -0.24717525 -0.22038841 0.10401642 -0.14971107
000060 7e a7 d5 be 45 9e 1f 3e 91 85 7d 3e 36 ab 07 3e
       -0.4172935 0.15587719 0.24757983 0.13248906
000070 c8 ed 01 bd 7c 06 07 3f 65 fb 63 3e aa c9 f1 3c
       -0.031720906 0.5274427 0.22263868 0.029515106
000080 47 60 22 3e ff e9 80 3d af 55 4f 3c d4 60 84 bd
       0.1585704 0.06294631 0.012654706 -0.06463781
000090 98 bb a9 bd a0 f9 11 be 9a d2 7f 3e 8b 14 91 3e
       -0.08287734 -0.1425538 0.24982682 0.28335986
0000a0 8f c7 91 bd 2e f1 b6 3c b5 fa 58 bd a8 83 8b 3d
       -0.07118141 0.0223318 -0.052973468 0.06812221
0000b0 3c f5 4f 3c 1c 53 43 be b9 b7 2e 3e f7 11 a1 bd
       0.012692746 -0.19074672 0.17062272 -0.07864755
0000c0 13 73 70 be 19 e1 60 be be 64 64 bd ad 4d 10 3e
       -0.23481397 -0.21960868 -0.055760138 0.14092131
0000d0 86 55 64 be 31 fd 28 be 2f ec 01 be bb ba 14 3e
       -0.2229825 -0.16502835 -0.12687753 0.14524357
0000e0 1f 0e 6c be 2c 26 13 be ec 9d ce 3d 4e 4c c1 bd
       -0.23052262 -0.1437003 0.10088715 -0.09438382
0000f0 77 ae 19 be fa 57 5d 3e 7b 42 ea 3c c2 1e b7 3c
       -0.1500796 0.21615592 0.028596153 0.022353534
000100 5c 73 a4 bd df f4 47 3e 53 19 27 be a4 78 c3 bd
       -0.080298156 0.19527005 -0.16318254 -0.09544495
000110 38 e8 d3 3d 2e e5 19 3e b6 42 17 3e 4b 9c 11 3e
       0.103470266 0.15028831 0.14771542 0.14219777
000120 de 45 8a 3d 30 f7 3c bd 2d ba ff bb a6 b7 e6 3d
       0.06751607 -0.046134174 -0.0078041763 0.11265497
000130 7e 3d 7d 3e 71 4c 40 be 11 1d 24 be 9c ed e9 3d
       0.24730489 -0.1877916 -0.16026713 0.114222735
000140 7d 2d 37 3d 1e ea bf bd 77 d4 3e 3e 40 b9 40 be
       0.044721115 -0.09370826 0.18635736 -0.18820667
000150 be b7 8d be 6f a2 da 3d c3 36 46 3e 17 22 0d be
       -0.27679247 0.10675513 0.19356827 -0.13782535
000160 86 12 04 be d7 6d fb bc ae 81 ed bd 3e 20 33 3e
       -0.12897691 -0.030692024 -0.11597 0.17492768
000170 f1 15 a3 3e cf a9 ff 3b 66 00 cf bc d6 e7 11 3d
       0.31852677 0.007802225 -0.025268745 0.035621487
000180 18 78 ce 3e fb fe 1f 3e 23 8c 52 3d 6c ae 83 3e
       0.40326 0.15624611 0.051403176 0.2571901
000190 de e1 56 3e 29 ce 2b be 14 40 51 3d 62 6b 90 3e
       0.20984599 -0.16777863 0.0510865 0.28206927
0001a0 b6 52 bf 3d b1 8e 89 3c e5 b5 67 be 68 3a 96 3d
       0.09341948 0.016791673 -0.22627981 0.07335359
0001b0 bf 16 90 3e 98 1e 2e 3c 4d 84 a4 3c 10 13 79 3d
       0.28142354 0.010627411 0.020082617 0.060809195
0001c0 4f f1 33 be 19 74 1f 3d aa 42 38 bc 46 e9 be bd
       -0.1757252 0.03892908 -0.011246363 -0.09321837
0001d0 a2 f9 93 bd 17 0a 9d 3e d9 4d db 3c 7b 78 94 3d
       -0.07225348 0.3067176 0.02677052 0.07249542
0001e0 7c bd 38 3e 96 d7 db 3b 56 e3 2b 3e 8e 4d c8 3e
       0.18041033 0.0067090495 0.1678594 0.3912167
0001f0 5d 15 c2 3d 36 f4 26 3e c0 29 df bd 22 ee dc bd
       0.09476731 0.16304097 -0.10896635 -0.10787608
000200 08 e7 5f be 5e 55 48 be 2c 43 44 bb b1 48 cf bc
       -0.21865475 -0.19563815 -0.0029947264 -0.025303217
000210 44 e9 96 be 38 fe 71 bb 50 3d 8a bd ad 96 68 bd
       -0.29474843 -0.0036925208 -0.06749976 -0.05678432
000220 9a cc 83 be 81 97 b2 3d a2 45 67 3c ee 6b 93 bd
       -0.25742036 0.08720303 0.014115723 -0.0719832
000230 b0 1a 8e bd 41 e4 f9 bd 70 e2 13 be 02 b4 af bd
       -0.06938684 -0.12201739 -0.14441848 -0.08579256
000240 dc 2f a6 bd 04 ce 2c 3e be dd 16 3e e9 e0 35 3e
       -0.08114597 0.16875464 0.14733025 0.17761578
000250 79 d0 8a 3e a8 3c 52 be f3 23 aa 3e 07 29 6e 3e
       0.27112177 -0.20530951 0.33230552 0.23257838
000260 c2 35 77 be 83 ed 93 3e 17 57 2e 3d 12 1c 21 be
       -0.241416 0.28892145 0.042563524 -0.15733364
000270 c3 75 65 3e 17 fd 45 3e a1 aa 1c 3e d1 68 47 3e
       0.22408204 0.19334827 0.15299465 0.19473578
000280 bc ed d3 bd 41 94 c9 bc 26 fc 22 be d4 75 92 be
       -0.103480786 -0.024606826 -0.159165 -0.2860552
000290 54 94 82 3e aa 40 84 3e e0 f5 ad 3c 08 57 97 be
       0.2550379 0.25830585 0.021235406 -0.29558587
0002a0 42 44 1f be 61 08 90 3c 6c 02 94 3d 50 33 6b be
       -0.15553382 0.01758212 0.072270244 -0.22968793
0002b0 6b bb 92 bd 9b c8 d6 3d 76 e6 5e bd d4 43 3c be
       -0.071646534 0.10487481 -0.054419003 -0.1838525
0002c0 fd d1 1d 3e 9f f6 85 3e 26 7f 81 3e a4 a3 c0 bd
       0.15412135 0.2616472 0.2529232 -0.09406212
0002d0 c7 a0 11 3e 7a d6 d3 3d c0 fe 19 be ce 27 69 bd
       0.14221488 0.103436425 -0.15038586 -0.056922726
0002e0 30 e1 e2 3d 2f 13 c5 bd 43 21 95 be ad bd 7e 3e
       0.11078107 -0.096227996 -0.2912694 0.24877043
0002f0 2a 59 d5 bd 90 2b 84 3d 58 27 af 3c 52 6e e4 bd
       -0.10417397 0.064536214 0.021381065 -0.111538544
000300 db af 40 be 1a 08 3b 3e a8 21 25 3e 87 01 93 be
       -0.18817084 0.18264809 0.1612612 -0.28712103
000310 f0 ec a7 3c 5a 1d 4f 3e 43 7c 2e 3e 9a a7 a8 be
       0.020498723 0.2022604 0.1703959 -0.3294037
000320 e2 fd 8f be c1 2a 83 bd 13 e7 1a be 91 a1 31 3e
       -0.28123385 -0.06404639 -0.1512721 0.17346789
000330 09 06 1b be 38 6c 07 3e f1 30 6d bd 00 31 60 3d
       -0.15139021 0.13224876 -0.057908002 0.05473423
000340 44 47 3e 3e a4 25 28 3e 4c a1 c5 3d 4d e4 07 3e
       0.18581873 0.16420609 0.096499056 0.13270684
000350 ac 36 f7 bd 4e d1 24 3e 39 71 06 3e 58 12 e9 bd
       -0.12070975 0.16095468 0.13129129 -0.11380452
000360 9d 11 46 3e df 77 62 bd 50 61 db 3d 94 e9 a3 bd
       0.19342656 -0.0552901 0.1071192 -0.08003536
000370 41 2c 0e 3d 3b 47 34 be 8b 36 f3 3d 4a 4d 34 3d
       0.034710173 -0.17605297 0.118756376 0.04401902
000380 56 ae 08 3e c3 42 49 3d 25 25 45 3e a8 01 93 bc
       0.13347754 0.049135935 0.19252451 -0.017945126
000390 b9 43 4a be d3 eb 1c bd 29 6e a9 3d f8 35 22 3e
       -0.19752397 -0.038310837 0.082729645 0.158409
0003a0 4b 92 cf bd 1e 92 1d be dd 85 95 bd f1 45 f3 3d
       -0.10135325 -0.1538777 -0.07300923 0.11878575
0003b0 35 ff 96 3c 2c f5 11 be dd 99 95 be 51 69 56 3e
       0.01843224 -0.14253682 -0.2921895 0.20938613
0003c0 af ce 89 bb dc 64 1f 3e 90 99 d1 3d 07 cd 6f 3e
       -0.004205547 0.15565819 0.10234368 0.23418055
0003d0 90 9a 92 be a2 dc 92 3d fc 4c 33 3e 7a fa 58 be
       -0.28633547 0.071709886 0.17509836 -0.21189299
0003e0 5f f9 fb 3d 30 11 25 3d 24 4b 86 bc a9 a9 b7 3d
       0.12303423 0.040299594 -0.016393252 0.08967907
0003f0 1e 9c 87 be d1 98 b3 bd 83 fb 5d 3e 35 2e fe bd
       -0.26486295 -0.08769382 0.21677975 -0.12411157

mlp.0.bias f4 [512]
000000 b9 ea aa 3d fb c7 aa 3d 4c bd f5 bd b8 28 51 3c
       0.08345551 0.083389245 -0.11998996 0.012766056
000010 5b 6b fb bd 2f bc 23 be ab 59 b9 bd 0d 7e 1b 3d
       -0.12276336 -0.15989755 -0.09050306 0.03796201
000020 9a 7c 3d 3e 41 a6 52 3d dc 39 2d be 82 ab 15 3e
       0.18504563 0.051428083 -0.16916603 0.14616206
000030 12 97 04 3d 47 5b cf 3d b8 ca fb bc 43 ee 3d be
       0.032370634 0.10124832 -0.030736312 -0.18547921
000040 57 90 86 bc 57 9b af 3d 33 a7 f3 bd 6c d7 35 be
       -0.016426248 0.085745506 -0.11897125 -0.17757958
000050 25 46 05 be 00 5f 87 be ef 04 71 bc 47 58 c7 bc
       -0.1301504 -0.26439667 -0.014710649 -0.024334086
000060 6c b3 87 be 8a 58 84 be 37 c3 9a 3e 01 5b a1 bb
       -0.26504076 -0.258488 0.30227062 -0.0049241786
000070 1c 55 45 be 19 a7 ee bd ec 7e 0f be 26 eb 40 bd
       -0.19270748 -0.11652965 -0.1401326 -0.047099255
000080 5d ce 80 bd d4 0a ca 3d 44 60 41 3d b8 62 cc bd
       -0.06289361 0.098653466 0.047210947 -0.099797666
000090 1c c9 0d 3e dd d3 15 3c 22 d3 49 be 04 5d 3d bd
       0.13846248 0.00914475 -0.19709447 -0.046231285
0000a0 ec 2c 6f be d8 54 a9 3d 05 0c 64 be c9 b5 91 bd
       -0.2335698 0.08268136 -0.2227021 -0.07114751
0000b0 42 a3 a9 3d cd fd 27 bc f9 f8 a9 bc 2c 9a 5c bc
       0.08283092 -0.010253382 -0.020748602 -0.013464492
0000c0 32 a8 58 bd 5f c7 ad 3d d1 71 b2 3d da d7 68 bd
       -0.05289478 0.08485293 0.08713115 -0.056846477
0000d0 f1 c3 f1 bd 46 76 bd bc 98 f3 1e be 55 6c 5b be
       -0.11804951 -0.023127686 -0.15522611 -0.21428044
0000e0 81 2e 55 be 5a db 63 3d 45 64 17 3e f2 d8 e9 bd
       -0.20818521 0.05562911 0.14784344 -0.11418332
0000f0 de d1 83 be b5 8d 0a bd 0b 5c 02 3e 41 56 5a be
       -0.25746053 -0.03382655 0.12730424 -0.21321966
000100 53 9f f6 3c 4d a0 76 be 08 3b c6 3d fd 30 bb bd
       0.030105269 -0.24084587 0.09679228 -0.09140203
000110 f2 d5 f7 3c cf c5 5b be a2 00 ed bd 08 4f 28 bd
       0.030253384 -0.21462177 -0.11572386 -0.041090995
000120 90 22 14 be f2 95 dc bd 05 8b e2 3d 04 d1 0a 3e
       -0.1446631 -0.10770787 0.11061672 0.13556296
000130 e9 fa 04 be fa 62 27 3e c8 ac 3c bd 68 2e c9 bd
       -0.1298634 0.1634635 -0.046063215 -0.098233044
000140 d0 5b 58 be 2d 8b 0c be 24 a7 3f be 7b a1 e6 bb
       -0.21128774 -0.13724966 -0.18716103 -0.007038293
000150 3d d1 12 be 6f 42 42 3d f3 81 ea 3c 0c e2 28 3d
       -0.1433763 0.047426637 0.028626418 0.0412312
000160 56 05 e1 3d 4c ab 09 3d 47 99 1b 3e db 28 5b bc
       0.10987346 0.033610627 0.1519519 -0.01337644
000170 cc bb 63 bd 39 bb 94 bd 0f 64 c2 bd 61 8b 95 be
       -0.05559902 -0.072622724 -0.09491741 -0.292079
000180 d8 65 56 3d 8c 8d 6c be 58 65 56 3c 97 15 0c bd
       0.05234322 -0.23100871 0.013085686 -0.034200277
000190 82 d1 58 be e0 1b 0a be f1 99 bb bd 07 90 e7 bd
       -0.21173671 -0.13487196 -0.09160221 -0.11306768
0001a0 aa 1e 63 be 84 68 27 be 70 31 fb 3d da 07 71 3d
       -0.22179666 -0.16348463 0.12265289 0.05884538
0001b0 3a 25 30 be d7 27 00 bd bd e7 25 3d a5 cf a9 bb
       -0.17201701 -0.031287994 0.040504206 -0.005182224
0001c0 2a 99 96 3d 2d aa a7 bd b2 62 27 be 4b 0e 55 3e
       0.073534325 -0.08186755 -0.16346243 0.20806234
0001d0 a1 10 ed bd 50 a5 90 3c cf 4f 75 bd 9e 9d ec 3d
       -0.11575437 0.017656952 -0.059890565 0.115535006
0001e0 a2 63 c6 3d 1d 14 18 3e c9 e8 15 be c7 17 6c 3d
       0.09686972 0.14851423 -0.14639582 0.057639863
0001f0 31 cf e7 3d 4d b3 89 3d b4 da a6 be 8f 87 f9 bc
       0.113188155 0.06723652 -0.32588732 -0.030460147
000200 14 33 0e 3e 80 38 a7 3d f4 80 1c 3e 0c 4a 64 be
       0.13886672 0.081650734 0.15283567 -0.22293872
000210 35 de e0 3d 2d 3e 45 3e 09 3c 54 bd 02 c2 f5 bd
       0.10979883 0.19262 -0.051815066 -0.11999895
000220 a3 8b 0a be 9b 31 54 be df ca 1c be 80 86 b4 3b
       -0.1352983 -0.20722048 -0.15311764 0.0055091977
000230 9c c8 dd bd 9b b8 c2 3d 49 cb 88 be d1 d9 72 be
       -0.10829279 0.09507867 -0.26717594 -0.23715903
000240 b9 b2 9b 3c db 32 30 3e fc 3a ab 3d 1e df 36 be
       0.01900612 0.172069 0.0836086 -0.1785855
000250 8a e3 83 be 81 6e 2d bd 77 8e 93 3d a8 24 47 be
       -0.25759536 -0.042341713 0.072049074 -0.19447577
000260 8d b2 49 3d a4 a0 87 3d f2 8f 18 be 5b a3 24 be
       0.049242545 0.06622437 -0.14898661 -0.1607794
000270 96 b9 84 bc d2 fe 70 3d db 68 d9 3c ac 99 48 3e
       -0.016201776 0.058836766 0.026539257 0.19589871
000280 2d 10 12 bd b7 db 5d 3e 6d 57 fa bd f7 1f 93 3d
       -0.035659958 0.21665846 -0.122237064 0.07183831
000290 aa f9 e5 3d 3e 30 a4 bd 34 dd a2 bd 6c 79 37 bd
       0.1122926 -0.08017014 -0.079523474 -0.04479353
0002a0 1a e4 70 be b2 32 1f 3c fe f2 cd bd dd 91 92 3c
       -0.23524514 0.009716677 -0.10056113 0.017891819
0002b0 e7 a7 08 be e4 01 0c bd 08 1a 1d 3e b0 5e 76 be
       -0.133453 -0.03418149 0.15341961 -0.24059558
0002c0 66 cf 45 be 12 77 2c be 2a 59 cf 3d 7c ef 3f be
       -0.19317397 -0.16842297 0.101244286 -0.187437
0002d0 2c 47 f1 bc d7 90 bb bd 83 3c 42 be fb 83 13 be
       -0.029452883 -0.091584854 -0.18968396 -0.14405815
0002e0 21 70 f2 bd 52 61 51 3e f7 21 ee 3d c7 2c 28 be
       -0.11837793 0.20447281 0.11627572 -0.16423331
0002f0 4f 9d bb bd e5 7d a2 bb 84 b9 66 bd 0b b1 97 bd
       -0.091608636 -0.0049588555 -0.056329265 -0.07406815
000300 01 07 5d be ec 2a 76 3e 43 db 2c bc 42 e3 62 be
       -0.21584703 0.24039811 -0.010550323 -0.22157004
000310 fb 08 a2 bd 83 18 a6 bd 87 99 25 3e e2 32 57 be
       -0.07911869 -0.08110144 0.16171847 -0.21015504
000320 23 a5 3b 3e 83 a2 d3 bd 43 71 42 be b8 81 7c 3d
       0.18324713 -0.10333731 -0.18988518 0.061647147
000330 11 de 16 3d d8 e9 17 be ef e1 15 3d 58 9a c6 3d
       0.036832873 -0.14835298 0.03659242 0.096974075
000340 bf 22 8e bb f9 35 e5 3c 2e c0 85 be 96 3b 7c be
       -0.004337638 0.027979838 -0.26123184 -0.24632105
000350 32 c8 18 be 28 3b 13 be 72 60 af 3d 45 35 4b be
       -0.14920118 -0.14378035 0.08563317 -0.1984454
000360 bb 75 27 be e9 99 55 3c bd f9 71 be f2 d5 4e bd
       -0.16353504 0.013037183 -0.23630424 -0.050497003
000370 9d 93 d2 3d 8e d0 00 3e 70 71 9f 3d 5a 20 bc bd
       0.10282061 0.12579557 0.07785308 -0.09185858
000380 93 17 02 be 04 3d 2c be f9 c2 87 3d a8 33 dc bc
       -0.12704305 -0.1682015 0.06628985 -0.0268801
000390 49 a6 06 be b0 ec 6d 3e 65 fc 2a 3e f9 d9 4b be
       -0.1314937 0.2323482 0.16697843 -0.19907369
0003a0 df 60 4e 3d a0 54 ae bc 79 87 9a bc 3e 9e 39 3d
       0.050385352 -0.021280587 -0.018863427 0.045316927
0003b0 b7 79 5f be fc 23 db 3d b4 9d 4e be a2 a3 9f bd
       -0.21823774 0.10700223 -0.20177346 -0.07794882
0003c0 9f 0f 8e bd cc e0 25 3e 3b 72 4d 3c 38 01 56 bd
       -0.06936573 0.16199034 0.012539442 -0.052247256
0003d0 8e ac 94 3d 8f 9c ff bd ff 40 3e be ae a4 0c 3e
       0.07259475 -0.12481033 -0.18579482 0.13734695
0003e0 ad 9b b0 3a 48 f1 1c 3d 25 dd 09 3e 8b aa 18 3d
       0.0013474129 0.03831604 0.13463266 0.037272017
0003f0 45 fd 0f be 4d 5f c7 bd bb 1d 1b 3e 0e 28 8c 3d
       -0.14061458 -0.09734974 0.1514806 0.06843577

mlp.2.weight f4 [256, 512]
000000 b4 4b c6 3c 41 20 31 bd a3 22 2f 3b 54 73 aa 3c
       0.02420602 -0.04324365 0.0026723526 0.020806946
000010 41 39 f0 3b 0f 76 f5 bc 37 94 32 3d ee 11 2f bc
       0.007331044 -0.029963521 0.04359838 -0.010685427
000020 a4 43 78 3b 75 8b d6 ba 58 1f 04 bd 02 1d 8a 3c
       0.0037882114 -0.0016368466 -0.032256454 0.016859535
000030 86 7d 0d 3c a6 0b 3d 3c 80 fc 94 bb 0e e0 23 bd
       0.008635884 0.011538422 -0.004546702 -0.040008597
000040 69 1f 72 bc b8 92 36 bc a0 b4 01 bd 32 7a 2c 3d
       -0.014777997 -0.011143379 -0.031666398 0.042108722
000050 58 1d 35 bc cd 28 96 bb 2c 4a 03 bd 04 cf 8d bc
       -0.011054359 -0.0045825006 -0.032053158 -0.017310627
000060 67 b8 56 bc 8e 16 19 3d fe 4a 90 bc d8 e5 d4 bc
       -0.013105488 0.037375025 -0.017613884 -0.025988504
000070 c6 5b 20 3d 19 52 2b bd c4 c6 10 bd 68 9d c8 bc
       0.039150022 -0.04182634 -0.035345808 -0.02448912
000080 28 40 94 bc 9b 7e 0d 3b a9 53 33 3d 1d b3 10 3b
       -0.018096998 0.0021590355 0.043780956 0.0022079416
000090 87 b3 3b bb d7 12 d8 b9 c9 96 0b bd cb 4c 7b bc
       -0.0028640942 -0.00041212767 -0.034079347 -0.015338133
0000a0 d2 7f 3b b9 10 33 4b 3c 9a 42 2c 3d 73 fa a0 3c
       -0.00017881326 0.012402311 0.042055704 0.019650673
0000b0 e5 9b ce 3b 09 71 b1 bc 37 55 c0 bc 55 3d 02 3d
       0.006305205 -0.021660345 -0.023478134 0.031796772
0000c0 ea 22 a4 bc 65 79 8e bc 4e fd f3 3b 6c 44 33 3d
       -0.02003618 -0.01739187 0.0074459678 0.043766424
0000d0 6a c1 c8 bc cb 5e 2e 3d 98 37 81 bc 70 1a 55 bb
       -0.02450629 0.04257087 -0.01577358 -0.0032516979
0000e0 5d bb f8 3b a3 7c 89 bb a8 4f d7 3c 2d 35 91 3b
       0.007590695 -0.004195766 0.0262831 0.004431388
0000f0 de 2f 5a bb 2f 89 49 3c aa 24 c5 3c e3 4d bc bc
       -0.0033292691 0.0123007735 0.024065334 -0.022986358
000100 63 07 f7 ba 01 97 fe 3b df ef 66 bc 40 8f d1 3c
       -0.0018846806 0.007769466 -0.014095276 0.025581002
000110 f3 51 2e bc c3 31 19 3d e7 0a 55 3c c4 05 07 bd
       -0.010639655 0.037400972 0.013003088 -0.032964483
000120 71 3a f9 bc ec f6 c2 bc 64 05 e1 bc 6c fd fa bc
       -0.030423375 -0.023799382 -0.02746839 -0.03063842
000130 7b 49 f9 bc 92 a0 17 bd 46 48 09 bd 45 bf 42 3c
       -0.030430546 -0.037018366 -0.03351619 0.0118864225
000140 4c 00 c4 39 59 a2 c6 bb c0 89 b1 bc 34 f7 d8 3c
       0.00037384254 -0.006061834 -0.02167213 0.026485063
000150 02 58 f7 bc 7b 5a 43 3a dc 10 20 bd c7 de 14 bc
       -0.030193333 0.00074521423 -0.03907858 -0.009086317
000160 9d be da 3a 7f b5 18 3d 86 65 df bc fe 21 c0 bb
       0.0016688887 0.037282463 -0.02727009 -0.005863427
000170 ac f3 03 3d 43 1d 28 3d 79 97 1d 3d a1 81 08 bd
       0.032214805 0.04104353 0.038474534 -0.03332675
000180 85 1c c7 3c 1f f5 fb 3c 66 69 e4 3b 3f 1a c7 3c
       0.024305591 0.030756531 0.0069705723 0.024304507
000190 72 5a 41 bb 15 f7 58 bc 73 3f 08 3d 89 1a b1 bc
       -0.0029503372 -0.013242503 0.033263635 -0.021619098
0001a0 73 4d 57 bc 94 23 12 3d 27 a6 56 3b 86 01 a2 bc
       -0.013141024 0.03567846 0.0032752843 -0.019776117
0001b0 18 af a5 bb 57 99 12 3d 97 5e 97 3c ac 55 00 3d
       -0.005056273 0.035790768 0.018477721 0.031331703
0001c0 a5 2f 02 bd 0a 13 c3 3c e3 70 ed 3b 6a d8 0c bc
       -0.03178372 0.02381279 0.007246123 -0.008596519
0001d0 8e 3d aa bb 1f ac 04 bd f9 f8 6f bc a1 4a cd bc
       -0.005195326 -0.03239071 -0.014646762 -0.02506
0001e0 23 7a c9 bc 0c 38 96 bb e7 fc 35 3c 12 0a 32 bc
       -0.024594372 -0.004584318 0.01110766 -0.010866659
0001f0 56 e8 f7 3c 29 e1 d8 bc 3c ea ef bb 8f df 6b bc
       0.030262154 -0.026474552 -0.007321624 -0.014396562
000200 4d 5a 7e bc ff 7b 2f bb c1 0a 95 3c 76 9b 12 3b
       -0.015524459 -0.0026776788 0.018193604 0.0022370494
000210 68 90 f6 3c de 3d 83 3b b6 85 2d bd 95 1c 20 bd
       0.030098155 0.004005178 -0.042363845 -0.039089758
000220 8f e4 00 bd c6 c7 ed bb 58 be 31 3c 3b 70 b3 3c
       -0.03146797 -0.007256481 0.010848604 0.021904102
000230 37 fe 34 3d b9 69 f2 3b 68 a0 18 bd 4e ab 92 bc
       0.04418775 0.007397857 -0.03726235 -0.01790395
000240 ca 7c 7b bc f7 e0 cb b8 bd 30 86 bc 87 37 9a bc
       -0.015349576 -9.721697e-05 -0.016380662 -0.018825306
000250 73 2b e4 bc b6 33 23 bc fc ea c3 3c fc 49 31 bd
       -0.02785275 -0.009961059 0.02391576 -0.043283448
000260 71 e2 28 3d eb a8 90 bc 14 0b 7b bb 67 ef e9 3c
       0.041231576 -0.017658671 -0.0038306164 0.028556539
000270 fe 05 8a 3c a8 8a d3 ba 8c 81 15 bc 2d 3c 27 bd
       0.01684856 -0.0016139345 -0.009125125 -0.040828872
000280 2c 5e 27 3d 2b 7c b2 bc 64 00 d4 bc 30 af 8f bc
       0.040861294 -0.021787724 -0.025879093 -0.01753959
000290 6c db 46 3c 60 ec 97 bb 43 ba b6 3c 26 cd f4 3b
       0.012137275 -0.0046363324 0.022305613 0.0074707447
0002a0 22 40 03 bd 52 26 b0 3a a8 57 e4 bc 06 b8 0f bd
       -0.032043584 0.0013439155 -0.027873829 -0.035087608
0002b0 9e 8c ce 3c ce e5 dc ba f9 ca 50 3c f8 cc 4b 3c
       0.025213536 -0.0016853155 0.012743705 0.012439005
0002c0 95 d7 01 bd 51 cb 8f 3b b6 86 f3 3c df 98 6f 3c
       -0.031699736 0.004388251 0.029727321 0.01462385
0002d0 b9 7f a8 3b ed 69 d4 bb c0 b2 a7 bb 88 f1 ec 3c
       0.005142179 -0.006482354 -0.005117744 0.028923765
0002e0 71 1e 8a bc e6 95 c1 bc f6 c5 f3 3c e5 98 49 39
       -0.016860219 -0.023631047 0.029757481 0.00019225811
0002f0 22 14 39 3b 9f af 05 bd bf cb 32 bd 1e 23 09 bd
       0.002824076 -0.03263819 -0.04365134 -0.033480756
000300 50 d1 0d bd 6d 1b 34 bd af 90 bf ba cf 7d 8d 3c
       -0.034623444 -0.043971468 -0.0014615263 0.017271904
000310 db 23 2d bd e5 be bc 3c fa 97 e9 bb f7 90 2c 3d
       -0.042270523 0.023040244 -0.0071287127 0.042130437
000320 7e 4a a8 bc 97 89 d6 3c 0a 27 06 3d 1b fc 39 bc
       -0.020543333 0.026188655 0.032752074 -0.0113516105
000330 d9 50 f5 bb 89 3e ca bb 20 28 81 3c 86 79 3b 3c
       -0.0074864444 -0.0061720056 0.015766203 0.011442548
000340 2f 50 b8 bc cf a0 02 bd f0 53 76 bc 88 21 37 ba
       -0.022499172 -0.03189164 -0.015034661 -0.00069858925
000350 75 16 3c 3c 7e c3 0e 3d 93 c1 8e 3a 5f a4 e5 3b
       0.011479964 0.034854405 0.001089143 0.00700812
000360 11 e6 3f bc 2b ce fa 3c 29 03 8f 3b fc 6b 85 bc
       -0.011712567 0.030615887 0.0043643904 -0.016286843
000370 b0 e4 b6 bc 57 7c af 3c e6 6c 0e bb bc 68 8c 3c
       -0.022325844 0.021421595 -0.002173239 0.017139785
000380 67 9a 72 bc 46 6a 27 bd 96 45 29 3d f8 ef 8a bc
       -0.01480732 -0.040872835 0.041326128 -0.01696013
000390 96 a5 bf bc 06 cf fb bc f7 1d bb bc e7 e9 05 bd
       -0.023394387 -0.030738365 -0.022841437 -0.03269377
0003a0 e9 51 98 bc 9b f7 cd 3c c8 d2 e4 bc 0d b1 40 3c
       -0.018593745 0.025142482 -0.02793254 0.011760962
0003b0 bc 0b 23 3d 36 35 fc 3c 28 86 8c bc 2e 22 13 3d
       0.039806113 0.030787092 -0.017153814 0.03592127
0003c0 24 d1 fa bb 21 8b 0e bc cd 8b f1 bc 53 a3 f3 3b
       -0.007654326 -0.008700163 -0.029485608 0.0074352412
0003d0 8f fc b1 3c f6 49 27 bd 38 3d 23 3d 8c c1 17 3d
       0.021726875 -0.04084202 0.039853305 0.037049815
0003e0 54 e4 1c bd 85 e3 a7 bc 5b 28 94 bc e8 00 35 3d
       -0.03830369 -0.020494232 -0.01808565 0.044190317
0003f0 0e d0 9a 3c 11 e9 fb bb d3 74 a5 3c e7 44 45 3c
       0.018898036 -0.007687696 0.020197308 0.012040353

mlp.2.bias f4 [256]
000000 8c 77 93 bc 0a 71 6e bd 25 56 07 3c 8d 27 4b 3c
       -0.01800134 -0.05821327 0.008260285 0.012399566
000010 a6 f0 75 bd c6 3b bd 3d 0b cb bd 3d 2e 87 aa bb
       -0.060043953 0.092399165 0.09267243 -0.005204103
000020 08 44 30 b5 c9 10 d8 bc b0 47 81 3d a1 9d a6 3d
       -6.566411e-07 -0.026375191 0.063125014 0.08135534
000030 77 a2 7f 3b c1 4f 32 bd c7 02 e5 3c 02 b9 8b 3d
       0.0039006749 -0.04353309 0.027955426 0.06822397
000040 43 74 7f bd 0e 16 12 3d 7a 50 a6 bc 6f d7 a6 3b
       -0.062366735 0.035665564 -0.020302046 0.0050915997
000050 9d 07 88 bc 01 31 3f 3d 20 a2 8f bc 87 70 52 bd
       -0.016605193 0.046677593 -0.017533362 -0.051376846
000060 73 d7 cd 3c 08 06 1a bd 03 63 29 3b 59 0e e6 bc
       0.025127148 -0.037603408 0.002584637 -0.028083013
000070 fa ad 26 bd cd d9 12 bd 4b 93 0e 3c 50 37 e4 3c
       -0.04069326 -0.035852242 0.00870211 0.027858406
000080 ac 8f 15 bd 58 a7 f3 3c 49 37 5a bc 02 52 ad 3d
       -0.03651397 0.029742882 -0.013318845 0.084629074
000090 23 ba 99 3d 36 05 42 bd 9e 01 9b 3d a8 c9 e3 bc
       0.07506206 -0.04736825 0.07568668 -0.027806118
0000a0 6b ca fb 3b 11 37 3c 3c 8b 12 cc 3d f7 5a 9d 3b
       0.007684042 0.011487738 0.09964474 0.0048021036
0000b0 6f e8 46 bc c9 19 b6 3c c4 c6 ef 3c 31 d0 83 3c
       -0.012140377 0.022229092 0.029269584 0.016090484
0000c0 c7 05 07 3d 52 64 b7 bc 93 dd 51 bd ad 1e 34 bd
       0.032964494 -0.022386704 -0.0512367 -0.043974567
0000d0 70 72 c1 3b 1c 9e 49 bd e2 6d a6 bc e8 fb 2c bd
       0.0059035346 -0.04922305 -0.020316068 -0.042232424
0000e0 fc 14 13 bd 16 e8 85 bd 72 90 19 bd 02 21 47 bd
       -0.035908684 -0.065384075 -0.03749127 -0.048615463
0000f0 f7 28 f3 3b 23 ff cd bc b3 13 0b bd 63 cd e1 3c
       0.007420655 -0.025146073 -0.033954334 0.027563756
000100 f4 5b 1c 3c 21 ed 9b 3c c1 73 ca bc 21 d2 2b 3c
       0.009543408 0.01903397 -0.024713399 0.01048711
000110 b6 17 e4 bc fa d6 e5 3c 78 98 4a 3c 63 c7 3d bd
       -0.027843338 0.02805661 0.012365453 -0.046332728
000120 5d 6f d6 3b d3 d1 1b 3c 79 7d 8b 3c 4e bf 1d bd
       0.0065440373 0.009510475 0.017027603 -0.03851252
000130 58 2f 2b bd 46 83 36 bc d1 db df 3c 72 8a 1c bd
       -0.041793197 -0.011139696 0.027326496 -0.03821797
000140 9b ea ac bc 88 ca d2 3a ba ae d2 3c d5 e0 a2 3a
       -0.021107962 0.0016082088 0.025718082 0.0012426624
000150 7c 31 a1 bc b0 8b 3a 3c 86 58 01 bd c3 14 34 3d
       -0.019676916 0.011385843 -0.031578563 0.043965112
000160 41 eb 95 3c 1c 0b 06 bd 95 00 9a 3d 12 e3 95 bc
       0.018300654 -0.03272544 0.07519642 -0.018296752
000170 eb 3c 4b 3b 34 01 a4 bc ae 68 02 3c 0f 28 07 bd
       0.0031011652 -0.020020105 0.007959528 -0.032997187
000180 df 56 a7 3c d2 d1 15 3d 19 f8 5c bc e5 6e a9 bc
       0.020427166 0.036577053 -0.0134868855 -0.020682761
000190 68 d3 73 3c 0a c6 c4 ba 5b ea 08 bd 4d 14 97 bb
       0.014881946 -0.0015012634 -0.033426624 -0.0046105743
0001a0 46 39 9c bc b1 d7 91 bc 8a e6 1c bc 75 7e 2e 3d
       -0.019070279 -0.017803045 -0.009576449 0.042601068
0001b0 1e c7 21 3d b4 2f 61 bb 3f ea 16 3d f3 2f 1a bd
       0.039496534 -0.0034360709 0.03684449 -0.037643384
0001c0 62 53 93 3b 0c a9 c2 bc cc e7 d0 bc bd cf 51 bc
       0.004496024 -0.023762248 -0.025501154 -0.012805876
0001d0 23 ff 32 3c ef ed b4 3c d3 be 93 bd 8b b6 0b bd
       0.010925087 0.022086112 -0.07214131 -0.034109633
0001e0 1c cb ce 3c 6b 27 70 3d be ef 2b bd 62 ea ff bc
       0.025243334 0.058631342 -0.041976683 -0.031239692
0001f0 f6 e8 85 3d 3f 86 e5 bc 1d 08 af 3a 2e 7c 52 3c
       0.065385744 -0.028018115 0.0013353858 0.01284699
000200 b1 3d 5e bc f7 9c 18 bd 59 59 b1 3d c5 70 09 bd
       -0.013564513 -0.03725907 0.0865962 -0.03355481
000210 21 b2 37 bd 52 36 aa 3d ce 10 bd 3c 42 57 7c bb
       -0.04484761 0.08311142 0.023079302 -0.0038504158
000220 1d 8b 8a bd f3 76 8a 3c 3b 4f 80 3c 91 f5 14 bd
       -0.06764815 0.016902423 0.01566278 -0.036367003
000230 18 8f 21 bc b3 2f bc bc 61 6c 9f 3a 7c c9 df bc
       -0.009860776 -0.022971964 0.0012163037 -0.027317755
000240 16 e2 a1 bc 47 61 be 3b 13 a8 39 bb f7 a8 09 3d
       -0.019761126 0.005809936 -0.002832894 0.033608403
000250 0b db 43 bd 05 5a b5 3c 94 d8 3b 3c c0 ac 94 3d
       -0.047816318 0.022137651 0.0114652105 0.07259512
000260 e4 2c 26 bc 2b 37 34 bc d3 60 7a bc 5d 40 4f 3c
       -0.010142539 -0.010999481 -0.015281874 0.012649623
000270 7b 0e bd bc 39 39 99 bc c4 70 0a bb 99 b6 c5 3c
       -0.023078194 -0.018704044 -0.0021124342 0.02413492
000280 89 6a 27 bd b1 fe 13 bd cc ae c8 bb 47 f5 91 3c
       -0.040873084 -0.036131565 -0.006124353 0.017817153
000290 17 fe e7 bc 85 25 d7 bc 2e 93 a2 3c 67 84 8e 3d
       -0.028319402 -0.026263008 0.019845571 0.069588475
0002a0 16 da 80 3d 0f e5 22 bd 92 7c 8a 3d 05 44 8e bc
       0.062915966 -0.03976923 0.06762041 -0.017366419
0002b0 79 c6 52 bd 40 12 33 bd 02 f5 8b 3c b6 bd bb 3c
       -0.05145881 -0.043718576 0.017084602 0.02291761
0002c0 55 d4 a2 3c 94 99 a9 3c fc 3d a6 bc c4 9c ee bc
       0.019876638 0.020703115 -0.020293228 -0.029127486
0002d0 9a 7f ff 3c 92 6c df bc 13 d1 dd 3b 9c 49 62 bd
       0.031188775 -0.02727345 0.0067693084 -0.05524598
0002e0 f0 61 b6 bc a9 73 00 bd 4f b4 20 3d fd 74 22 bd
       -0.022263497 -0.031360302 0.039234456 -0.03966235
0002f0 60 e2 9d 3d 8a d2 03 bc 16 24 67 3c 32 31 24 bd
       0.07709193 -0.008045802 0.014107725 -0.04008598
000300 38 b1 23 3b 0e e5 33 bd 4b 09 b2 3b 01 54 32 3c
       0.0024977457 -0.043919615 0.0054332367 0.010884286
000310 cc ed dd bc 61 5d 92 3c 4b 73 a9 3c d6 78 09 bd
       -0.02709093 0.017866792 0.020684859 -0.033562504
000320 d3 df 00 3c 75 b2 86 bb db 41 3d bd fa ec 91 3d
       0.007865864 -0.004110629 -0.046205383 0.07125278
000330 9c b1 e6 bc 02 04 ed bc 62 45 98 3c f7 69 ed bc
       -0.028160863 -0.028932575 0.018587772 -0.028981192
000340 c5 7e 0b bd 71 0f e5 3c 7d db 06 3d 48 3c f2 bc
       -0.034056444 0.027961465 0.032924164 -0.02956976
000350 09 9b e1 bc b3 38 ab bc 3f 4c c0 ba 55 8f 1b bd
       -0.027539747 -0.02090106 -0.0014671161 -0.03797849
000360 5e 51 06 3d 87 92 e3 3c b6 a5 0e bd cb d6 97 3c
       0.03279244 0.02777983 -0.034826003 0.018535038
000370 42 6f 97 3c 6e be 9c 3c 2f 11 08 b9 f2 ed 16 bc
       0.018485669 0.019133773 -0.00012976372 -0.009212004
000380 95 66 9d 3c 75 ab d9 3d 43 35 32 bd 62 52 9d 3b
       0.019213954 0.10628406 -0.043507826 0.0048010806
000390 37 a4 c2 3c ae 4c 1e 3d a4 0a f8 bc 30 bd ad bc
       0.023759944 0.038647346 -0.030278511 -0.021208376
0003a0 0b 1e de 3c ed fd 48 bd aa bf 96 bd 98 94 39 bd
       0.027113935 -0.049070287 -0.07360776 -0.045307726
0003b0 ea 52 26 bd e6 7e f1 bc 62 45 e7 3c a1 2d da bb
       -0.040606417 -0.029479455 0.028231326 -0.0066582714
0003c0 be 37 1d bd 0d 95 85 bd 5a ff c9 3d 4b a7 62 bd
       -0.038383238 -0.0652257 0.098631576 -0.055335324
0003d0 f3 77 0a bd 6c e6 0c bc e7 6a aa 3c 1c ac 46 bc
       -0.0338058 -0.008599859 0.020802928 -0.012125995
0003e0 cd f5 d8 bb a6 ba a1 bc dc 34 fc 3b c9 10 8f 3c
       -0.0066210986 -0.019742321 0.007696731 0.017464058
0003f0 fd a6 22 bd cc cf 17 bd 29 88 70 3c 10 13 0d bd
       -0.039710034 -0.037063405 0.014680901 -0.034442008

mlp.4.weight f4 [1, 256]
000000 a0 09 12 bd de b1 e0 bc 86 61 6f bb 30 22 b3 3b
       -0.03565371 -0.027428564 -0.0036526634 0.005466722
000010 d3 19 e2 3c 0e d9 2f bd 78 9e 15 bd 10 9e 90 3b
       0.027600205 -0.04293161 -0.03652808 0.004413374
000020 6c 8c b0 bc e3 41 ac bc a8 ef 10 bd c2 9a b2 bc
       -0.021551333 -0.021027511 -0.035384804 -0.02180231
000030 96 23 0e 3c 21 11 e5 bc a5 50 2c 3d 6d f6 42 bd
       0.008675477 -0.02796227 0.042069096 -0.04759829
000040 84 fa a1 3c 2b 8a 66 bb 85 b9 24 3d 52 14 0e bd
       0.019772775 -0.003517757 0.040215988 -0.034687348
000050 52 80 36 3d 4f b3 33 bb e8 43 11 bc 9f 97 3b 3d
       0.04455597 -0.0027420109 -0.008866288 0.045798894
000060 a0 c5 87 3c 04 05 02 bc bf 2f 56 3d 0c 70 e5 3c
       0.016573727 -0.007935766 0.052291628 0.02800753
000070 42 d8 2f 3b 99 45 17 3c b4 e7 4e bc 87 4d e9 b8
       0.002683178 0.009232902 -0.0126284845 -0.000111247464
000080 a4 1f d3 3c fc 62 1d bd 94 7a 09 3b f5 a5 06 bd
       0.025771923 -0.038424477 0.0020977603 -0.032873113
000090 82 24 fd 3c c7 72 dd 3b 61 1c 10 bd bd cd 3b 3c
       0.030901197 0.0067580673 -0.035183314 0.011462626
0000a0 b2 a0 01 3d 5b 74 35 3d 95 da a4 bd d0 30 81 3c
       0.03164739 0.04430042 -0.08049504 0.015770346
0000b0 f0 fd 53 bc 2a 2b 57 3c 70 da 54 bd a6 39 e5 bc
       -0.012938961 0.01313285 -0.05196613 -0.02798159
0000c0 4a 62 e3 bc 18 d4 ad bc fd 2f fc bb 73 db 8f 3c
       -0.027756829 -0.021219298 -0.0076961503 0.017560696
0000d0 20 d2 4f bb e2 e7 0b 39 88 a4 e2 3c e0 0a a8 3b
       -0.0031710938 0.00013342456 0.027666345 0.0051282495
0000e0 fc 4b 08 3d c1 bf e2 3b 95 15 58 3c 0b f7 67 3b
       0.03327559 0.0069198315 0.013188739 0.0035395052
0000f0 d2 22 5a bc ed 92 21 bb 9e f6 a1 3c 5a ea 71 3c
       -0.013313966 -0.0024654225 0.019770917 0.014765346
000100 be 45 7e bb b7 39 04 3d 65 59 6c 3c fd 25 90 3b
       -0.0038798894 0.032281604 0.01442561 0.00439906
000110 06 f5 c1 3c 11 fe e3 bc 7c b3 ab ba 0e 72 aa bb
       0.023676407 -0.02783111 -0.0013099755 -0.0052015847
000120 3d 6f 30 bb b1 42 5f 3c 94 5c 86 3b aa 82 20 bd
       -0.0026921772 0.01362674 0.0041003916 -0.03918711
000130 00 12 78 3a f8 35 78 3b 7b be ee 3c 32 69 4c 3d
       0.00094631314 0.0037873965 0.029143563 0.04990501
000140 60 89 96 3c 37 c6 79 bc 3e 52 01 3c 9a b2 8f 3a
       0.018376052 -0.015245012 0.007893143 0.0010963262
000150 4c a5 ad 3b b4 0a 84 3b 76 1b b6 3c 4d f8 d7 3d
       0.005299246 0.004029596 0.022229891 0.105454065
000160 5b a6 3f bd 2b 67 6f 3b 52 bc 45 bd 10 74 ae 3c
       -0.04678951 0.0036529999 -0.0482753 0.021295577
000170 d4 a2 f7 bc 60 e5 fc bc db f2 fd 3c 88 93 e4 b9
       -0.03022901 -0.030871093 0.030999592 -0.00043597468
000180 32 54 52 3c bb 61 a2 bb f8 93 35 bd 3d 7a dc 3c
       0.012837457 -0.004955498 -0.044330567 0.026913757
000190 6d 00 ae bc 76 6d 8a 3b 1a 9b 87 3b cf 0b 5a 3d
       -0.021240437 0.0042244745 0.0041383626 0.053233918
0001a0 08 d9 bb 3c 1b d0 fb ba 70 21 0e 3c c9 c7 60 3c
       0.022930637 -0.00192118 0.008674964 0.0137195075
0001b0 78 69 db 3a 3d 55 82 3a 18 10 40 ba 36 52 67 bd
       0.0016739806 0.0009943616 -0.0007326617 -0.056474887
0001c0 7e 95 a1 bb 51 f0 18 3c bd ab 3f 3c 05 7e 72 bc
       -0.004931151 0.00933464 0.01169866 -0.014800553
0001d0 d5 49 70 bb 93 ac 2b 3d d6 8f 0a 3c e3 6e 2a 3d
       -0.00366651 0.041912626 0.008457145 0.041609656
0001e0 9b f4 a3 3d 67 d9 fc bc 0b 4b b5 bc b8 fa 0c 3d
       0.08005639 -0.030865384 -0.02213051 0.03441879
0001f0 c2 09 15 bd 24 22 76 bc 7d 3c 26 bb f2 40 1f 3a
       -0.03638626 -0.015022788 -0.0025365644 0.0006075046
000200 74 be f6 3b f0 79 ce 3c e0 97 2b bd ac d6 59 bd
       0.007530028 0.025204629 -0.041892886 -0.053183243
000210 4c 43 3b 3d c7 fa 40 bd 85 7a 1b bc cb ae 27 3d
       0.045718476 -0.04711416 -0.00948966 0.04093818
000220 16 16 13 3d ca 31 61 3b 7c 68 4c bd f9 04 71 3b
       0.035909735 0.0034361952 -0.04990433 0.0036776646
000230 f4 e6 a0 bb e2 a5 ae bb e1 ce 07 3c ce 55 32 bc
       -0.0049103443 -0.0053298334 0.00828907 -0.010884715
000240 39 8b 37 3d 73 74 e0 bb 9b d0 94 bb 61 69 e3 bc
       0.044810507 -0.0068498193 -0.0045414693 -0.02776021
000250 99 47 2f 3d 19 5c 49 3b 8c 18 33 3c 57 67 2a bd
       0.04279289 0.003072506 0.010931145 -0.04160246
000260 27 c2 46 3d 13 36 08 3c 2d 54 14 39 df 34 3c 3c
       0.048525 0.008313674 0.00014145738 0.011487215
000270 bb 32 82 3c a0 50 ce 3b ce c4 6e bb cb 13 34 bd
       0.01589333 0.0062962323 -0.0036433223 -0.04396419
000280 83 1a da 3c 2b 48 be bb d0 51 ea bc bc 50 cf 39
       0.02662397 -0.005806943 -0.028603464 0.00039542268
000290 dd 6a 90 3c d3 aa bb ba 2e fc c1 3c b2 2d 9f bd
       0.017629081 -0.0014317877 0.023679819 -0.077723876
0002a0 4c 3b d7 bc 4a f2 ce 3a c3 7a 5b bd 9c 46 f4 3c
       -0.026273392 0.001578876 -0.05358387 0.029818825
0002b0 24 15 b9 bc 9c 25 3f 3d a7 4c 52 3c d4 41 05 3b
       -0.022593088 0.046666726 0.012835658 0.0020333426
0002c0 85 9b 25 3d c3 da 10 3d 88 3f 1d 3c 70 58 e1 3c
       0.040431518 0.035364877 0.009597667 0.02750799
0002d0 03 bc 39 bd ed 94 d5 3b 49 da 88 bc 1f 80 3a 3c
       -0.045345318 0.0065179975 -0.016705649 0.0113830855
0002e0 1f fe 99 37 30 34 22 bb 9b a6 b0 3c aa eb c7 3b
       1.8357356e-05 -0.0024750344 0.021563819 0.0061010914
0002f0 3b c6 1e bd 2a 86 5f 3b fc 7b ac 3c 16 c2 b7 bb
       -0.038763266 0.0034107068 0.021055214 -0.0056078536
000300 a1 91 00 3b 1a 8b 3a 3d ea 45 ba ba a2 ad 8d 3c
       0.0019618052 0.045542814 -0.001421151 0.017294709
000310 bc 55 af bc 04 22 ab bc 33 86 3f 3c d8 92 92 ba
       -0.021403186 -0.020890243 0.01168971 -0.0011182679
000320 d1 fc 44 3c ea b9 0c 3d 49 c1 12 3d f2 44 1b bd
       0.012023167 0.03435699 0.035828862 -0.03790755
000330 97 e9 49 bd 05 0f 9e bb ff 1e 28 3d 9d df 23 3c
       -0.049295034 -0.004823568 0.041045185 0.010002044
000340 88 69 50 bd 83 a1 28 bb 15 a2 ca 3b 56 ba 3f 3c
       -0.050881892 -0.0025731034 0.0061838725 0.011702141
000350 a8 58 f7 3c 67 1a 22 3d 51 c9 86 ba a2 b0 41 bd
       0.030193642 0.03957596 -0.0010283386 -0.04728759
000360 f8 28 fd 3c 1e 4a 08 bc 44 a4 76 bd 88 86 54 3a
       0.030903324 -0.008318452 -0.06021525 0.0008107205
000370 0b e9 25 bd b4 2b 33 3b bb ab 1d bc 7e f7 15 3c
       -0.04050545 0.0027339282 -0.009623463 0.009153245
000380 b0 27 2c ba 5f 9b 8d bd ca f5 0d 3d af 6d 2d 3c
       -0.0006567193 -0.069144 0.03465823 0.010585233
000390 70 d6 27 3d d5 ea 2d 3b 10 04 a0 bc bf c0 37 3d
       0.040975988 0.0026537676 -0.019533187 0.04486155
0003a0 dc d2 b7 bc a3 86 c0 3c ee 08 a4 3c 4f fa 49 3d
       -0.022439413 0.0235017 0.02002379 0.04931098
0003b0 dd b3 98 3c 44 20 73 bc e4 cb 60 3d 4c a2 64 bb
       0.018640453 -0.014839236 0.054881945 -0.0034886776
0003c0 00 78 2b bc 8b aa aa 3c d9 15 5b bd cc 81 26 3d
       -0.010465622 0.020833274 -0.053487632 0.040651128
0003d0 29 bb 05 bc ee b4 1e 3d d1 96 2a 3c d3 96 cd bc
       -0.008162298 0.038746767 0.010411934 -0.025096333
0003e0 1a a7 1a bc f1 eb 9b 3c fa 83 64 3d fd 64 9c ba
       -0.009439254 0.019033404 0.055789925 -0.0011931952
0003f0 80 b9 82 bc ab e5 d8 bc c2 78 eb bc 41 ad 48 3c
       -0.015957594 -0.026476702 -0.028744105 0.012248338
