results/TD3/checkpoints/model_1000_actor.pth (torch, 554335 bytes, 6 tensors)

mlp.0.weight f4 [512, 10]
00000000: a86e 973d adfc 81be 4d8e 503e 7edb 11be
00000010: 3a03 1c3e 0953 45be bf68 91be 6173 e7bb
00000020: 1207 5b3e 1053 87be bb9d 333c 0bdb 9dbd
00000030: 5a92 0dbe 60fb 083e 2b22 2abd e1a0 87be
00000040: 7015 353e 05fa 9bbe 6afd 853e 45b7 5fbe
00000050: 0f61 47bc 72e0 873e 0432 b63d da96 f33d
00000060: 6f19 8dbe ae42 cdbd f8da 8abe 333b b23d
00000070: 2db8 b0bd f6e0 0bbd f8fe 923e eab5 50be
00000080: 125a 87be 9dc8 2fbe 3ec7 86be b541 8d3e
00000090: 18b5 0e3e 3ee3 48be 3988 1f3e aa44 773e
000000a0: d636 093e ff4b 983e 1e98 e3bd 0e13 e03d
000000b0: f77c 4d3e d6fb 54bd 5740 5d3e 9d65 133e
000000c0: 70c2 013c 2e6d 5f3e 9be6 00bd 49e3 ca3d
000000d0: 70cb 4f3d 06c0 3abe ab30 8c3d ee3b b5bd
000000e0: 6f54 9e3d 0967 c53d eb02 6d3e b3db 953e
000000f0: 6bbe 0c3e 5777 8abe 603b 0bbe 6ad1 97be
00000100: 7609 ea3b 4cfd 34be 0653 423e 32ef 79be
00000110: 66ae eb3d 9d82 f3ba 1caf b93c 5dab 463d
00000120: 55dc 2a3e 27e0 d43d 2c1a 933e 6f72 183d
00000130: a2f8 533d 510a 89bd 776c 32be 7aca 7b3e
00000140: f5c4 f2bd 0e2e 3cbe 4391 593e 785f 5ebe
00000150: bbcf 543e 48e3 4d3e 64b4 123d c623 a13e
00000160: d990 9b3d 2214 ce3d d30e 8e3d 8535 59be
00000170: f519 15ba 7d96 d8bd e02f 1fbe 4ba0 77be
00000180: 74ad bbbd 6d2e 043d 1a02 76bd 4b07 783e
00000190: a510 953e f189 96bd c0f6 93bd 8242 173e
000001a0: 053c d23d 63c9 9a3e 13f6 47be a340 8e3e
000001b0: 79eb 8dbd c2e2 aebe a8c2 7e3c 5647 19be
000001c0: b415 d03d b0f8 71bb 4a22 ed3d 6cc0 723e
000001d0: 0074 9f3e be5f 88be d546 303e 43a6 833e
000001e0: 9360 7c3d de78 69bd a77e 8f3e f45f 87be
000001f0: f02b 3ebe 8b87 143e 089d 99be a08d 9dbe
00000200: 19f6 233e 74d0 633e 2580 46be 4d0d 93bd
00000210: 8128 08be 5185 823d 265f 713e 7a65 8dbe
00000220: a6ce 673e d6fc 9d3e c990 94be 3c86 2ebe
00000230: 4236 ec3c e912 aabd 288e 963c 5d84 bebc
00000240: 8b64 89be 7973 51be f934 98bd 49b5 0fbe
00000250: 5692 333e 0ec5 bf3d 56d4 d4bd f6f9 8abe
00000260: ac51 4cbe 8fe0 09be 4d9c 21bc 5fee 11be
00000270: 65eb 7dbd 6cd8 053e 4ffe 243e 20a3 37be
00000280: ef44 cbbc 9d1d 523e bf3c 283d 67a9 453e
00000290: 9a03 eebc 7169 91bd 6c3f 5dbe 67a7 873e
000002a0: 42ce 4d3d 5e3a 61be 0d83 8a3e 67b3 123e
000002b0: 6ba5 25be a005 aebe 22ed c9bd 3e14 993d
000002c0: bf88 f4bd 822a 46bd 7ec0 f4bd 23a7 583e
000002d0: b490 7bbd 2372 933e e7d9 b9bd ac45 843e
000002e0: 9a19 3abe e3af 6dbe 0d65 513d a1db 3b3e
000002f0: 63a7 49be bf1b c83e bacf 6c3e 5a74 2cbd
00000300: 494d 38be 193f 973e f945 9abd 1ccb 633e
00000310: bdd0 dc3d c978 6e3e 754c 7e3c 76d0 013e
00000320: 446d 7d3e ca34 d1be b34b 433e 9d11 c9bd
00000330: ad62 f93c 528d 063e d4b8 12be 0925 053e
00000340: 3952 7e3e c182 3a3d 4840 88be 4191 3dbe
00000350: 498c 1e3d 5d7e 403e 5b93 b73e a286 fabd
00000360: 9e7e 88be 7b76 1c3e 32bc b6be 6685 15be
00000370: d513 2d3e 6ed8 f93d cde5 7e3e 3d77 3fbd
00000380: 0840 c9bd eb11 833e bfac 253e 44b1 453d
00000390: c95e a3bd 6f42 4ebe 1a35 76be 336c 9e3e
000003a0: a9d1 31be da51 bc3e ce41 0a3e ea36 95be
000003b0: 2494 53be a171 a93d e352 133e 4a0b 1e3e
000003c0: 8763 babc 51d8 34be 9953 9abe 4c69 86bd
000003d0: 7297 ed3d efa1 e2bd b260 393e bf67 6fbd
000003e0: 288f 95bd afb3 bcbd 8934 2b3e 1bd0 b93d
000003f0: fa7b 80be 67ac 693e 7d94 b43d eea9 a7bd
0.07394153 -0.2538809 0.20366783 -0.14243886 0.15235606 -0.19269957 -0.28400227 -0.007063315
0.21389416 -0.2643056 0.010962899 -0.07707795 -0.1382536 0.13377142 -0.04153649 -0.26489928
0.17683959 -0.30464187 0.26169902 -0.21847256 -0.012169137 0.26538426 0.088962585 0.11894007
-0.27558467 -0.10022484 -0.27120185 0.087026976 -0.08628879 -0.034150086 0.2871015 -0.20381895
-0.26435906 -0.17166372 -0.26323885 0.27589193 0.1393627 -0.19617936 0.15579309 0.24147287
0.13399825 0.2974548 -0.111129984 0.109411344 0.20067202 -0.051997982 0.21606575 0.14394231
0.007919893 0.21818992 -0.031469923 0.099066325 0.050731122 -0.18237314 0.0684522 -0.08849321
0.07730948 0.09638793 0.23145644 0.2926918 0.13744514 -0.27044174 -0.13596869 -0.29651958
0.007142241 -0.1767475 0.18976983 -0.24407652 0.11507873 -0.0018578355 0.022666506 0.04850327
0.16685612 0.10394316 0.28730905 0.037218507 0.051750787 -0.06691421 -0.17424189 0.24588957
-0.11853973 -0.18376943 0.21246819 -0.21716106 0.20782368 0.20106232 0.035816565 0.31472605
0.07595987 0.10062434 0.06936421 -0.21211822 -0.0005687767 -0.10575578 -0.15545607 -0.2418224
-0.09163943 0.032270838 -0.060060598 0.24221532 0.2911426 -0.07350529 -0.07224798 0.14771464
0.10265354 0.3023177 -0.19527464 0.2778369 -0.069296785 -0.34157377 0.015549339 -0.14968619
0.101603895 -0.003692191 0.11578806 0.23706216 0.31143188 -0.26635545 0.1721452 0.25712785
0.061615538 -0.057000034 0.28026316 -0.26440394 -0.18571448 0.1450483 -0.30002618 -0.30772114
0.16011848 0.22247487 -0.19384821 -0.07180271 -0.13296701 0.06373084 0.23571452 -0.27616483
0.22637424 0.3085696 -0.29016712 -0.17043394 0.028834466 -0.08304388 0.018378332 -0.023256475
-0.2683452 -0.20454206 -0.07431979 -0.14033999 0.17536291 0.09363757 -0.10392062 -0.2714383
-0.1995303 -0.13464569 -0.009863925 -0.14251088 -0.061992068 0.1307084 0.16112636 -0.17933321
-0.024813144 0.20519109 0.041073557 0.19302903 -0.029054452 -0.071001895 -0.21606225 0.26494905
0.05024553 -0.21994922 0.2705311 0.14326249 -0.16176383 -0.33988667 -0.098596826 0.07474564
-0.11940145 -0.048380382 -0.119507775 0.21157508 -0.061417297 0.28798017 -0.09074765 0.25834405
-0.18173829 -0.23211627 0.05112176 0.183455 -0.19692759 0.3908367 0.23126116 -0.04210315
-0.17998232 0.29540327 -0.075328775 0.22245449 0.10782001 0.23288263 0.015521158 0.12677178
0.24748713 -0.40860587 0.19071846 -0.098178126 0.03044256 0.13139847 -0.14328319 0.13002409
0.24836053 0.045534853 -0.26611543 -0.18512441 0.038708005 0.18798204 0.3585461 -0.122327104
-0.266591 0.15279572 -0.35690457 -0.14601669 0.16902097 0.12199484 0.2489235 -0.046744574
-0.09826666 0.25599608 0.16179179 0.048264757 -0.07977063 -0.2014253 -0.24043694 0.30941924
-0.17365135 0.36781198 0.13501665 -0.2914346 -0.2066198 0.08273626 0.14387088 0.15433994
-0.022752536 -0.17660643 -0.30141905 -0.065630525 0.116011515 -0.11066043 0.18103293 -0.05844855
-0.073026955 -0.092139594 0.1671926 0.09072896 -0.25094587 0.22819673 0.088173844 -0.081867084

mlp.0.bias f4 [512]
00000000: 51f5 a53d 37ee b43d afe4 72be 67be dabd
00000010: 1328 6d3c 0cfd a0be edce cabd f72f cc39
00000020: 9293 e5bd 58cb 73be 2c5e 81be 40a3 173d
00000030: 11e1 82be 7bf5 40be 2099 c0bd 3038 7a3e
00000040: ab49 4cbe bbc6 233e 8bd8 10be fee3 4c3e
00000050: c383 7cbd 173a 25be 847e 08be 1e20 7c3e
00000060: 641e 9bbe e4ad 253d c8cd 8b3e 34b5 33be
00000070: 779f 6e3e bb87 423d 326e 293d 655a 263e
00000080: 4796 11be a607 5f3e 8c97 20bd 232e d9bc
00000090: 49eb 2f3e ea89 f03d b230 903c f131 a83d
000000a0: 0815 773e ad43 50be e922 f0bc 62dd 84be
000000b0: 9b66 e9ba f98a 353e 26b0 593c 6f2e 913d
000000c0: 6080 f23d c9be b13d 764b 3d3e 1e0e 593e
000000d0: 7be6 0c3d 8eb2 9fbe 5b1f 97be 1a2c 4cbe
000000e0: 772f d0bd 7431 30be 3724 64be 913f c5bd
000000f0: 00ac 4dbd 769e 9bbe f5d6 92be d24a d9bc
00000100: 28c5 5a3e 9d65 323b 8573 213e d6e7 b4bc
00000110: 783c 7d3e d68d 8dbe 6961 803e 5e9d d5bd
00000120: 5b83 acbc 9734 c1bd 7d0e 18be d9e3 873d
00000130: cbe4 9ebd 9373 cb3d ebf8 693c 17a4 61be
00000140: 007f fe3d 3fa9 813e bd06 6c3e 4a8f 8ebe
00000150: 30aa a43d c699 22be 24ff 5a3e df87 4dbe
00000160: 4ff8 e83d dcd3 853e 5a83 593d 393e f93d
00000170: b5ac a33d 52fb 703e 53da 9a3c 9a20 67be
00000180: 08ad 19be 046b 733d 1539 82be e024 583e
00000190: 676f 713e 0971 4cbe 4aa6 5f3e b145 60be
000001a0: 97d9 853d 0eef 813e d004 5ebe e816 c63d
000001b0: 3a0d fdbd a06f 80bd 92da 893e 3a5c 6e3e
000001c0: 3980 b9bd 5ae7 a8be b06d 963e 045c 553e
000001d0: e3be 2d3e ad4d 0fbe e083 aebd c52e 593e
000001e0: 3e05 6d3e df95 87bd 3ff7 8dbe 9925 dfbd
000001f0: d694 35be 1d28 5dbd 1b61 7f3e 76c7 50be
00000200: fb4f 4fbe 497a 9a3e 1c3b 13be e13c bf3d
00000210: 7817 9c3d d246 5a3e 5404 be3d 1a55 57bd
00000220: dea5 723e f52e 8dbd 831c 55be dab0 be3d
00000230: 4f2a 503e 87da 9d3d c26c 77be e177 ef3d
00000240: d930 96bd ff42 a7bd 72b4 643e a800 1bbd
00000250: a214 7bbe 2a5d 1a3e 59a6 24bd 18c2 143e
00000260: 246d 9cbe c69e 82be ee1d 563d 38e3 21be
00000270: 2428 863e 7799 bc3e 0285 95be 1aa3 7a3e
00000280: c50d 8ebd f433 bd3d 892d a0be b6e1 873e
00000290: 34fc 2fbe 7671 6e3e 471f 253e 6f38 9a3e
000002a0: a7a5 fc3d 96d7 06be 9939 6abe 89a4 0abd
000002b0: bfd7 36bd ef42 91be 9924 6c3d d051 47bd
000002c0: 03a7 41be 17f3 0d3d dede 9ebe ab22 5d3e
000002d0: fe5a c0bd 5f1e 38be 4bb1 723e bbc9 953e
000002e0: 1122 7abe 26fe e0bd f13f 0dbd eb1c 9d3e
000002f0: 2408 14be 65a7 0e3e 2543 44be cb71 90be
00000300: ed0f 35be baf9 00be 3c7b a23d e8fa 1cbe
00000310: c9de 4dbe 43c3 943d 79ca 84bd a25d f0bd
00000320: d001 263c 0318 df3d df97 8cbd 0e5e 633e
00000330: fbce e5bd 7da1 22be 4752 99be a0a0 d23d
00000340: 7dd1 203e 9aa2 a83e 59fa 97be 931d 853c
00000350: eb4c e53d 2edf eb3d 95d8 d53d e681 84bc
00000360: 0ce0 b5bd f050 93bc 6799 833e 9d51 91be
00000370: 32a2 8dbe f718 38be 9c51 77be 1c67 27be
00000380: a0c4 a33d d3db 90be 8c67 8e3c 4c96 c63c
00000390: 517e ae3e 2bfd 223e 2f7a 1d3e 4448 423d
000003a0: 3e53 74bd 1465 203e 1dde 473e 797a f6bd
000003b0: d6d1 483e 655a 173d d14f 9abe eb3e 403e
000003c0: c887 86be 77aa d23a 4f56 73be 5f9f a1bd
000003d0: eeac 2bbd 9c92 c73d 48b9 b0bc a756 83bd
000003e0: 4b93 653e 92f1 91be 6b26 cabc 161c 96be
000003f0: b2c7 423d 14eb 963e d627 163d 3c9a 86be
0.08103431 0.088344984 -0.23720048 -0.106808476 0.0144748865 -0.3144306 -0.09902749 0.0003894565
-0.112097874 -0.23808038 -0.2526716 0.03702092 -0.25562337 -0.18843643 -0.09404206 0.24435496
-0.19949977 0.15993778 -0.14145105 0.20008847 -0.061649095 -0.16135441 -0.13329512 0.24621627
-0.30296624 0.04044904 0.27305436 -0.17549592 0.23303019 0.047492724 0.041364856 0.1624542
-0.14217483 0.21780261 -0.039207026 -0.026511258 0.17179598 0.11745055 0.017601345 0.082126506
0.24129117 -0.20338316 -0.029313521 -0.25950152 -0.0017807068 0.17728795 0.013286626 0.07088935
0.11840892 0.086789675 0.18485817 0.21196792 0.03439949 -0.31190914 -0.2951611 -0.19938698
-0.10165303 -0.17206365 -0.2227944 -0.09631265 -0.05021286 -0.30394334 -0.28679624 -0.026524935
0.21364272 0.002722121 0.15766723 -0.022083204 0.24730098 -0.27647275 0.25074318 -0.10430406
-0.021058729 -0.09433859 -0.14849277 0.06635255 -0.077584825 0.099341534 0.014280538 -0.22035252
0.12426567 0.25324437 0.23049445 -0.27843696 0.08040273 -0.15878972 0.21386391 -0.20071362
0.11375486 0.26138198 0.053103782 0.12170071 0.079919256 0.23533371 0.018902933 -0.2257103
-0.15007412 0.05942823 -0.25434175 0.21107817 0.23577653 -0.19964994 0.21840778 -0.21901585
0.065356426 0.25377697 -0.21681523 0.09672338 -0.123560384 -0.06271291 0.26924568 0.23277369
-0.0905766 -0.32989007 0.2938056 0.20835882 0.16967349 -0.13994475 -0.08521247 0.21209247
0.23146531 -0.066203825 -0.27727696 -0.10895843 -0.17732558 -0.053993333 0.24939387 -0.20388588
-0.20245354 0.3017142 -0.14378017 0.093377836 0.07621664 0.21316078 0.09278169 -0.052571394
0.23696086 -0.06893722 -0.20811658 0.093110755 0.2032864 0.077076964 -0.24162582 0.11692787
-0.07333536 -0.08167075 0.2233446 -0.037842423 -0.2451959 0.15074602 -0.040197704 0.14527166
-0.30552018 -0.2551176 0.052274637 -0.15809333 0.262025 0.36835834 -0.2920304 0.24476281
-0.0693622 0.09238425 -0.3128474 0.2653939 -0.17186052 0.2328547 0.16125213 0.3012118
0.12336283 -0.13168177 -0.22873534 -0.03384832 -0.044639345 -0.2837138 0.05765209 -0.048662007
-0.18911366 0.034655657 -0.3102941 0.21595256 -0.093923554 -0.17980336 0.23700444 0.2925547
-0.24427058 -0.10985975 -0.034484807 0.30686125 -0.1445623 0.13931043 -0.19166239 -0.28211817
-0.17681856 -0.12595263 0.07933661 -0.15330088 -0.20104517 0.07263806 -0.06483931 -0.11736609
0.010132268 0.10893252 -0.068649046 0.22203848 -0.11221119 -0.15881915 -0.29945585 0.10284543
0.15704913 0.32936555 -0.29683188 0.016249454 0.111963116 0.115171775 0.104417 -0.016175222
-0.08880624 -0.01798293 0.25702974 -0.28382578 -0.27662808 -0.17978273 -0.24152225 -0.16347927
0.079964876 -0.28292713 0.01738336 0.024241589 0.34080747 0.15916888 0.1537864 0.0474322
-0.0596497 0.15663558 0.19518323 -0.120350786 0.19611296 0.03695144 -0.3013902 0.18774001
-0.26275468 0.0016072531 -0.23763393 -0.07891726 -0.041912965 0.097447604 -0.021572724 -0.06413012
0.22419469 -0.28504616 -0.024676522 -0.29318303 0.047553726 0.29476225 0.036659084 -0.26289546

mlp.3.weight f4 [256, 512]
00000000: dae2 2cbd c4cb db3c 23f1 ed3c 5948 263d
00000010: e512 ed3a 6a45 2a3d e816 193d 73c9 f8bc
00000020: 1678 953c a15a 2fbc 1b2e 093d 8e4e e13c
00000030: 8b51 773b 72f7 25bb b5a6 853c 344f b4bc
00000040: 53b5 23bd ab7a 8d3c 5c6d 113d 060e 1f3d
00000050: 3d6e a1bb 8883 203d e81d a43c 303d a43c
00000060: 6ed3 e03c 0b5b ef3a e06a fdbb 109d 063d
00000070: 3b0f 9cbc b0f6 1e3d 3a1b dcbc b99d fe3b
00000080: ebcf 90bc b110 593c b6ba 143d 853a d5bb
00000090: 95e2 a43c b4c5 c6bc 3ed5 973a 45d9 27bd
000000a0: 346b aa3c 3936 b73c 34b0 153b 4c94 d63a
000000b0: aee2 6a3c 532e 7a3c 441a 3c3b 78cd 31bb
000000c0: b8b6 d83b 424a 8f3c 2c94 443c dc89 b73c
000000d0: 6212 893c 5b6a 243c 76f2 5d3c 3aa2 bd3c
000000e0: 8cb4 16bd 6a76 c93c 1c9d 0dbd e168 66bc
000000f0: 198e 26bd 95a2 13bd 30da a8bb 86b3 f6bb
00000100: 1650 ad3c bccb ecbc c0c5 303c 0ae4 44bd
00000110: c79f 4e3c d3c7 e33b 11cb cabc eef3 29bd
00000120: 2162 0ebd 8b22 1b3c 52f8 11bc 59f2 9a3b
00000130: ce2b a83c 6475 ff3c ffda dabc dfdb c73c
00000140: 9e2a 9d3c df82 debc cc27 24bd d76c bfbc
00000150: c43b 8e3c 25e2 2ebd e6c1 35bc 8a5d 75bc
00000160: d003 9ebc e5e0 29bd 4224 a8bc 25d3 30bc
00000170: 6e83 243c 4850 63bc 9d85 1cbd 09a6 0d3c
00000180: 419c 253d 14fb 9cbc 95a8 6b3b 8f20 40bb
00000190: 710a ba3c 8868 cf3c 8c8d dd3c 59cf 07bd
000001a0: d8db 633c 2008 0d3c cf32 f73c 8d64 9bbc
000001b0: f676 09bd bc23 803c 4884 ec3c 11ea 12b9
000001c0: c186 3bbd a300 b63b 5b68 d83c f0c0 efbb
000001d0: 574e 0ebd 6461 b6ba 6a7d 84bc a380 13bd
000001e0: aafe 41bb 8666 033d 3e29 b3ba 1931 19bd
000001f0: 3031 0abd 4254 ac3b f660 283d 1f67 8cbc
00000200: 25ba ccbc 2ca0 493c 52d6 17bc e3ee f5bc
00000210: 6711 cebc 9247 30bd 9568 233d cf36 28bd
00000220: a6c4 003d 2fc9 01bd 4e9f 813c 86de 423b
00000230: 6680 093d 6d41 27bd 286e 2f3d 058a 20bd
00000240: d881 c1bc 5bf9 80bc 4fe1 713c 7d61 b8bc
00000250: d5d3 083d 91fb b7bb fe37 b4bc c24b c23b
00000260: 3a10 a3bb fe44 dabb 639b 8e3b 953f ed3c
00000270: 104a 0a3d 958a b8bc 0500 133d c74d 113d
00000280: 823d 27ba 6aa5 bebc d6b0 f13c f867 023d
00000290: 3740 f23c 60a5 a8bc 6b98 f1bb 56cb dcbc
000002a0: 6e31 fabc 385f 5a3c a596 7b3b 3345 2e3c
000002b0: 30db e2bc c4ff 1fbd b2f7 2ebc b9d2 d7bc
000002c0: 72a2 e6bc 87bb e23c 4003 22bd 6aad d138
000002d0: 32ba 063b 8551 1ebd 7397 a23c 5640 08bd
000002e0: 2b95 2b3d cdb0 55bd 5e59 1bbc beee 273d
000002f0: 4f92 c73c 9e35 0bbd c79d 423d 9d59 9abb
00000300: 61be 15bd 352b 12bd d5ef 38bd a147 3f3c
00000310: de21 f13c cd8a ef3b 8eb2 063d 66a9 8cbc
00000320: d038 a2bb 4ab5 cb3c 6341 0fbd c6c8 00bd
00000330: 245e 0cbd e896 a1bc 4daf cf3c a9ba c93b
00000340: 3d22 2ebd 678a f8bc 27a1 f03b f1d6 8239
00000350: cf18 2ebc 1bff f13a 4cb5 e2bc 5aaf 33bd
00000360: bac6 97bc 9f90 e1ba 185b b7bc d595 ef3c
00000370: 4989 023d bc17 93bb 4f8b 98bc 2055 663c
00000380: 96f0 63bc 2c3c f4bc a9cd 943c d434 e5bb
00000390: 4b07 933c 394e 173d 7b8b 39bd 20fc c43c
000003a0: c856 c73c 6052 f7bc b5c7 1fbd b0a5 0bbd
000003b0: c451 33bd f6f0 bbbc a5b4 0cbd 1ec4 8dbc
000003c0: 6923 723c e04f 823b eead 01bd 49d4 63bc
000003d0: 8dac 043c 50c3 043d 14e0 18bd 1ad1 df3c
000003e0: 6c5b d1bc 2efc 303d d179 bd3b 3aec 1abd
000003f0: e3aa 9b3c d5ce a1bc 8863 073d fc6e 19bb
-0.04220853 0.026830561 0.029045647 0.04059634 0.0018087296 0.041570105 0.03737536 -0.030369496
0.018245738 -0.01070276 0.033491235 0.027503278 0.0037737812 -0.002532449 0.016314844 -0.022010423
-0.039967846 0.017270407 0.035504684 0.038831733 -0.0049264715 0.039187938 0.020033792 0.020048708
0.027444568 0.0018261386 -0.0077336878 0.03286463 -0.019050231 0.03880948 -0.026868451 0.007770267
-0.017677268 0.013248608 0.036310874 -0.00650722 0.020127574 -0.024264194 0.0011583937 -0.04097869
0.020803072 0.022364723 0.002284062 0.00163711 0.014336271 0.015269834 0.002870218 -0.0027130526
0.0066135786 0.017491464 0.011998218 0.022404604 0.016732398 0.010035123 0.013546577 0.023148645
-0.036793277 0.024592597 -0.03457366 -0.014063091 -0.04066286 -0.036043722 -0.005152963 -0.007528725
0.021156352 -0.028905742 0.010789335 -0.048069037 0.012611336 0.006951311 -0.024755033 -0.041492395
-0.03476155 0.009468685 -0.008909302 0.004728597 0.0205287 0.031183906 -0.026715754 0.024396835
0.01918536 -0.027162014 -0.040077016 -0.023367329 0.017362483 -0.042696137 -0.011093592 -0.014975915
-0.019288927 -0.04147424 -0.020525102 -0.010792528 0.010041101 -0.013874121 -0.03821336 0.008645543
0.04043222 -0.019162692 0.0035958637 -0.0029316281 0.022710057 0.0253184 0.027045034 -0.033156727
0.013907395 0.008607894 0.030175595 -0.018968845 -0.033560716 0.01564204 0.02887167 -0.00014010842
-0.04578281 0.005554275 0.026416948 -0.007316701 -0.03474268 -0.0013914523 -0.016173083 -0.03601135
-0.0029601255 0.032080196 -0.0013668907 -0.03740034 -0.033738315 0.0052590678 0.041108094 -0.017139016
-0.024991104 0.012306254 -0.009267407 -0.030021137 -0.025154782 -0.043037005 0.03989466 -0.041067895
0.03143754 -0.031686004 0.015823033 0.0029734685 0.033569716 -0.04083388 0.042829663 -0.039194126
-0.023621485 -0.015743902 0.01476319 -0.022507424 0.033405144 -0.005614706 -0.021999355 0.005929441
-0.0049762996 -0.0066610565 0.0043520196 0.028960982 0.033762038 -0.022527019 0.03588869 0.035474565
-0.000637971 -0.023272235 0.029503267 0.031837434 0.029571636 -0.02058667 -0.007372906 -0.026952427
-0.030541148 0.013328366 0.0038389352 0.010636616 -0.027692407 -0.039062276 -0.010679172 -0.026345598
-0.028153632 0.02767731 -0.03955388 9.9981975e-05 0.0020557758 -0.03865196 0.019847607 -0.03326448
0.041890305 -0.052170563 -0.009481756 0.040999167 0.024361758 -0.03398668 0.04751375 -0.0047103898
-0.036558513 -0.035685737 -0.045150597 0.0116747925 0.029435094 0.0073102475 0.032885127 -0.01717062
-0.0049506202 0.024866719 -0.034974467 -0.031441472 -0.034269467 -0.019725278 0.025352145 0.006156285
-0.04251312 -0.030339433 0.0073434296 0.00024955676 -0.010626032 0.0018462868 -0.02767434 -0.0438684
-0.018527377 -0.0017209238 -0.022382304 0.02924625 0.031869207 -0.0044889133 -0.018621115 0.014058381
-0.013912341 -0.029813848 0.018164473 -0.006994823 0.017947813 0.036939833 -0.045299035 0.024046004
0.024333373 -0.030190647 -0.039008815 -0.03409356 -0.04377915 -0.022942048 -0.034351964 -0.01730543
0.01477895 0.003976807 -0.031660013 -0.013905593 0.00809778 0.032412827 -0.037323073 0.027321387
-0.025556289 0.043209247 0.005782344 -0.03782294 0.019002384 -0.019751946 0.033053905 -0.00234121

mlp.3.bias f4 [256]
00000000: 3d4a f0bc 423e 3cbd a7e2 3dbd 7797 d93c
00000010: 5469 0bbc f76b 3fbd e61b 843c 3750 813c
00000020: 13b9 553b ea07 893b 3481 ac3b 8780 9939
00000030: fd95 9ebc e9b3 ba3c d708 c93b d7d7 2b3d
00000040: 4e2e 1fbd d4bc 41bd ee35 cfbb 889c f3b9
00000050: c35d 663d 22f3 1cbd cd08 c2bc 7fe4 1cbc
00000060: 3d67 45bb f30b 4b3d 6e0f 2f3b dda9 b1bc
00000070: d6f8 833d e459 d93c 28d2 b73c 3ed2 cdbc
00000080: 80c0 cf3c 9501 373d 4839 513c 3bb2 9cbc
00000090: 1d11 d0bb 24c6 77bb ce88 0abd adac 47bd
000000a0: 998a 27bc 3cde edba c7bf 683c ffa2 033d
000000b0: c1c6 f1bb 997e b23c ed98 4abb d4f1 dd3c
000000c0: cfda 30bd 32ab 64bc f424 013d b8ec 1b3d
000000d0: 0a6b 8e3d 047e 49bd 5725 ec3c 21ce 453d
000000e0: 6d39 86bc e871 083d 0faa f93c 4d63 88bc
000000f0: 307f 6b3c 650e d83c 0757 033c c690 573d
00000100: 15e0 f93c c3b7 da3c 78be 7bbb 6950 113d
00000110: d1a8 483d 4524 843c 581b e9bc 9d21 643d
00000120: c37e 8c3c 48b3 16bd 0615 673d 42d3 723d
00000130: e886 b1bc b6b5 1f3d 6aaa c33c 65e2 f7bc
00000140: 3ec9 babb c8b3 0abd 7462 303d 8f24 adbb
00000150: 032d a1bc b85e 863d 2e98 3dbd 22b3 b73c
00000160: cfa1 01bd d17a e3bc cbbf 06bc c0b5 f23c
00000170: 4ede e5bb 223b 333c e062 e63c 0423 3bbd
00000180: 5430 813d e69a 753d 2704 0f3d 84ca d9bc
00000190: e475 5b3d cc82 b33a ca46 783b db09 143d
000001a0: b2bf bebb e7d3 06bd 9ae4 0c3c a7d6 053b
000001b0: 1ba7 253e 5de7 bf3c fa6e 2dbd faef 8a3b
000001c0: 9753 e8bb de43 4d3d f9f2 2e3d dd70 97bc
000001d0: 7177 af3c 0486 303d 4315 6abc fdaa 913d
000001e0: a2f8 803c eb8a a9bc 06f2 8f3d 37d0 12bd
000001f0: 6252 bf3b 1d90 04bd 74ae 46bd 207e f53c
00000200: 70bf 3a3c 78a4 0bbd 5947 473d 9e2b 973c
00000210: 9b14 44bd b9a9 313c 38d3 283c 49e4 2fbc
00000220: e68b 95bc 7b69 21bd 0f59 c13b 262a 46ba
00000230: c1d8 8e3b 565e 47bd 899f e3bb 719e 1d3d
00000240: 30b9 5b3d 43a3 d7bc f238 ecbc fab6 31bc
00000250: a8bf 59bc d5a6 163d fdb0 23bd fad6 0d3d
00000260: 0441 0e3d 5ee2 673d 6f02 b5bc 9357 8dbc
00000270: abe3 383b 3afa bfbc cd98 ba3c 4cb5 05bd
00000280: df39 103d 2836 c63c 9ca0 f73c ca86 d53c
00000290: 2d1b d83c 5bab 05bc 0583 5e3d 97c6 913d
000002a0: 530b 87bb fb6a f73c 4e7d adbc 6e4b de3b
000002b0: d67b cbbc e9b6 113d 320b a4bc e48d 46bc
000002c0: 1541 77bc 6a2b ab3c 4825 73bc 3cc3 f3ba
000002d0: af5d 193c 9e85 00bd b92c 4b3d 863d 5c3d
000002e0: 0ec1 74bc 630f a4bc d573 1e3c 7834 483d
000002f0: 5ed8 193d 3de1 363d afe6 7cbc 7a5b 7e3c
00000300: 64a4 5fbc 7302 fe3a 7d75 24bd ce58 e6bc
00000310: c163 943d 9095 8c3c 7392 343d 7bb2 343d
00000320: 2e61 10bc 7715 9cbc 254a c1bb 147a 96bc
00000330: 17fc 06bd 65a1 1c3b 69ae 2d3c 2930 03bc
00000340: c934 8a3b cffa c53d f80d 6d3d 6e4c 443d
00000350: 3e9b 0ebc 6ff6 b63c 4975 3fbd 9747 8e3c
00000360: 172c 243c dcd6 c6bc fb1a 833c 5c48 e63c
00000370: ea63 39bd 7d66 35bd 2fe2 273d 2970 6abb
00000380: 5fad 86bb d355 473d 5c68 8f3c 21ca 153d
00000390: 2b17 a13c f88d 6b3d 464c e1bb 96bc 303c
000003a0: 0e83 9cbb 1c61 163c 1d2a b23c a4bc b6bc
000003b0: 6850 633d 9a77 f43b 3d67 6ab9 5c9f d63c
000003c0: 9123 0c3d 3a5c 173d b7c2 9bbc ce87 5b3c
000003d0: 9819 d73b 111f 95bc 7afe 9cbc 1cdf 1b3d
000003e0: f42f bb3c e0b8 393c 720f 10bd 51a4 213d
000003f0: 2e91 5e3c eb5f d33c c0eb 09bd a456 38bd
-0.029332275 -0.04595781 -0.04635873 0.026561482 -0.008508999 -0.046733823 0.016126584 0.01578532
0.0032611534 0.0041818516 0.0052644257 0.00029278194 -0.01935863 0.022790866 0.006135087 0.041953888
-0.03886252 -0.04729922 -0.0063235676 -0.00046465197 0.056241762 -0.038317807 -0.023685837 -0.009575962
-0.003012135 0.049571943 0.0026712078 -0.021687442 0.06443946 0.026532121 0.022439077 -0.025124665
0.025360346 0.044679243 0.012770005 -0.019127956 -0.0063496963 -0.003780731 -0.033821873 -0.04874866
-0.010225915 -0.0018147896 0.0142058795 0.032137867 -0.0073784296 0.021788882 -0.0030913905 0.027092852
-0.043177422 -0.013956832 0.031529382 0.03806755 0.0695401 -0.049192443 0.028826399 0.048292283
-0.016384805 0.033311754 0.030476598 -0.016648913 0.014373586 0.026374051 0.008016354 0.0526283
0.030502358 0.026698953 -0.0038413089 0.035477076 0.04898912 0.016130576 -0.028455421 0.05569612
0.017150288 -0.03679207 0.056416534 0.059283502 -0.021670774 0.038991652 0.02388497 -0.03025932
-0.0057002595 -0.03386286 0.043062642 -0.005283899 -0.019674784 0.06561035 -0.046287708 0.022424284
-0.031648453 -0.027768524 -0.008224438 0.02962768 -0.007015026 0.010939391 0.02812332 -0.04568769
0.06308046 0.059962176 0.03491607 -0.026585825 0.053579226 0.0013695597 0.003788399 0.03614221
-0.0058211917 -0.03291693 0.008599425 0.0020422132 0.16177027 0.023425752 -0.042342164 0.004240033
-0.007090043 0.05011355 0.042712186 -0.018486435 0.021419259 0.043096557 -0.014287296 0.071126916
0.015743557 -0.020696124 0.07028584 -0.0358431 0.005838678 -0.032364 -0.048506215 0.029967368
0.011398181 -0.034092396 0.048652027 0.018453415 -0.047871213 0.010843688 0.010304265 -0.01073558
-0.018255185 -0.039407235 0.005900509 -0.0007559381 0.004359335 -0.04867395 -0.0069465083 0.03848118
0.053643405 -0.026322966 -0.028835747 -0.010846848 -0.013290323 0.036780197 -0.03996371 0.034628846
0.034729972 0.056612365 -0.022095887 -0.017253673 0.0028211873 -0.023434747 0.02277794 -0.0326436
0.03521144 0.024195746 0.030227952 0.026065249 0.026380146 -0.00815853 0.05432417 0.07117956
-0.004121223 0.03020238 -0.021177914 0.0067838943 -0.024839323 0.035574827 -0.02002487 -0.01211879
-0.0150912 0.020894725 -0.0148404315 -0.0018597613 0.009360715 -0.031377427 0.049603198 0.05376961
-0.014938606 -0.020026868 0.009671171 0.048878163 0.03755986 0.044648398 -0.015435859 0.015524739
-0.013650034 0.0019379392 -0.040151108 -0.028118517 0.07245589 0.01716116 0.044084977 0.044115525
-0.008812232 -0.019053204 -0.0058987313 -0.018368758 -0.032955255 0.002389991 0.010600665 -0.008007088
0.0042177183 0.096669786 0.05787465 0.04792445 -0.008704005 0.022334306 -0.04674271 0.017368121
0.010020277 -0.024272375 0.016004076 0.028110676 -0.0452613 -0.044287194 0.04098719 -0.003577242
-0.004110023 0.048665833 0.017505817 0.03656972 0.019664368 0.05750844 -0.0068755476 0.01078715
-0.004776365 0.009178426 0.021748597 -0.022306748 0.055496603 0.0074605467 -0.00022354438 0.026199035
0.034213606 0.03695319 -0.019013746 0.013399078 0.0065643303 -0.01820329 -0.019164313 0.03805457
0.022850014 0.011335582 -0.03517098 0.039463345 0.013584418 0.025802573 -0.033672094 -0.045004502

mlp.5.weight f4 [4, 256]
00000000: dc8d d33b f1ed 05bd ebc1 c7bc e639 743d
00000010: 4b04 823d 543e 91bc c359 553d 531a febb
00000020: 8c05 6e3d 1214 1bbd 4317 543d 61ba 7fbd
00000030: 375e cb3c 78dc de3b d802 193d ac53 883d
00000040: 8978 8f3c adc6 1abd 41c7 49bd a292 003e
00000050: 9e00 7e3d 0dc4 e7bc aaf0 823d 8f8e 2ebd
00000060: a88b 3abc 7670 a6bd 6ebb 3bbd bfee 7f3d
00000070: 1144 8fbc d963 ff3c 6005 043d 933b f43c
00000080: 81db 43bd 81a4 0a3d c39d 52bd b0ac 70bc
00000090: 1744 2fbd 1eb8 3d3d 95d4 86bd 2fec 183b
000000a0: a32f c43c 5f99 1e3d 9bce d7bc 9028 3abc
000000b0: ba33 763a 75a7 113d 2bae 26bc 555a 833d
000000c0: 5adf 9cbc a3ce 353d 5b4c b43d c893 b83c
000000d0: 1349 0e3d 43ee 78bd b31e 6ebd 03d4 833d
000000e0: 5fec 04be 828d 33bb f9fd a2bc 86b7 90bd
000000f0: 3562 80bc 1ac5 bb3c 1551 87bd f642 bb3c
00000100: 0bf9 d8bc 695d 29bd 26cc 2d3d 8ba4 183d
00000110: 391d bb3a cfae 673d fb06 27bd dd64 77bc
00000120: 9920 073d c6bc 9abb 238d 3ebd 0bd1 38bd
00000130: eb7b d03c 8fed bf3c b97a 8a3d 2549 05bd
00000140: d291 47bd d2c5 c8bc e85e a23c 9c08 37bd
00000150: 2a52 9cbb 8356 963d 1e9b a13c 2b63 053d
00000160: 74d9 80bd 5ca4 a5bc e6c5 6b3c 68eb fc3d
00000170: bf06 c6bc 98fc ac3c 3e05 ca3c 00df e2bc
00000180: c9eb b73d dd5c 173c 3abc 67bc f677 87bb
00000190: 0966 683c 53d3 b4ba df9f 943c 04fa adbc
000001a0: d263 493d 100d e73c 2a8a df3c 3855 3b3d
000001b0: 4cfc e43e 70f8 403c c65c 7b3d 7277 20bc
000001c0: e202 21bd bbaf 873d 78fa 533c 8081 54bd
000001d0: edf9 e6bd 12f2 b5bc 3a5b 1b3d 1e70 2b3d
000001e0: 7b75 2c3d 5890 603d 4f4b b23d d995 98bc
000001f0: 0e06 b83c 84c3 90bd 3454 2dba b277 01bd
00000200: a48b 81bc e9dd 79bd 68a1 973c e533 2cbd
00000210: c5f3 54bd d408 7d3d 9cb6 89bd 7029 be3d
00000220: 03fd e5bc 75a2 34bd a882 453c fb1a 84bc
00000230: a03b 9ebc f167 153d ae8f 893c 25c3 803d
00000240: b9a2 9939 5b8b 92bd 6c78 ff3b 339c 73bc
00000250: 298e 3e3d 7f64 8d3d ce37 ceba e9e8 173d
00000260: a22e 0cbd d2e1 473c 50fb 203d 279d 543d
00000270: b7b0 c63c 0d93 c8bc c32e 813d 2830 a03c
00000280: 041a 803d 384c 41bd 6f27 333d e0cb ac3d
00000290: 00ea 833e 2228 423d 25ef 1b3d 4bfb a83d
000002a0: 47eb 5a3d a752 653d 5960 76bd f4b2 2ebd
000002b0: 7938 8b3c 028f 043d f8b5 593d 1f11 4a3d
000002c0: 53de 6f3c 914b 43bd 948a 083d 4733 c0bc
000002d0: 60d2 1f3d 86d6 4e3d 62ef 57bc a9f8 ac3d
000002e0: f689 84bd 4e70 d73c 7e24 26bd b1c4 51bd
000002f0: 9209 31bc fc01 59bc 90ac a13c dac2 89bd
00000300: 873f 0d3d f34a ac3c 2386 b3bb 88cd a4bc
00000310: 3495 993c 90c9 983d 3f5d 4b3c 7460 843c
00000320: 47b8 353d 3234 d2bc 32e6 7b3d 389d 423c
00000330: db6d 91bd e9bb 5e3d 4568 293d 958d a63c
00000340: 52ff 7fbd d4ee ad3d 5083 3abd cddb ff3b
00000350: cecc 37bd fbf1 3abd b13f 07bc 46e4 d1bb
00000360: 5150 dc3d 10c3 32bd e2f1 c4bc f874 1fbd
00000370: 1b95 54bd 515b 9c3b 9b74 733d 7e80 053d
00000380: 049c 4bbb 536d 113d f8b1 42bd a495 753d
00000390: b2ac b1bc 5851 473d 479c bc3a 62a4 a4bd
000003a0: 2e71 343b 4a7f 8a3d 0e92 443d 1bc0 5c3c
000003b0: 3b0a 4ebd 53cb 59bd fa6f 8ebc dc51 da3c
000003c0: b138 743c 17ff bf3c a54c 2bbd 781c e0bd
000003d0: e111 58bc 773c 94bc 76d2 01bd 9f6e fa3c
000003e0: 64a0 993d 52f8 47bc f475 74bd 2b4d 4c3d
000003f0: 25dc 6bbd 9457 f3bc c7d4 073d 915a 053c
0.00645612 -0.03269762 -0.02438446 0.05962553 0.06348475 -0.017729916 0.052087557 -0.007754603
0.05811076 -0.037860937 0.051779997 -0.062433604 0.024825199 0.0068011843 0.037356228 0.06656584
0.01751353 -0.03778713 -0.04926229 0.12555936 0.062012307 -0.028291726 0.06393559 -0.042616423
-0.011385836 -0.08126919 -0.045833044 0.062483545 -0.017488511 0.03117554 0.03223169 0.029813563
-0.047816757 0.03384829 -0.051419985 -0.014689609 -0.042789545 0.046318166 -0.065835156 0.0023334136
0.023948496 0.038720485 -0.026343634 -0.01136221 0.0009391863 0.03556009 -0.010173361 0.06413714
-0.019149471 0.044386517 0.08803626 0.022531405 0.034737658 -0.0607741 -0.058134746 0.064369224
-0.12980793 -0.0027397578 -0.019896494 -0.07066254 -0.015671829 0.022921134 -0.06607262 0.022859078
-0.02648594 -0.04134885 0.04243102 0.037266295 0.0014275677 0.056563195 -0.04077814 -0.015099731
0.032990072 -0.0047222106 -0.046521317 -0.045121234 0.025449714 0.023428706 0.06761689 -0.03254046
-0.04872305 -0.02450839 0.019820645 -0.044685945 -0.004770537 0.073407196 0.019727286 0.032565277
-0.06291476 -0.020219974 0.014390444 0.12349588 -0.024173139 0.02111654 0.024660703 -0.027694225
0.08980519 0.009238449 -0.014143998 -0.0041341735 0.014184483 -0.001379589 0.018142639 -0.02123738
0.04916746 0.02820447 0.027287561 0.045735568 0.44723737 0.011777982 0.061367773 -0.009794103
-0.03930939 0.06625315 0.012938134 -0.051881313 -0.11278138 -0.022210155 0.037928797 0.04185497
0.042104226 0.054825157 0.0870577 -0.01862614 0.022463825 -0.07068542 -0.00066119735 -0.03160829
-0.015813656 -0.061002646 0.018509582 -0.042041678 -0.05199029 0.061775997 -0.06724283 0.09285247
-0.028074747 -0.044100244 0.012055077 -0.016126147 -0.01931554 0.03647608 0.016792145 0.06287221
0.00029303672 -0.07155486 0.007796338 -0.014868784 0.046522293 0.06903934 -0.0015733184 0.037087355
-0.03422416 0.012199836 0.03930217 0.051907685 0.024254186 -0.024484182 0.06307747 0.019554213
0.06254962 -0.04719183 0.04373878 0.084373236 0.25764465 0.047401555 0.038069863 0.08251055
0.053447034 0.055987027 -0.060150478 -0.04265113 0.016994702 0.032362945 0.053152055 0.049332734
0.014640409 -0.047679488 0.033335283 -0.023461951 0.03901899 0.050497554 -0.013179632 0.08445866
-0.064716265 0.026298668 -0.040562145 -0.05121297 -0.010805504 -0.013245102 0.019735605 -0.06726618
0.034484413 0.021031832 -0.005478637 -0.020117536 0.018747903 0.0746032 0.012412368 0.016159274
0.044365194 -0.025659654 0.06149883 0.011878304 -0.071010314 0.054378424 0.041359205 0.020331183
-0.06249935 0.084928185 -0.045535386 0.0078081847 -0.04487305 -0.045640927 -0.008254931 -0.006405386
0.10757507 -0.043643057 -0.02404112 -0.03892991 -0.05190001 0.004771628 0.059437376 0.032593243
-0.0031068334 0.03550465 -0.047533005 0.05995716 -0.021688793 0.04866156 0.0014389836 -0.08039166
0.002753328 0.0676256 0.04799085 0.013473536 -0.050302725 -0.05317242 -0.017387379 0.026650362
0.014906094 0.023437066 -0.04182114 -0.1094293 -0.013187856 -0.018095238 -0.03169485 0.030570326
0.07501295 -0.0122052 -0.0596828 0.04987828 -0.057582993 -0.029704846 0.033161905 0.0081392685

mlp.5.bias f4 [4]
00000000: d6a0 a63c 84cb fa3c d4e3 e0bc 99cc 323d
0.020340364 0.030614622 -0.027452387 0.04365215
