results/TD3/checkpoints/model_0_critic2.pth (torch, 559447 bytes, 5 tensors)

mlp.0.weight f4 [512, 14]
00000000: 534c 4ebe c0de 7d3d cc77 7b3e 20a9 883e
00000010: e0a8 75be 3375 753e 5174 ec3d e20f 06be
00000020: 2640 063e 3113 123d 2cb3 b23c 3d2c acbd
00000030: fc63 513e 6cdb 7bbe 5a2a 173e a471 71bd
00000040: 33f0 3b3d 45cf 50be 230f 53bb 80a7 6a3e
00000050: 0e73 3ebe 68d0 19be 606f f33c 429b 1d3e
00000060: d7dd 8bbd 4f26 ec3d 4984 27be d438 bbbc
00000070: 0b85 e3bb e8e5 22bd b30c eb3d 387b 1c3e
00000080: 65f6 463e bcc8 1f3e fd66 41be 6c79 303e
00000090: 7e74 273e 2892 a9bd ae0f 4bbd 3a6d 87be
000000a0: 2557 873c 8591 e8bd 190e afbb 533d 853e
000000b0: 528d f83d 94d9 a1bc 7985 cabc 1302 0b3e
000000c0: 6fb6 8a3d db3d 84be 7b7f 83be 5257 803e
000000d0: 90e7 08be 5f4c 853e 0808 6e3d 7384 c83d
000000e0: b55f 743e 5a05 0fbd 130e 61be 3fca 743d
000000f0: 53c1 5cbd e6fe 913d f1a1 4cbd 980b 7f3e
00000100: e767 45be 34e0 5f3d c3de 15be 0e7e 61be
00000110: 0257 353c 35ee b33b 0363 823e 53b9 34be
00000120: 3b90 dcbd 4d3b 763e 5aae 51bb f88c 00be
00000130: dbc8 833c 220c 74be 2628 3cbe 0ac0 59be
00000140: c13c c83d 3cb8 a0bd 2e73 f2bd b257 15be
00000150: 9f6a 85be 4b61 d6bc 533d 0bbe 25a7 0f3a
00000160: ba37 743e 52a2 3c3e c40a 56bd a579 cf3d
00000170: 10dd 483a 6ce0 2fbe abf8 4f3e fbfa fd3c
00000180: c2de f43d 12fe 1d3e 53c0 0b3d 464e cdbd
00000190: 79b8 5c3d 71f2 48be 772d 0bbd bc8f fbbd
000001a0: d4b0 07be fb31 303e 54d4 883b 82d4 d9bd
000001b0: 3510 bdbd a505 f5bd c4cf 103e e8d8 e73c
000001c0: cb5c b63c b8c3 debd fc6d 52be 5cdd 79be
000001d0: ae50 0fbe 3c9a 46be ea5c 3bbe dded 873e
000001e0: a510 fe3d 4ad5 35bc bae2 e63d c655 f0bd
000001f0: 2b2d 0cbb 46bd 213e 7b88 dc3d f4a7 0e3e
00000200: c87b 003e 971f 7c3b 75d1 c3bd a4df 9c3d
00000210: 7e4c 3d3e 42a1 633e c89d 9d3d cab8 d73d
00000220: 45e1 6a3e 0a66 0bbe 965a 6dbe 3789 8f3c
00000230: 7c92 843d 6bc8 783e da9d f63c 50e2 3bbe
00000240: bad9 86be 39b1 313e 92ae 093e fb17 443d
00000250: 61df ccbd dfed 8fbd 97f6 f3bd bfe5 103e
00000260: f019 2bbe b7bf 433d b5f2 8dbd b853 67be
00000270: 38f3 653e 57eb 643e 8766 4dbe 157f 003e
00000280: 4a7b 583a e615 98bd 4385 d83d 6ede c2bd
00000290: c89a 80be eaa0 c9bd 32b4 50bb 4cbe 6cbc
000002a0: 507c e53d 70ff 85be bb17 333d 844e 183e
000002b0: e466 a2bc 23da 59bd 7f0b 68be c98d 483d
000002c0: 93ea d93c 238f 4a3e 0ba8 9fbd 310f 32be
000002d0: 6ee7 293c 363a 12bb 0ade 1f3e 6bba 82bd
000002e0: 3a1a e53d ab9e 67be c5f9 7bbe 6bf2 3f3d
000002f0: 5410 acbc f1bc fd3d 59b4 4c3e 58e0 50be
00000300: 5ce7 563d 3d8c 8a3b dd6d 9ebd 7ecc 4ebe
00000310: 1de5 bc3d d404 7b3d f971 4ebd cbe5 4f3e
00000320: 5ac6 87be d7c0 10bd 7089 5a3e b897 1abe
00000330: bc3a 0dbe 57ba 123e dddd 683e 4977 b6bd
00000340: 4d07 79be cc1e 563e dc2a d23d f263 5bbd
00000350: 387e f73c 115a efbd 67d6 f8bd b53f 3b3d
00000360: a879 81be ff25 843e c2f9 48be 5880 db3d
00000370: 8189 143e 454b a53c 0a84 d63d 6ecf 42be
00000380: 6799 223e 81b5 87be 6975 72be f119 cdbc
00000390: 50c0 70be 5cd8 19be b391 613d 6211 f9bd
000003a0: 5675 f93d 5da1 42be 048d 41be 9d14 f6bd
000003b0: 3837 16bd 5edb 11be 8693 57be 1491 663e
000003c0: 2b94 4bbe 0e78 e63d 3b95 06be e2b4 37be
000003d0: 7cef 243e 7bfb 63be 4637 b53d 2bc8 3dbe
000003e0: b604 d23d 3ba4 b4bd 26de e6bc 5f56 7a3e
000003f0: 5d03 323e 17fb 5bbe 8a6a ebbd e2d6 e63d
-0.20146303 0.06198001 0.24557418 0.26691532 -0.23990202 0.23970489 0.11545623 -0.13091996
0.13110408 0.035662834 0.021813951 -0.08406875 0.20448297 -0.24595422 0.1476225 -0.058946267
0.04588337 -0.20391567 -0.0032205067 0.22915459 -0.18598577 -0.15020907 0.029716194 0.15391257
-0.06829422 0.11530744 -0.16359057 -0.022854246 -0.00694335 -0.039770037 0.114770316 0.15281379
0.1942993 0.15603918 -0.18886943 0.17233819 0.16353032 -0.0827983 -0.0495755 -0.2645052
0.016521046 -0.11355881 -0.0053422567 0.2602335 0.1213633 -0.01975707 -0.024721848 0.1357501
0.06773078 -0.25828442 -0.25683197 0.2506662 -0.13369584 0.2603483 0.058113128 0.09790888
0.23864634 -0.034917213 -0.21978025 0.05976319 -0.053895306 0.07128696 -0.049959127 0.24906766
-0.19277917 0.054657176 -0.14635758 -0.22020742 0.011068108 0.005491043 0.25466165 -0.1764882
-0.10769697 0.24046059 -0.003199479 -0.12553775 0.016086986 -0.23832753 -0.1837469 -0.21264663
0.09777213 -0.0784764 -0.11838375 -0.14584234 -0.26057908 -0.02616944 -0.13597612 0.00054799236
0.23849383 0.18421295 -0.05225636 0.10130624 0.00076623354 -0.17175454 0.20309703 0.031003466
0.1195655 0.15428951 0.03411896 -0.10024695 0.053886864 -0.19623734 -0.033978906 -0.122832745
-0.13251048 0.17206566 0.004175702 -0.10636236 -0.09231607 -0.11963967 0.14141756 0.028301671
0.022261044 -0.10877174 -0.20549768 -0.24400848 -0.1399562 -0.19394773 -0.18297163 0.26548663
0.124055184 -0.011098215 0.112737134 -0.1173511 -0.0021389227 0.15794858 0.10768219 0.13931257
0.12547219 0.0038470977 -0.09561435 0.076598436 0.1848621 0.22229484 0.0769611 0.105332926
0.22937496 -0.13613144 -0.23179087 0.017521484 0.06473252 0.24295203 0.030104566 -0.1834805
-0.26337987 0.17352761 0.134455 0.047874432 -0.10003544 -0.07027792 -0.11912268 0.14150141
-0.16709113 0.047790255 -0.06931058 -0.2259053 0.22456062 0.223554 -0.20058642 0.12548478
0.00082581176 -0.07426052 0.10572293 -0.09515081 -0.2511809 -0.09845145 -0.0031845686 -0.014449667
0.11205351 -0.26171446 0.043723803 0.14873701 -0.019824453 -0.053186547 -0.22660635 0.04896334
0.026601112 0.19781165 -0.077957235 -0.17388608 0.010370119 -0.0022312528 0.15612045 -0.06383213
0.11186643 -0.22619121 -0.24606998 0.046862047 -0.02100388 0.12389553 0.19990672 -0.2039808
0.052466735 0.0042281435 -0.077357985 -0.20195195 0.092233874 0.0612839 -0.05040166 0.20302503
-0.26518518 -0.035340156 0.21341491 -0.15096939 -0.13791937 0.14328896 0.22740884 -0.089094706
-0.24319191 0.20910186 0.10262081 -0.053562112 0.030211553 -0.11687101 -0.12150269 0.045715053
-0.2528813 0.2581024 -0.19626525 0.10717839 0.14505579 0.020177493 0.10474403 -0.1902444
0.15878831 -0.26505664 -0.23677601 -0.025036784 -0.23510861 -0.15023941 0.05507059 -0.12161519
0.12180583 -0.19006868 -0.1890145 -0.120156504 -0.036673754 -0.14243838 -0.2105237 0.2251628
-0.1988074 0.11253367 -0.13142864 -0.17940095 0.16106981 -0.22263901 0.08848433 -0.1853339
0.10254805 -0.08820387 -0.0281821 0.2444701 0.17384095 -0.21482502 -0.1149493 0.112714544

mlp.0.bias f4 [512]
00000000: 7c7e cd3d 82a0 58be 0aee 043e 8a1b 053e
00000010: 121b bebd 70b8 4a3e 3942 03b9 51eb b8bc
00000020: e2b2 50be 40d5 56be 96b4 b6bc 8208 02be
00000030: 84bf 263e d5f2 2abe 1434 913d e9fd cb3d
00000040: c251 84bc bb31 073e bc7a ae3d 7b50 183d
00000050: b9f0 3d3e beda d5bd 48d8 61be 8cf0 cb3d
00000060: fa83 bbbd 7cec f2bc 84fb 87be efae 4abe
00000070: bd39 363e defc fd3d 1ca6 8fbd 54b4 7fbe
00000080: 7fa1 dfb8 6032 083e d951 f5bb 73f2 a73d
00000090: 9ff4 683e f1d9 a6bd 7b84 07bd d140 f13d
000000a0: c6c3 773e f294 c0bd bdfe 023d 055b 0d3e
000000b0: f796 1dbe 636a a9bd a008 493d a52a d33d
000000c0: d0e0 1a3e 7875 0fbe 7767 84be 3151 563e
000000d0: 5448 86be 6e00 2ebd 4d87 6abe aafb 93bd
000000e0: 0ee8 ac3d 5b8e e0bd 4e58 783e 844b 6cbe
000000f0: 4825 d83d 69bc 47be 428c 42be e96a 313c
00000100: 0874 1a3e 84d4 f3bd 513a 5abd 4463 713e
00000110: 1998 d03d 00c4 57be faea 59bd c76a 233e
00000120: 5bcb 68be 4bab 7c3e e258 c8bd 9ed3 e33b
00000130: 9dde 6b3e 0e70 633e 4f0d e2bd b3a7 703e
00000140: 6ef4 65bd efe6 da3d c879 623d fe5a b83d
00000150: b7a2 83be 2723 443e f99d 5abc 15bc 14be
00000160: 4c00 2e3c 39b8 aebd fb21 1a3d dc49 813e
00000170: 3536 62be de65 9a3c 9a0c cfbd 9e31 40be
00000180: 7224 0bbd 0e63 15be e6a8 2bbe e503 51be
00000190: 6647 3a3e 36f8 873e 76df 1dbe 3165 84be
000001a0: 7cfb 4a3e 4293 5d3e cc73 833e 9b77 0e3e
000001b0: cf8c dc3c 881e 80be 0469 49be 10ee 24be
000001c0: 07b5 5ebe 852c 5cbe 97fd 3e3e d599 cfbd
000001d0: e078 493c 86f4 4bbd 79d2 2ebe 8fbf 47be
000001e0: bce1 92bd 8c09 acbd 29e4 13be c091 d5bd
000001f0: 2168 003e 2b49 223e 52e9 47bd b996 68be
00000200: d121 1bbd fffe 17bd 6a38 203d 2354 a3bd
00000210: 300d e13d b00a 75bd 4023 9abd 6d01 80be
00000220: cac1 6dbe 67ed b83d ff5a 13be a5cb 823e
00000230: 7434 2d3e 7a1f 493d c4d3 19be 7254 b83c
00000240: a37b 5fbe 0c91 643e c6d7 7c3e d37f 66be
00000250: 87d7 753e 47ba 34be e8a5 883d e76c 61be
00000260: cf3c 4cbe 5067 7e3e f5ef 7ebd 2202 9c3d
00000270: d848 6fbd 4029 d5bd f844 12bd f54e 5d3e
00000280: 1c49 723e a2fe 01be 8d2e 723e 493b 653d
00000290: 99cf 82bd a13d 883e 4f6d 0cbb 493a 573e
000002a0: 63f2 b43c d55a 723e 7824 40be 5734 cfbd
000002b0: cc23 93bd da86 15be c067 3cbe d7de 1c3d
000002c0: 1444 88be 9bd7 4a3e 9b11 18bd 5d20 323e
000002d0: 689e 663d 5668 05be ef3e 01be 0d55 083e
000002e0: c53f 083e c5be a8bc 4fe6 e83d 162e 4c3d
000002f0: f6fe 8a3c f9ad b63c 685a 72be 7a45 23be
00000300: fb54 d03d d154 133e 0282 703e 7789 82be
00000310: 3a85 52bb 9fae bb3b af86 673e 494c 32be
00000320: 1c9e 89bb 3a4c e6bd b348 88be ef79 1abe
00000330: ce78 93bd 826a 773d a857 453d 607a bc3d
00000340: 63c6 84be 1db5 c53d 4981 af3c c891 7ebc
00000350: 3e96 413e b842 1cbe 7205 3bbd cbce 27be
00000360: 15f2 f9bd 53e8 67be 5e45 4e3e 2830 4c3e
00000370: 7df8 5fbd 5e94 773d 55b4 433e fe2b 74bc
00000380: bf41 303d a39c 463e daf3 ca3d 5fd5 74be
00000390: 8916 cd3d 7cf0 583c bc9e 523e ca04 05be
000003a0: 5436 83be 928e cebd c735 893d 011a 7abe
000003b0: 5040 82bd c0cc 843d 27a4 1cbe 00f4 383d
000003c0: 2b10 523e 4f3d 693e 439e 793e 7de9 f0bd
000003d0: af4b 143e 4684 9c3d 6d06 8b3d 6b2f 9d3d
000003e0: 91e9 6f3d aa75 70be c10d 373e cbc0 a83d
000003f0: ecad 6bbe 893e a23b 8add 843e 2c75 36be
0.100338906 -0.21154979 0.1298143 0.12998787 -0.09282507 0.1979692 -0.00012517803 -0.022573145
-0.20380738 -0.20979786 -0.022302907 -0.12698558 0.16283995 -0.16694196 0.07090011 0.09960539
-0.016152266 0.13202564 0.085195035 0.037186127 0.1854886 -0.104421124 -0.22055161 0.0995799
-0.09156032 -0.02965378 -0.2655908 -0.19793294 0.17795463 0.12401746 -0.07014105 -0.24971133
-0.000106635496 0.13300467 -0.0074865636 0.082005404 0.22749566 -0.08147038 -0.033085328 0.11779941
0.24195775 -0.09403409 0.03198122 0.13804252 -0.1538962 -0.08272245 0.04908049 0.10310868
0.15124822 -0.14009655 -0.25860187 0.2092941 -0.26227057 -0.04248088 -0.22903176 -0.072257355
0.084426984 -0.10964652 0.24252436 -0.23075682 0.10553986 -0.19505467 -0.18998817 0.010828712
0.15083325 -0.119057685 -0.05327827 0.23573023 0.1018526 -0.21070862 -0.053202607 0.15958701
-0.22733824 0.24674718 -0.09782578 0.006952717 0.23034139 0.22210714 -0.11037695 0.23501472
-0.05614131 0.10688578 0.05529192 0.090017304 -0.2571008 0.19154035 -0.013343328 -0.14524873
0.010620188 -0.085312314 0.037630063 0.25251663 -0.22090991 0.018847402 -0.101098254 -0.18768927
-0.033970304 -0.14588568 -0.16763648 -0.20411642 0.18191299 0.26556557 -0.15417275 -0.25858453
0.19822496 0.21638206 0.25674284 0.13912813 0.026922612 -0.25023293 -0.19668967 -0.16106439
-0.21748744 -0.21501358 0.18651424 -0.10136763 0.012296885 -0.049793743 -0.17072476 -0.19506668
-0.07171962 -0.084002584 -0.14442505 -0.1042819 0.12539722 0.15848224 -0.048806496 -0.22713746
-0.037874047 -0.037108418 0.0391163 -0.07975032 0.109888434 -0.059824646 -0.07526255 -0.25001088
-0.23218456 0.09029656 -0.14390181 0.25545993 0.1691454 0.049102284 -0.15022188 0.022501204
-0.21824507 0.22320956 0.24691686 -0.22509699 0.24007998 -0.17649184 0.06672269 -0.22014199
-0.19945072 0.24844098 -0.06224056 0.07617594 -0.05841908 -0.104082584 -0.035710305 0.21612151
0.23660702 -0.12694791 0.2365057 0.05596474 -0.06387252 0.2660952 -0.0021427458 0.21018328
0.022088235 0.23667462 -0.18763912 -0.10117405 -0.07184562 -0.14602223 -0.18398952 0.038298454
-0.2661444 0.1980881 -0.037126165 0.17395158 0.05630341 -0.13028082 -0.12621664 0.13313694
0.13305576 -0.020598779 0.11372053 0.04984864 0.016967278 0.022299754 -0.236673 -0.15944472
0.10172459 0.14387824 0.23487094 -0.25495502 -0.0032122866 0.0057276036 0.22609971 -0.17411913
-0.0041997563 -0.11245008 -0.26617965 -0.15085576 -0.07200776 0.06040431 0.0481793 0.09203029
-0.25932607 0.09653685 0.021423953 -0.015537687 0.18904969 -0.15259826 -0.04565949 -0.16387479
-0.122043766 -0.22647218 0.20143649 0.19940245 -0.054680336 0.06044423 0.1911176 -0.014903067
0.04303145 0.1939569 0.09909792 -0.2390952 0.10014064 0.01324093 0.20568365 -0.12990108
-0.25627387 -0.10085787 0.0669971 -0.24423982 -0.06359923 0.064843655 -0.15296994 0.04515457
0.2051398 0.22777294 0.24376778 -0.11763284 0.14481996 0.07642417 0.06788335 0.0767506
0.058572356 -0.23482385 0.1787634 0.08239897 -0.23015565 0.0049513024 0.2595027 -0.17818135

mlp.2.weight f4 [256, 512]
00000000: c7ea a7bc e083 a83b 3abf 2a3d 28cb 36bc
00000010: e8c9 1cbd f7ce 06bc 213e 15bd 1089 9dbc
00000020: a424 2cbd 1bb4 323d 7b63 073c f548 9b3c
00000030: 1afb fa3c 6db3 81bc f90b f93b 8a69 02bc
00000040: bbe1 bc3a b943 33bd b40e 273b fb16 ccbc
00000050: 8cd8 023d bc30 c6bc c7d4 e93c db54 133c
00000060: c2f5 0cbc efa2 11bc 45a3 d83b bb36 f5bc
00000070: 0433 223d fc74 913c f1a7 bdbb 2905 2a3b
00000080: 6183 0cbd caa6 b3bc b10c 3c3c 98fa a4bc
00000090: 498b 44bc d75e b33c 43be 943c 7536 c43c
000000a0: fe9b 34bd 90bf 013d 2b46 1d3d 4148 e23c
000000b0: 0af2 04bd dda9 d83c 73fc 95bc 95eb 12bc
000000c0: 91c2 84bc 662c 0fbd 85b2 073c 30ea 2c3d
000000d0: ab9c 28bd a60b 56bc 33ec e7bc 0c0b 2d3c
000000e0: 3731 73bc 157a 8c3b 7e4b 553a 75aa 31bc
000000f0: e275 ab3c 3066 b33b 4fc7 f3bc d635 043d
00000100: 67d2 313d 3fc3 e0bc 4433 20bd 1031 813c
00000110: 0c28 4d3c dd32 533c 1a4c d7bc 065f 13bd
00000120: 403f 893b 6d7c fdbc f1f2 fb3c 404b 1e3d
00000130: 215d 343d c1a7 aa3b 3c28 053d e80d 2b3c
00000140: b4ed 26bd 1bd6 133d 15c2 debc 902f 303d
00000150: 52e5 28bd 7b1c b13b af46 be3c 2d2a 1dbc
00000160: c700 86bc 27a2 2cbc d1a4 243d 0a1b 80bb
00000170: 890a be3b f95b 1f3d 1342 673b 3093 983c
00000180: 0695 2c3c 343c d7bc 9b54 81bc f661 babc
00000190: b578 7e3c c95c 243c b29e 223d 1a68 2dbd
000001a0: 4070 1cbc b857 cb3c 61f2 a13a a58d c53b
000001b0: 3be3 49bc c39f 283d 9d71 00bb befe 18bd
000001c0: cf49 c9bc 010d dbbc a0d5 173d 27ec 023d
000001d0: b93f 25bc 7d27 f2bc 2de2 a43c 4e02 f9bc
000001e0: 65de 9cbc 37f0 53bb b23f c63c 642c ffbc
000001f0: cc25 b93c dd8d 0c3d ea37 ecbc b2e7 fb3c
00000200: 09b1 993c cf6f 943c 9983 0e3d 1288 ecbb
00000210: 1e9e 693b 4d87 cabc a248 dfbc 309b 09bd
00000220: 060c 6f3b 1e59 87bb f394 a33c 1645 dd3c
00000230: 0713 acbb 7cb3 0b3d e787 a1bc fb5f 153b
00000240: 87ae 6b3c 8aa3 2f3d ff42 533c 33e8 133c
00000250: e0d9 c0bc baac 99bb 6e0a dd3c a8fc dbbc
00000260: 7d8b 0d3d bdbf 243b 5211 bebc 0ef0 c33c
00000270: 8b56 91ba 6311 2cbd 42f3 7abc a5cf 3ebb
00000280: dd24 6fbc d8ff 073d 526f 2cbd 6dd6 ea3c
00000290: e8a3 d0bc 5233 50bb 4f2b 02bd e5b7 bfbc
000002a0: 0ab0 43bb e22d f23b 49d9 1bbc 7cdd 313d
000002b0: 3109 d93c 8ac4 273d 9d15 e73c 975c 49bc
000002c0: 5d4d 243d 554c 40bb 25b2 303d 2ea1 c53c
000002d0: 99c7 c93c 900f 0fbd 9a48 19bd 2228 45bb
000002e0: e752 5c3b 1f1d 03bd 6d37 163c cd24 37bb
000002f0: 3041 b53c 051d 49bc 6af4 f23c 9639 283d
00000300: d358 083d f9d5 493c a74d 5ebc 4d9d d03b
00000310: d1c1 b43b 75ec 8e3c bdda 193d 6162 2c3d
00000320: 7b6b e7bb 471d 703c c71f e53c c45f e43c
00000330: 854d 2e3d 7570 b83c 9db9 29bc cd21 1dbd
00000340: 277a eebc 4fab 3bbb 3406 c3bc fa85 c13b
00000350: b7af af3c 06c2 243d 02a0 1c3d 16d8 c63c
00000360: aeed 823c f01a 2c3c 9e65 aa3c 8d67 043d
00000370: d84e a8b9 5eaa 033a 942d 19bb 14be ee3c
00000380: 90f3 6a3c 2189 14bd 3327 74bb 6fe6 38bc
00000390: af8c fe3c 5abe 40bc ad07 c4bb a89c d9bc
000003a0: 47b9 11bd d885 41bc f3b8 033c e29f a23c
000003b0: 8d8a b93c 5943 163d 6dcc f7bc 1c7e 14bd
000003c0: 6fdc fc3c 3f5d ecbc 060b 793c 33bb 5cbb
000003d0: 8de7 e43c 3fa9 1fbc 8306 4b3c 5717 32bd
000003e0: 497d 0cbd 0981 b3bc 28e5 853c 76a7 ff3b
000003f0: e989 883c 3a96 b3bc 94e4 8e3c 27cd 1f3d
-0.020497693 0.005142674 0.041686274 -0.011156835 -0.03827849 -0.008228055 -0.036436204 -0.019230396
-0.04202713 0.043628793 0.008263464 0.018955687 0.030637313 -0.015832627 0.007600304 -0.007959733
0.0014410535 -0.043765757 0.0025490941 -0.024913302 0.031944796 -0.02419316 0.028543843 0.008992399
-0.008603515 -0.008888944 0.00661126 -0.029933324 0.039599434 0.017755978 -0.0057878424 0.0025943017
-0.03430498 -0.021930117 0.011477635 -0.020139024 -0.011996099 0.02189581 0.01815713 0.023951748
-0.04409408 0.03167683 0.038396996 0.027622344 -0.03245739 0.026448185 -0.018308854 -0.0089673
-0.016206058 -0.03495445 0.0082823085 0.042215526 -0.041165035 -0.013064301 -0.02831087 0.010561716
-0.014843277 0.0042870142 0.00081365544 -0.010843863 0.020930234 0.005474828 -0.029758124 0.032277904
0.043413546 -0.02743685 -0.03911139 0.015770465 0.012521755 0.012890545 -0.026281405 -0.035979293
0.004188448 -0.03094312 0.030755492 0.038645983 0.044034127 0.005207986 0.032509074 0.010440327
-0.040754035 0.03609286 -0.027192155 0.04301411 -0.041234322 0.0054050065 0.023227064 -0.009592575
-0.016357793 -0.010536707 0.040196244 -0.0039094733 0.0057995957 0.03890607 0.0035287186 0.018624872
0.010533577 -0.026273824 -0.015787413 -0.02275179 0.0155317085 0.010031887 0.039702125 -0.042335607
-0.009548247 0.024822101 0.001235556 0.0060288482 -0.012322242 0.041167986 -0.0019598969 -0.037352316
-0.024571327 -0.0267396 0.037068963 0.031963494 -0.010085993 -0.029559845 0.02012738 -0.030396607
-0.019149015 -0.0032339224 0.024200294 -0.031149097 0.02260103 0.03431498 -0.028835256 0.03075013
0.018761175 0.01811972 0.03479347 -0.0072183693 0.0035647224 -0.02472272 -0.027256314 -0.033595264
0.0036475672 -0.0041304966 0.019968485 0.027010482 -0.0052512917 0.034106717 -0.019718124 0.0022792805
0.014384872 0.042880572 0.012894391 0.009027529 -0.02354139 -0.00468978 0.026982512 -0.026853874
0.034556855 0.00251387 -0.023201618 0.023918178 -0.0011088414 -0.04200877 -0.015316786 -0.0029115465
-0.014596191 0.033202976 -0.04209835 0.0286667 -0.025468782 -0.003176887 -0.031779584 -0.023403117
-0.0029859566 0.0073907236 -0.009512254 0.043424115 0.02649364 0.04095892 0.028208548 -0.012290142
0.040112842 -0.0029342372 0.043138642 0.024124708 0.024631308 -0.03492695 -0.037422754 -0.0030083735
0.003361875 -0.032010194 0.009168488 -0.002794552 0.02212581 -0.012274985 0.029657561 0.041070543
0.033287834 0.012319081 -0.013568318 0.006366408 0.005516269 0.017446736 0.03756212 0.04208601
-0.007062373 0.014655418 0.027969254 0.027877696 0.042554397 0.022514561 -0.010359195 -0.038362313
-0.029110981 -0.0028636043 -0.023806669 0.005905864 0.021446092 0.040224098 0.038238533 0.02427296
0.015982475 0.010504469 0.020800408 0.032325316 -0.000321022 0.000502264 -0.0023373114 0.02914337
0.014340296 -0.03626359 -0.003725481 -0.011285408 0.031072943 -0.011764133 -0.0059823603 -0.026563957
-0.035577085 -0.011811696 0.008039701 0.019851629 0.022649074 0.03668532 -0.030248845 -0.03625308
0.03086683 -0.028853057 0.015200382 -0.0033680915 0.027942443 -0.009744941 0.012391689 -0.04347929
-0.03429917 -0.021912115 0.016344622 0.0078019453 0.016667323 -0.02192222 0.017442979 0.039014008

mlp.2.bias f4 [256]
00000000: 6b8e 173c 6f46 df3c 4e50 323d 1323 cdbc
00000010: 7a13 d33c 8b7b 9c3a 7230 2f3d 80bb 34bc
00000020: 5dd1 343d 1da5 343c 04c2 b23c abc6 54bc
00000030: 992f 673c 4f90 1c3d fb1a 4ebc 2f02 003d
00000040: e2bd a83c 7d99 93bc 52f9 b1bb 30d1 073d
00000050: 4c31 e8bb 1f8d 8bbc 7321 1bbd 2f9b a93c
00000060: 4d9f d03c dc98 7eb9 191e 283c a3a9 683b
00000070: 7005 93bb 93ca a4bc f6a6 adbb 38e3 1cbd
00000080: bc3b 123d 0cd5 31bd 4088 243c aeb5 2b3d
00000090: 6973 85bc af35 1abd 475a 0e3d d730 243d
000000a0: 49cf 2cbd 8a5d 243d d1b5 e93c ef9a 48bc
000000b0: 7c2b 68bc bbbc 31bc 3fb4 28bc b855 9f3b
000000c0: 9b3b 223d 7cc2 a9bc 4f2d 0abd a41e d83c
000000d0: 979b debb cab3 c2bc b108 2fbc 75ce 213d
000000e0: 83e4 16bd 0ade 10bd 59f1 e73c cc55 10bc
000000f0: da38 8c3c 874d 11bd 8618 79bc 3359 b6bc
00000100: 1c8e 08bd 8a79 1cbd 6021 123d dc39 1a3c
00000110: 73ea 333d f0fb 81bc 47de d8bc 2d66 983c
00000120: e192 933c cc90 1dbc 9ade a73c bce1 ae3c
00000130: c4dc b63b 46c8 ee3c 6ddc adbc 3a3c f2bc
00000140: 5930 1bbd 89dd 2cbd d6ae e7bc 929d 60bc
00000150: 32ba 1b3c 0254 71bc 198f 98bc e8eb c4bc
00000160: d5e6 22bd 1d2e 3a3c f643 f83c 3441 09bd
00000170: c972 7a38 dfe1 cbbc a830 8d3c 7a42 2abd
00000180: 73d5 13bd 41ad 58bb d14d 2a3c fb10 1b3d
00000190: 201b a8bc 5323 c3bb 545c b8bb 8c53 c6bb
000001a0: 969f 5fbc 7e52 153d 58db 893b 37c3 9ebb
000001b0: d780 7abc 81f0 ee3c b700 e23b a6cf f83b
000001c0: 557d d73c 3b4a f53c 3d1f 2ebc 69ec 60bb
000001d0: f5d8 ab3c 44ef 83bc ef3c f63b fef1 7f3c
000001e0: de64 1ebd 9c96 12bd c268 8e3c 1166 f0bc
000001f0: d5cc bf3b 5be6 da3c 56a6 9539 4e86 1fbd
00000200: 2abc f7bc e937 c13c 4208 0e3d 5f79 d8bb
00000210: 5e4e d03c 41c9 a5ba c877 36bc ec9d 9dbc
00000220: bf56 0b3d 726b 0ebd 8b25 1c3d 015f af3c
00000230: 14af 883c 11cf 29bc e780 443b 9358 ad3c
00000240: 7345 70ba 49e2 fabc 7850 febb 6d7d d4bc
00000250: 598d b0bc 7def eebc 1d42 243c e766 ad3c
00000260: 16e1 233b b050 f63b e527 0abd 974a e93b
00000270: a498 b8bc 0827 05bd 45dd ccbc e38c 183d
00000280: af9e b4bb 3432 22bd 398f f63b 5609 32bd
00000290: 9cbe 1c3d aa0a c13c 0233 1b3d 7932 2a3d
000002a0: 7097 c9bb f122 513c 3a0c 273d 8ad2 05bd
000002b0: d006 0e3d 9d9f 9fbb b1c4 093d d635 98bc
000002c0: af43 78bc 7b36 e33c e5c0 723c d8f6 2ebd
000002d0: cf4c 1f3d e6f8 f93c 3763 25bd bc04 da3b
000002e0: 489e 393a 40ef 923c 3c83 ce3b 87d7 f13b
000002f0: 108e e7bc 3e78 253d 10e0 0cbd d16f cdbc
00000300: 287a 953c e4a9 8bbc 895f 6ebc 1e48 0dbd
00000310: e771 433c 4955 0e3d bb86 07bd 4bad 513c
00000320: e903 193d 20f3 7ebc 5f7d 2abb aff3 46bc
00000330: 08f4 503c 42df 123d c3b5 7ebb c48c 77bb
00000340: 3760 9bbb 38dc 34bd a47e dabc be66 25bd
00000350: df0f c73c 2cc8 1ebd 04c9 e83c 2bac c43b
00000360: 7ad2 243c 8d01 5a3c 1854 2abd ab24 30bd
00000370: bb25 ce3c ba67 bdba 4002 4b3c 8d8a 823c
00000380: 364d 19bd 29c2 0c3a e3f9 9b3c 11d3 10bd
00000390: bf49 1f3d ae88 1a3c 755e c13c d06c debc
000003a0: bf4d 013c ba02 a73c 820e 113b 0812 223d
000003b0: 96af fabc 8241 a03c 351b 25bd 96a2 24bd
000003c0: 6cfe 2fbd feaa 1bbc d9aa 693c a05b 1ebc
000003d0: 4a77 be3c 8c15 28bd d100 74bc 03c9 f93c
000003e0: 0ce4 e2ba b4bc 64bc f13c 07bd 2a09 083d
000003f0: 3e5b 6f3c 2392 7bbc 3cc3 94bc 40c1 803c
0.009250264 0.027255265 0.043533616 -0.025041139 0.025766123 0.0011938674 0.04277081 -0.011031032
0.044144977 0.011025694 0.02182103 -0.012986819 0.014110469 0.03822356 -0.012579675 0.031252082
0.020598356 -0.018017525 -0.0054313326 0.03315848 -0.007085955 -0.017035065 -0.037873697 0.02070388
0.025466586 -0.00024280272 0.010261082 0.0035501502 -0.004486732 -0.020116126 -0.0052994443 -0.03830263
0.0357015 -0.043416068 0.01004225 0.04192131 -0.016290383 -0.037648853 0.034754064 0.04008564
-0.04218987 0.04012827 0.02852908 -0.01224397 -0.014170524 -0.0108482195 -0.01029688 0.0048625134
0.039607625 -0.02072262 -0.033734616 0.026381798 -0.00679345 -0.02376737 -0.010683225 0.039503533
-0.03683902 -0.035368003 0.028313326 -0.008809518 0.017116953 -0.035474326 -0.015203601 -0.02225933
-0.03333865 -0.038201846 0.03567636 0.009413209 0.04392476 -0.015867203 -0.026473178 0.018603409
0.018014373 -0.009617042 0.020491887 0.021347873 0.0055805165 0.029148232 -0.021223271 -0.029569734
-0.037887905 -0.04220346 -0.02828161 -0.013709443 0.009504842 -0.014729502 -0.018622922 -0.02403827
-0.03977092 0.011363533 0.030305844 -0.03350945 5.9711547e-05 -0.024887977 0.017235115 -0.041567303
-0.036092233 -0.0033062252 0.010394529 0.03785799 -0.020520747 -0.0059551387 -0.0056262407 -0.00605244
-0.013648888 0.036455624 0.004207056 -0.0048450488 -0.015289507 0.029167416 0.006897058 0.007593113
0.02630488 0.029942622 -0.010627565 -0.00343206 0.020977477 -0.016105302 0.007514588 0.01562166
-0.038670413 -0.035788164 0.017383937 -0.029345544 0.0058532753 0.02672117 0.00028543425 -0.038946442
-0.03024109 0.02358623 0.034675844 -0.0066062654 0.025427993 -0.0012648479 -0.0111369565 -0.019240342
0.034018274 -0.034770437 0.03812174 0.021407606 0.016685046 -0.01036431 0.0029984058 0.0211604
-0.0009165622 -0.03062548 -0.0077610575 -0.025938714 -0.021551775 -0.029166931 0.010025528 0.021167232
0.0025005988 0.007516943 -0.033729453 0.0071194875 -0.022533722 -0.032507926 -0.025007853 0.037243735
-0.0055120806 -0.03959866 0.0075243977 -0.043465935 0.038267717 0.023564655 0.03789044 0.04155204
-0.006152086 0.012764678 0.040783145 -0.03267149 0.034674466 -0.0048713223 0.033634845 -0.018580358
-0.015152856 0.02773594 0.014816497 -0.042715877 0.03889161 0.030514192 -0.04037782 0.0066533964
0.00070807757 0.017936349 0.0063022655 0.007380429 -0.028265983 0.040397875 -0.03439337 -0.025077732
0.018246725 -0.017048784 -0.014549145 -0.034492604 0.011929012 0.034749303 -0.033087473 0.012797664
0.037357245 -0.015560895 -0.0026014668 -0.01214306 0.012753494 0.035857446 -0.0038865663 -0.0037773112
-0.0047416943 -0.04415533 -0.026671715 -0.040381186 0.02429956 -0.038765118 0.028416164 0.0060019693
0.010059947 0.013306034 -0.041584104 -0.04300372 0.025164476 -0.0014450469 0.012390673 0.015935207
-0.03742715 0.0005369508 0.019040054 -0.03535754 0.03888869 0.009432001 0.023604611 -0.027151495
0.007892071 0.020387042 0.0022133891 0.039567977 -0.030601304 0.019562487 -0.04030915 -0.040194117
-0.042967245 -0.009501217 0.014261925 -0.0096654 0.02325024 -0.041036174 -0.014892773 0.030491358
-0.0017310395 -0.013961006 -0.033017103 0.033211865 0.014609156 -0.015354666 -0.018159501 0.015717149

mlp.4.weight f4 [1, 256]
00000000: 249e ac3c ac35 b7bc e054 4bbc 00c5 37ba
00000010: a07a 3dbc 3a9e 65bd 30ff 1ebd 248a 23bd
00000020: 00de 65bb 46f4 0c3d b4e7 34bd 8470 fc3c
00000030: c4a6 463d e21c 31bd 1aed 6abd f61c 0dbd
00000040: b475 a1bc 740f b33c 3038 24bc 8c70 d43c
00000050: 006a 30bb f8cc 11bd 00b5 de3b 6cdc be3c
00000060: ee59 343d 7861 673c a87e 04bc 8e46 37bd
00000070: 8a5d 2a3d 946b 413d 6042 dbbb e8a8 79bc
00000080: 80ba fa3b 50cd 96bb 1699 68bd 303f 443c
00000090: 5a37 393d 6852 203c 983a 4cbd cc42 b0bc
000000a0: e46b 2cbd 60fc 6cbd c4c3 e83c bc37 b03c
000000b0: 3853 c43c aac7 7e3d 82ec 653d f440 aebc
000000c0: 082c a23c a6d4 5fbd c402 cf3c 10a4 5a3d
000000d0: 50ea 4cbc 3845 ac3c 30d6 c3bb 2610 373d
000000e0: 345b d3bc 00a0 0f3b 96d0 613d 7859 86bc
000000f0: fa2b 70bd 64de 0d3d 6ccc 0cbd c06e 49bb
00000100: 4894 59bc 38a4 3d3c 1018 90bb 1445 ebbc
00000110: f0d8 b7bb e0f4 05bb 8018 eb3a 406e 113c
00000120: e67f 47bd 2a34 4ebd d62f 5ebd 3057 90bb
00000130: 409e 373b a4e4 fabc 0480 093d ec85 b7bc
00000140: e07b 16bc 1046 f3bc b449 093d b022 ffbb
00000150: ee15 4dbd e08d 333c 00aa 5a39 b49f 0abd
00000160: 86dd 373d 90ee 96bc acc6 3d3d bcc7 dfbc
00000170: 187e f0bc fc6a 28bd 50da e53c 300d 4dbd
00000180: 90fe 3c3c 88ea 3f3c c085 a5bb 80b0 c53c
00000190: 40c1 263d 5e8e 223d 6882 d23c b0f9 d5bc
000001a0: 2290 623d 8c4e e2bc 008a 5e3a 4204 4c3d
000001b0: 64a5 c53c 2001 273c 5424 debc 04ae 4c3d
000001c0: 4047 5dbb 086c 563d 686c 2ebc 00af b23b
000001d0: 74dd 333d 3473 f83c 5812 4a3d 8032 5dbc
000001e0: 12be 51bd d241 5a3d bc2d 70bd 0e06 49bd
000001f0: 32f8 113d 00a0 ea3b b2dc 5ebd e07d 78bd
00000200: f865 af3c 5aab 35bd 4018 b93c 54d0 3f3d
00000210: a803 51bc 2281 78bd b0ff a1bc c486 093d
00000220: 6887 7c3d d8d1 41bd 8018 e03b 687a 55bc
00000230: 46ff 13bd 044c bbbc bc19 b4bc f4ce 143d
00000240: 3c80 bfbc e22c 15bd b848 14bc 14aa 673d
00000250: 44ba d5bc 1013 f23c 9cc2 133d 4083 cabc
00000260: e42a f7bc 58f1 bf3c 6006 273c ea5c 113d
00000270: 4060 61bb c2f3 2cbd 38be 9f3c 0c01 85bc
00000280: 8e61 62bd e228 7e3d 6890 46bd 0ab5 19bd
00000290: c8ea f73c 48c9 e7bc d8b4 d53c bc1c 55bd
000002a0: 4070 093b 523f 0bbd b6e7 653d dc45 7d3d
000002b0: 9c39 7e3d 2466 b53c 304d f23b 8867 7d3c
000002c0: 28bf 41bd 307b 493c e025 1bbd 68a7 443d
000002d0: 2ac7 47bd 8a53 79bd 40de 4b3d bea9 15bd
000002e0: cc13 1f3d f04b 3bbc 1a96 4cbd f489 bf3c
000002f0: 5c12 7d3d 60d4 0cbc e05e 033d 580f 00bc
00000300: 7227 33bd 8003 e33a fad5 76bd 6ece 223d
00000310: c4f1 a93c 20bc c63b 74f2 cfbc a05a 61bc
00000320: 2e2d 0bbd f457 07bd fcdb 13bd fc28 7d3d
00000330: 302e b3bc a032 6e3c 4430 4dbd 4c24 2bbd
00000340: 7ce4 9cbc 4031 0f3d 90c7 27bd e8a2 623c
00000350: b857 34bc a019 4c3c ec22 a2bc 1253 2c3d
00000360: 68b2 693c 6050 61bc 5ccf b03c a68a 4c3d
00000370: e84e d6bc 6053 59bc c0c8 15bc 10bd 293c
00000380: 1a89 3e3d 586e 2f3d 605f d3bb fcfc 0dbd
00000390: 1429 753d 44ec 673d d854 08bd ac06 183d
000003a0: 2c7e c13c 0092 0639 dcd8 483d 7808 263d
000003b0: 1afe 713d ce6f 15bd bcfc b1bc 6c57 633d
000003c0: 086f 9abc 00c0 5339 9682 6d3d 2c19 f53c
000003d0: 64cd 733d fcf6 b73c 00ee 713b d804 43bc
000003e0: d0be bf3b 8087 323b a0ba 063b 1866 a2bc
000003f0: b685 203d 9010 66bc 20b0 883b 3025 9d3c
0.021071501 -0.02236446 -0.0124103725 -0.0007010251 -0.011564881 -0.0560591 -0.038817585 -0.039926663
-0.003507495 0.034412645 -0.04416628 0.03081537 0.048498884 -0.043240435 -0.057355024 -0.034451447
-0.019709446 0.021857955 -0.010023162 0.025932573 -0.002691865 -0.035595864 0.006796479 0.023298465
0.044031076 0.014122359 -0.008086838 -0.04474502 0.041593112 0.047221735 -0.006691262 -0.015238024
0.007651627 -0.004602112 -0.05678662 0.011977956 0.045218803 0.009785272 -0.049860567 -0.021516226
-0.04209508 -0.05785787 0.02841366 0.021510951 0.023965463 0.062202133 0.056133755 -0.021271206
0.019796386 -0.054646157 0.025269873 0.05337912 -0.012507036 0.0210291 -0.005976461 0.044693135
-0.025800325 0.0021915436 0.055130564 -0.016400084 -0.05863569 0.034635916 -0.03437464 -0.0030736178
-0.013279982 0.011574797 -0.0043973997 -0.028719462 -0.0056105778 -0.0020440146 0.0017936379 0.008876383
-0.048705958 -0.050342716 -0.05424484 -0.004404925 0.0028017908 -0.030626602 0.03356935 -0.022402726
-0.009184808 -0.029696494 0.033517554 -0.0077861175 -0.050069742 0.010959119 0.0002085343 -0.03384371
0.044888996 -0.018424302 0.046332046 -0.02731692 -0.029357001 -0.041117653 0.028058201 -0.050061405
0.011535302 0.011713631 -0.0050513446 0.024132013 0.04071164 0.039686553 0.025696948 -0.026120037
0.055313237 -0.027625345 0.00084891915 0.049808748 0.024126716 0.010193139 -0.027116932 0.04997064
-0.0033764392 0.05234912 -0.010645963 0.0054529905 0.043912366 0.03032837 0.0493339 -0.01350081
-0.051206656 0.053285427 -0.058637366 -0.04907804 0.035637088 0.007160187 -0.05440969 -0.06066692
0.021410927 -0.044352867 0.022594571 0.046829537 -0.012757219 -0.060670026 -0.019775242 0.03357579
0.06165257 -0.047319263 0.006838858 -0.013029672 -0.03613212 -0.022863396 -0.021984927 0.03633018
-0.023376577 -0.036419757 -0.009050541 0.056558684 -0.026089795 0.029550105 0.036074266 -0.024720788
-0.030171819 0.023430511 0.010194391 0.035489 -0.0034389645 -0.042224653 0.019499883 -0.01623585
-0.055268817 0.062050708 -0.04847756 -0.037526168 0.03026332 -0.02829422 0.02608721 -0.052029356
0.0020971447 -0.033995934 0.05612918 0.0618342 0.06206666 0.022143431 0.0073944554 0.015466578
-0.04730144 0.012297437 -0.037877917 0.048011214 -0.048773922 -0.060870685 0.0497725 -0.036538832
0.03883724 -0.011431679 -0.049947836 0.02338121 0.061785087 -0.008595556 0.0320729 -0.007816158
-0.04373879 0.0017319769 -0.060262658 0.039747648 0.020745166 0.0060649067 -0.025384165 -0.013754517
-0.033978634 -0.033042863 -0.036098465 0.061806664 -0.02187261 0.014538437 -0.050094858 -0.041782662
-0.019151919 0.034959078 -0.040961802 0.013832785 -0.011007242 0.012457281 -0.019792043 0.04207141
0.014263727 -0.013752073 0.021583252 0.049936913 -0.026160672 -0.013264507 -0.009142101 0.010360017
0.04651747 0.04282984 -0.0064505786 -0.034665093 0.05985363 0.056621805 -0.03328404 0.037115738
0.023619734 0.00012833625 0.04903494 0.04053542 0.05908022 -0.03648358 -0.021726958 0.055503294
-0.018851772 0.00020194054 0.057985865 0.02991923 0.059522048 0.022456639 0.003691554 -0.01190301
0.005851604 0.0027241409 0.0020558015 -0.019824073 0.039190017 -0.014042035 0.0041713864 0.019182771
